saved_lstm_models_cv/inference_lstm_period_33pct_pca_True.pth (torch, 214047 bytes, 9 tensors)

lstm.weight_ih_l0 f4 [256, 6]
0	0x3f1a23fc	0.6021116
1	0x3de803a0	0.113288164
2	0xbf1424f2	-0.57868874
3	0x3e2ca2c9	0.16858973
4	0xbe8f0fdd	-0.2794179
5	0xbddf44f7	-0.10901826
6	0x3dd96708	0.10615355
7	0xbf5f9b5c	-0.87346435
8	0x3f90c9c6	1.1311576
9	0x3f375ff4	0.7163079
10	0x3e898051	0.2685571
11	0xbf55fb22	-0.83586323
12	0xbeaa4db9	-0.33262423
13	0xbe8704af	-0.2637076
14	0x3da015b6	0.07816641
15	0xbe31b259	-0.1735319
16	0x3e5fbc82	0.21849254
17	0xbfc71766	-1.5554016
18	0x3e077158	0.13226831
19	0xbf4ba249	-0.795445
20	0x3eadbe54	0.3393427
21	0xbf2b552e	-0.6692685
22	0x3fd332f7	1.6499928
23	0x3f292986	0.66078985
24	0xbedf0860	-0.43561077
25	0x3ea75a46	0.3268606
26	0xbdee41a4	-0.11633614
27	0x3ee5237d	0.44753638
28	0x3f38e790	0.72228336
29	0x3ea8ec91	0.32992986
30	0x3e4cdd25	0.20006235
31	0xbf2e0dae	-0.67989624
32	0x3e90fcb4	0.28317797
33	0x3db9e593	0.09076991
34	0xbe68be6d	-0.22728892
35	0xbc01b3f8	-0.007916443
36	0x3edc3ebe	0.43016618
37	0xbd4d45e7	-0.050115492
38	0x3f00da17	0.5033278
39	0x3bb6b7f3	0.0055761277
40	0x3d81532a	0.063146904
41	0xbfa9091f	-1.3205909
42	0x3e4b87d8	0.19876039
43	0x3e0f9003	0.1401978
44	0x3f21aa05	0.63150054
45	0xbf3739bd	-0.71572477
46	0xbeaf90df	-0.34290215
47	0xbd109ebe	-0.03530764
48	0x3e9afe2e	0.3027205
49	0x3f210508	0.628983
50	0xbe6b6bfa	-0.22990409
51	0x3deaa6c6	0.11457591
52	0x3f1cb8a5	0.61219245
53	0xbeb0c022	-0.34521586
54	0x3f01a6c9	0.5064512
55	0x3e474888	0.19461262
56	0x3da50079	0.08056731
57	0xbd4a732e	-0.04942625
58	0xbd38548e	-0.045002513
59	0xbf0c5698	-0.5481963
60	0x3f6c2411	0.9224253
61	0x3f0b17c2	0.54333127
62	0xbe86f532	-0.26358944
63	0x3e080785	0.13284118
64	0x3e048e8b	0.12945001
65	0x3ddb30c2	0.10702659
66	0x3f004d25	0.50117713
67	0x3f09e2a2	0.5386144
68	0xbef11580	-0.47086716
69	0xbf09cd30	-0.53828716
70	0x3e733cc9	0.23753656
71	0x3f5006ba	0.81260264
72	0xbc1e0ab7	-0.009646109
73	0x3efb2c40	0.49057198
74	0xbf48c86d	-0.78430825
75	0x3ef50b11	0.47860005
76	0x3e3cdd63	0.18443827
77	0xbeb22867	-0.3479645
78	0x3f76f41a	0.9646622
79	0xbd8eb5d5	-0.069682755
80	0xbe8d0b5d	-0.27547732
81	0x3c7ca9c9	0.015421339
82	0x3eb21ac6	0.34786052
83	0xbf71be92	-0.9443141
84	0x3f089242	0.5334817
85	0x3f0543ad	0.5205639
86	0x3eb6d364	0.35708153
87	0x3f032e30	0.5124235
88	0x3edab6b3	0.42717513
89	0xbe0b8493	-0.13624792
90	0x3ee934d3	0.45548114
91	0xbecbeb07	-0.3982775
92	0xbe41a9fa	-0.18912497
93	0xbf1f310d	-0.6218422
94	0x3e39e480	0.18153572
95	0xbee342c4	-0.44386876
96	0x3f039cac	0.5141094
97	0x3e356938	0.17715919
98	0x3f028f7b	0.51000184
99	0xbd8f4eab	-0.069974266
100	0xbe85472a	-0.26030856
101	0xbdee8b29	-0.116476364
102	0x3ee4ea5a	0.44710046
103	0xbe880352	-0.26565033
104	0x3fced827	1.6159714
105	0x3e5809f5	0.21097548
106	0x3f21455d	0.62996465
107	0x3e853c3a	0.26022512
108	0xbf168a53	-0.58804816
109	0xbf17ada0	-0.59249306
110	0xbf5ebdd0	-0.8700838
111	0x3e63311b	0.22186701
112	0xbefd2479	-0.4944189
113	0xbe9b98d4	-0.30390036
114	0x3f63c487	0.8897175
115	0xbe680c06	-0.22660837
116	0x3f5b6eb1	0.85715777
117	0x3e0c748b	0.13716333
118	0xbef2139b	-0.47280583
119	0x3f7eb8b2	0.9950057
120	0x3ecd3e5b	0.40086636
121	0x3ed7928d	0.42103997
122	0x3f6dcc08	0.9288945
123	0x3f46b694	0.7762234
124	0xbebf1f18	-0.3732841
125	0xbe545714	-0.20736343
126	0x3ea2883b	0.3174456
127	0x3f317117	0.69313186
128	0xbd5a6ab7	-0.053324427
129	0xbf24a241	-0.6431008
130	0xbe0f6b32	-0.14005736
131	0xbe8cda04	-0.27510083
132	0x3eebaa53	0.46028385
133	0x3efae0b3	0.48999557
134	0x3bfa8ca2	0.0076461593
135	0x3f1bea15	0.60904056
136	0x3f08c9ad	0.5343273
137	0x3d0b3f86	0.033996128
138	0x3c8382c8	0.016053572
139	0x3ecf801b	0.40527424
140	0x3f0e0797	0.5548033
141	0x3c387e48	0.011260577
142	0xbeb0de69	-0.34544685
143	0xbd538eab	-0.05164973
144	0x3f836bf8	1.0267324
145	0xbf19194d	-0.5980423
146	0x3f1d7811	0.6151133
147	0xbe6467c6	-0.22305211
148	0xbe945013	-0.28967342
149	0x3f4231ec	0.75857425
150	0xbef09a32	-0.46992642
151	0x3e776b3d	0.24162002
152	0x3f060162	0.5234586
153	0xbe1855b0	-0.14876437
154	0xbf496dbc	-0.78683066
155	0xbf1a7cee	-0.6034688
156	0x3ea5bbb1	0.3236976
157	0x3e838ee9	0.2569497
158	0x3f1cfc08	0.6132207
159	0x3ef6cf5c	0.48205078
160	0x3f3ae292	0.7300197
161	0xbf829af3	-1.0203537
162	0xbe8ec1a2	-0.27882105
163	0xbe8bf68e	-0.27336544
164	0xbeaa8c23	-0.3331004
165	0x3c1cf238	0.009579234
166	0xbf53d431	-0.82745653
167	0xbf4af2e7	-0.7927689
168	0xbd5f78f6	-0.054558717
169	0x3f7ec00c	0.9951179
170	0x3f803546	1.0016258
171	0xbe4d781d	-0.20065351
172	0xbec041db	-0.37550244
173	0x3eda30f2	0.42615467
174	0x3e08b34a	0.13349643
175	0x3de6ba5b	0.11266013
176	0xbd64edfe	-0.05589103
177	0x3f1455a9	0.5794321
178	0xbf6babb2	-0.9205886
179	0x3eca6c1f	0.39535615
180	0xbf4100e5	-0.7539199
181	0x3e8254c4	0.25455296
182	0x3f065bfe	0.5248412
183	0xbf1fbb0a	-0.62394774
184	0x3eb242a9	0.34816483
185	0xbf5e9efb	-0.86961335
186	0x3f1de98d	0.61684495
187	0xbf0ea9ff	-0.55728143
188	0x3f2af6e5	0.6678298
189	0xbe8d0529	-0.27543
190	0x3e806a63	0.25081167
191	0x3e6629b1	0.22476842
192	0xbe6bbc02	-0.23020938
193	0xbf159665	-0.5843261
194	0xbb533dcc	-0.0032232879
195	0x3e65ec8c	0.22453517
196	0xbda1b9b2	-0.07896747
197	0x3f4aeb37	0.7926516
198	0xbe0f0381	-0.1396618
199	0xbea57a60	-0.32319927
200	0x3fdb0e69	1.7113773
201	0x3e046ab6	0.12931332
202	0x3f3c4856	0.73547876
203	0x3da51a7b	0.080616914
204	0xbefb8bd8	-0.4913013
205	0x3e0edd6f	0.13951658
206	0xbe9a51ef	-0.30140635
207	0xbefa95e9	-0.48942497
208	0xbf13efdb	-0.57787865
209	0xbf1cca4f	-0.612462
210	0x3f418126	0.7558769
211	0xbf22ef0a	-0.63645995
212	0xbeb9b27c	-0.36268985
213	0xbe66665b	-0.22499983
214	0x3f382138	0.7192569
215	0xbfb1190f	-1.3835772
216	0x3eb37bda	0.3505543
217	0x3e863de7	0.26219103
218	0x3d5d44ab	0.054020565
219	0xbf112616	-0.5669874
220	0xbd343de7	-0.044004347
221	0xbefde343	-0.4958745
222	0x3ec48d4a	0.38389045
223	0xbe4133a4	-0.18867356
224	0x3ea8b93d	0.32953826
225	0xbe8001c9	-0.25001362
226	0xbf6161fb	-0.8804013
227	0x3f36a638	0.7134738
228	0x3d7e8ae6	0.062144183
229	0xbef1d910	-0.47235918
230	0xbf2bbed5	-0.6708806
231	0xbe2980d7	-0.16553055
232	0xbf9e9fa5	-1.239247
233	0xbfe7de77	-1.8114766
234	0x3f304ec2	0.68870175
235	0xbe4c8b3d	-0.1997499
236	0x3f134398	0.57525015
237	0x3e459ad6	0.19297346
238	0xbf6bd065	-0.9211486
239	0xbba71ae0	-0.0050996393
240	0xbeee6514	-0.4656149
241	0x3f20ed41	0.6286202
242	0x3f9f4f7a	1.2446129
243	0xbea9bedb	-0.33153424
244	0xbeaa3dde	-0.33250326
245	0xbf7b2160	-0.980978
246	0x3ed0b747	0.4076483
247	0x3f819014	1.0122094
248	0x3ea696eb	0.32537016
249	0xbf148d23	-0.5802786
250	0xbf1536b3	-0.5828659
251	0xbf1f4b65	-0.6222442
252	0x3d5f82df	0.054568168
253	0x3ed26d51	0.41099027
254	0xbf36ee06	-0.71456945
255	0x3d389e1a	0.045072652

lstm.weight_hh_l0 f4 [256, 64]
0	0x3e98e4ef	0.29862162
1	0xbec8b45e	-0.3920011
2	0xbe269215	-0.16266663
3	0x3e09dced	0.13463183
4	0x3ea3fd76	0.32029313
5	0x3dda3acf	0.10655748
6	0x3e996871	0.29962495
7	0xbf1087eb	-0.56457394
8	0xbe528b10	-0.2056086
9	0xbd49ff8f	-0.049315985
10	0x3e2862c4	0.16443926
11	0x3eb35c35	0.35031286
12	0x3db24a36	0.08705561
13	0x3e82b7e9	0.25530937
14	0x3d94dc36	0.072685644
15	0x3dd0a1cf	0.101871125
16	0x3e56b4dc	0.2096743
17	0xbd19415e	-0.037415855
18	0x3ee5d489	0.44888714
19	0xbe5abc0e	-0.213608
20	0xbd28cc94	-0.041210726
21	0xbdd0d16c	-0.10196194
22	0xbe3ae42b	-0.18251102
23	0x3ec04a01	0.3755646
24	0xbeeb76c1	-0.4598904
25	0x3e520931	0.20511319
26	0xbde46570	-0.1115216
27	0x3d49f7c4	0.049308553
28	0xbe71fdb6	-0.2363194
29	0xbeb80e25	-0.3594829
30	0xbeab0f07	-0.33409902
31	0xbe54a9d4	-0.2076791
32	0xbecd8e5d	-0.40147677
33	0x3e8432d1	0.2582002
34	0x3ed50fd9	0.41613653
35	0x3d0487c7	0.03235605
36	0x3dad0ca5	0.084496774
37	0xbc9530cf	-0.01821175
38	0x3e938fa7	0.28820536
39	0xbea6d288	-0.32582498
40	0x3d95d92c	0.07316813
41	0xbe6dd780	-0.23226738
42	0xbe0c6bd5	-0.1371301
43	0xbf24968d	-0.6429222
44	0x3e5304dd	0.20607324
45	0xbd9e51a1	-0.07730413
46	0xbe8b2fb5	-0.27184835
47	0xbea3f01e	-0.32019132
48	0xbe423a2a	-0.189675
49	0xbea730be	-0.32654375
50	0xbae46bf8	-0.0017427197
51	0xbd9d9809	-0.07695014
52	0xbe5007f7	-0.20315538
53	0x3c193ee7	0.009353376
54	0x3f02b272	0.51053536
55	0x3e9fe6d6	0.312308
56	0x3e6bcfb1	0.23028447
57	0x3d3de29e	0.046358697
58	0x3ea920ea	0.33032924
59	0xbebdc932	-0.37067562
60	0xbda08f8d	-0.0783988
61	0xbe929603	-0.28630075
62	0xbc6055cc	-0.013692331
63	0x3e2ace79	0.16680326
64	0x3e83c0fd	0.25733176
65	0xbcf8d2b8	-0.030373916
66	0x3dd98545	0.10621122
67	0x3eda96b4	0.42693102
68	0xbf2b1398	-0.6682677
69	0xbe861bee	-0.26193184
70	0x3f3ced9a	0.7380005
71	0xb9d87e7c	-0.0004129297
72	0x3e7e740a	0.24848953
73	0x3db47a45	0.088123836
74	0xbd3b889b	-0.045784574
75	0x3db5895b	0.08864089
76	0x3eac7cd9	0.33689
77	0x3eaeecae	0.34164947
78	0xbf097b63	-0.537039
79	0x3d0ba077	0.034088578
80	0x3e062b82	0.13102534
81	0xbf27a6b7	-0.6548876
82	0xbf187136	-0.59547746
83	0x3e17e7f7	0.14834581
84	0xbe32d192	-0.17462757
85	0x3e866f9e	0.26257032
86	0x3d42e270	0.04757923
87	0xbe55efb9	-0.20892228
88	0xbe658b75	-0.2241648
89	0x3d569f3d	0.052397955
90	0x3edf76ee	0.43645424
91	0x3e2006ed	0.15627642
92	0xbf5f83d3	-0.8731052
93	0xbe88ccfc	-0.2671889
94	0x3f612304	0.87944055
95	0x3e2dd0ef	0.16974233
96	0xbd864eff	-0.06558036
97	0xbebb8874	-0.36627543
98	0xbefa1e0c	-0.4885105
99	0xbf57f5b9	-0.8435932
100	0xbd7df2e5	-0.06199922
101	0x3e02d9d1	0.12778403
102	0xbe8f2c43	-0.27963457
103	0xbefca6f3	-0.49346122
104	0xbe6bf1cb	-0.23041455
105	0x3f0d7268	0.55252695
106	0x3eea8942	0.45807844
107	0x3ed51ba8	0.41622663
108	0xbee69e3e	-0.45042604
109	0xbe9a5fdf	-0.3015127
110	0x3dbcba6d	0.092152454
111	0xbea97761	-0.3309889
112	0x3e73b41c	0.23799175
113	0x3f2c0895	0.67200595
114	0x3e15a77f	0.14614676
115	0xbe49ffb3	-0.19726448
116	0xbec168a8	-0.3777516
117	0xbe4d5c83	-0.20054822
118	0x3f26bbde	0.6513041
119	0x3c61797b	0.013761873
120	0xbe7c728c	-0.24653071
121	0x3df59081	0.119904526
122	0x3f27916a	0.6545626
123	0xbf1cfd7f	-0.61324304
124	0x3de79e8e	0.11309539
125	0xbe554f14	-0.20830947
126	0xbddc4380	-0.10755062
127	0x3eac06aa	0.33598834
128	0xbd8e93c3	-0.06961777
129	0x3e9d48de	0.30719656
130	0x3e8a5a41	0.27021983
131	0x3f0a998a	0.5414053
132	0xbe99fea5	-0.3007709
133	0xbf1a2eb0	-0.6022749
134	0x3d64b13d	0.05583309
135	0xbd88f461	-0.066872366
136	0x3f573073	0.840583
137	0x3ce6ebf8	0.02818869
138	0x3f85aba0	1.0443001
139	0x3f79a38d	0.97515184
140	0xbe6f5ccb	-0.23375241
141	0xbe47f7d5	-0.19528134
142	0xbe0acad5	-0.13553937
143	0xbeab9966	-0.3351547
144	0x3f092405	0.53570586
145	0x3f0305ba	0.51180613
146	0x3f999fd1	1.2001897
147	0xbe9244db	-0.28568158
148	0xbf25e36c	-0.64800143
149	0xbe440251	-0.19141509
150	0x3f10d2d9	0.5657173
151	0xbe7425cc	-0.23842543
152	0xbdc90f77	-0.09817403
153	0x3e8a72cb	0.27040705
154	0x3e57f799	0.21090545
155	0x3ea703a8	0.32619977
156	0xbdb0b093	-0.08627429
157	0xbd044694	-0.03229387
158	0x3efebb2e	0.49752182
159	0x3ec769cc	0.38947904
160	0xbe26d090	-0.16290498
161	0x3eadb08f	0.33923766
162	0xbf4b0bbe	-0.7931479
163	0x3e92fb2e	0.2870726
164	0x3e30d011	0.17266871
165	0xbefe4885	-0.49664703
166	0xbf0a7d71	-0.5409766
167	0xbea7cf05	-0.3277513
168	0xbdc5c755	-0.0965716
169	0x3f840c32	1.0316222
170	0xbfdff2ee	-1.7496011
171	0xbed7b53e	-0.42130464
172	0xbf04db1d	-0.5189684
173	0xbe9b7867	-0.30365297
174	0x3f3efda5	0.7460578
175	0xbe97a3ca	-0.2961715
176	0xbf0a5bae	-0.5404614
177	0x3e1eb4ac	0.15498608
178	0xbed409d8	-0.4141376
179	0x3eeec3eb	0.4663385
180	0xbe82ea7e	-0.25569528
181	0xbebb8f63	-0.36632833
182	0xbee2fab9	-0.4433191
183	0xbeba1308	-0.36342645
184	0xbe657983	-0.22409634
185	0xbdce5d3b	-0.10076376
186	0xbe72a8d8	-0.23697221
187	0xbe974d27	-0.2955105
188	0x3f3f8555	0.74812824
189	0xbe0b538c	-0.1360609
190	0xbf3859e6	-0.72012174
191	0x3d91f96b	0.07127651
192	0x3d911f14	0.07086006
193	0x3ec096e8	0.37615132
194	0xbc620a94	-0.013796467
195	0x3e633bf2	0.22190836
196	0x3f0a6aaf	0.54069036
197	0x3e3d2b72	0.18473604
198	0xbf0c4a3b	-0.54800767
199	0xbeab8951	-0.33503202
200	0xbe03ece7	-0.1288334
201	0xbeb55b39	-0.3542116
202	0xbea7d84a	-0.32782203
203	0xbebda5bf	-0.37040517
204	0xbf1daac5	-0.615887
205	0xbb132046	-0.0022449656
206	0x3f563e4e	0.8368882
207	0x3e969af8	0.29415107
208	0xbf89bd56	-1.0760906
209	0x3e89c709	0.26909664
210	0xbf1bb620	-0.60824776
211	0x3eac4027	0.33642694
212	0x3da8e4d9	0.08246774
213	0xbe85e9ce	-0.2615494
214	0xbf1b08e2	-0.6056043
215	0x3f5a048d	0.85163194
216	0xbe1bdeb9	-0.1522168
217	0x3edcc17f	0.43116376
218	0x3df4579a	0.11930771
219	0x3fb40d7f	1.4066619
220	0x3f1e8133	0.6191589
221	0x3e6e81c5	0.2329169
222	0x3e342487	0.17592059
223	0xbf16c84c	-0.5889938
224	0x3ec9384d	0.39300767
225	0xbd852319	-0.06500835
226	0x3d90ac7d	0.070641495
227	0xbf5ac6c0	-0.8545952
228	0x3f14edd1	0.5817538
229	0x3ee22045	0.44165245
230	0xbde84bb5	-0.11342565
231	0x3f24ba95	0.643472
232	0x3ebafb8f	0.3652005
233	0xbefcc5f9	-0.4936979
234	0x3f2af2b4	0.66776586
235	0x3f0d08b8	0.5509143
236	0x3f02e618	0.51132345
237	0x3f2eaae1	0.6822949
238	0xbcd95d49	-0.02653374
239	0xbe3deba9	-0.18546928
240	0x3ef8b392	0.485745
241	0x3dd244bf	0.102670185
242	0xbf4e9d26	-0.8070854
243	0xbf5f6516	-0.8726362
244	0x3e46c0cf	0.19409488
245	0x3f6d3bfd	0.9266966
246	0xbefc74e5	-0.49307933
247	0xbf38cc5d	-0.72186834
248	0xbe492aac	-0.19645184
249	0x3f1922ff	0.59819025
250	0x3c9ec2c6	0.019379985
251	0x3f014984	0.505028
252	0xbe5aeac1	-0.21378614
253	0xbf6f6830	-0.9351835
254	0x3d4d44a0	0.050114274
255	0xbf068749	-0.5255018

lstm.bias_ih_l0 f4 [256]
0	0xbef56aa5	-0.47932926
1	0x3d737f59	0.05944762
2	0xbe9f5fcf	-0.31127784
3	0x3e1dcaea	0.15409437
4	0x3d80453f	0.06263208
5	0x3e92eec4	0.2869779
6	0xbe98f6f1	-0.298759
7	0xbd75c647	-0.060003545
8	0xbddac5db	-0.10682269
9	0xbe741ef2	-0.2383993
10	0xbea59f91	-0.32348302
11	0xbee0536b	-0.43813643
12	0x3e1ca862	0.15298608
13	0xbe432267	-0.19056092
14	0xbd4a9e10	-0.049467146
15	0xbda80841	-0.08204699
16	0xbe921441	-0.28531078
17	0xbc7d540c	-0.015461933
18	0x3e9d891f	0.30768678
19	0xbea9b678	-0.33147025
20	0x3edf0189	0.4355586
21	0xbe2e56d0	-0.17025304
22	0xbe37c0ef	-0.17944692
23	0xbe4fd15e	-0.20294711
24	0x3e84352a	0.2582181
25	0xbe869f8c	-0.262936
26	0x3c616b03	0.013758424
27	0xbee7e2b8	-0.4529016
28	0x3e3ef6e1	0.18648864
29	0xbe981f6b	-0.2971147
30	0x3eaa7cbf	0.332983
31	0xbc8a4d7c	-0.01688265
32	0xbe2b8676	-0.16750512
33	0x3e68e202	0.22742465
34	0xbdfed219	-0.12442417
35	0x3eaa3ded	0.3325037
36	0xbed8bfb3	-0.42333755
37	0xbe1f0d9d	-0.15532537
38	0xbdc04a4a	-0.093891695
39	0xbddedcdf	-0.108819716
40	0xbd8b1a70	-0.06792152
41	0xbd909f9b	-0.07061692
42	0xbc8b3681	-0.016993763
43	0xbce128ed	-0.027485335
44	0x3e92d047	0.28674528
45	0x3e47c9ed	0.19510622
46	0x3e076800	0.13223267
47	0xbec14252	-0.3774591
48	0xbe6a175c	-0.22860473
49	0x3e0e1216	0.13874087
50	0xbe9e85db	-0.309615
51	0xbdd59e28	-0.104305565
52	0xbe59c71c	-0.2126736
53	0x3cdc4ab9	0.0268911
54	0xbdad9fee	-0.0847777
55	0xbea65067	-0.32483217
56	0x3e034086	0.12817582
57	0xbe0021d5	-0.12512906
58	0xbca53cea	-0.020170648
59	0xbe4f33a7	-0.20234548
60	0x3e37573d	0.17904373
61	0xbeeea5bc	-0.4661082
62	0xbed73bd6	-0.4203784
63	0xbe8a6012	-0.2702642
64	0xbe6f604e	-0.23376581
65	0xbdc02069	-0.09381182
66	0xbe4d3412	-0.20039394
67	0xbe27b227	-0.16376553
68	0xbf0b143b	-0.54327744
69	0xbe1fe4f5	-0.15614684
70	0xbed52b81	-0.41634753
71	0xbeb7e9af	-0.35920474
72	0xbe28d5bc	-0.16487783
73	0xbe9d4be0	-0.3072195
74	0xbf2c9c95	-0.67426425
75	0xbf281925	-0.6566337
76	0xbf23a2a0	-0.6392002
77	0xbe923426	-0.2855541
78	0xbe3dd5fa	-0.18538657
79	0xbcfe2a13	-0.031025922
80	0xbe9ee138	-0.31031203
81	0xbf108030	-0.564456
82	0xbf0fbaa0	-0.5614414
83	0xbe887ce1	-0.26657775
84	0xbdf7bab0	-0.12096155
85	0xbeea90af	-0.4581351
86	0xbe099ce6	-0.13438758
87	0xbe417003	-0.18890385
88	0xbeafdb02	-0.34346777
89	0xbed9945d	-0.42496005
90	0xbe7f37a5	-0.2492357
91	0x3d6a0e1b	0.05714236
92	0x3d68f855	0.056877453
93	0xbf19f9ce	-0.60146797
94	0xbedb71a5	-0.4286014
95	0xbe76f662	-0.24117425
96	0xbefd294c	-0.4944557
97	0xbf008d1f	-0.50215334
98	0xbde8cc1e	-0.11367057
99	0x3eaf50c2	0.342413
100	0xbe880867	-0.2656891
101	0xbeab37ba	-0.33440953
102	0xbde39427	-0.11112242
103	0xbec6471a	-0.3872612
104	0xbed551f2	-0.41664082
105	0xbef2199a	-0.47285157
106	0xbef4d98b	-0.47822222
107	0xbed338fe	-0.4125442
108	0x3e7efd1c	0.24901241
109	0xbe87cf62	-0.26525408
110	0xbeb65477	-0.35611317
111	0xbe9c06d2	-0.30473953
112	0xbe8c9109	-0.27454403
113	0xbeaf494a	-0.34235603
114	0xbd906826	-0.07051115
115	0xbe199876	-0.14999565
116	0xbbd087b6	-0.0063638343
117	0x3d5a7ad8	0.05333981
118	0xbea7c092	-0.32764107
119	0xbf44a67a	-0.76816523
120	0x3cf9b301	0.030480864
121	0x3dafb356	0.085791275
122	0xbe8584f9	-0.26078013
123	0xbedcc2dc	-0.43117416
124	0xbe961ee8	-0.29320455
125	0xbe058e97	-0.13042675
126	0xbeac0962	-0.3360091
127	0xbe33695d	-0.17520662
128	0x3dca20d2	0.09869541
129	0xbe77bc59	-0.24192943
130	0x3c4eef98	0.012630366
131	0x3e809e03	0.25120553
132	0xbdf06e37	-0.11739772
133	0xbe647fb6	-0.22314343
134	0x3d402718	0.046912283
135	0x3d3b4e4d	0.04572897
136	0x3e7f7b05	0.24949272
137	0x3dfb11bc	0.12259242
138	0xbe7befa0	-0.24603128
139	0x3c09ae76	0.008403411
140	0x3e264d22	0.16240361
141	0x3e1a2eca	0.15056911
142	0xbe2dcbe2	-0.16972306
143	0x3e6bf867	0.23043977
144	0x3e249638	0.16072929
145	0xbe0d92b1	-0.1382549
146	0xbb4f3bcf	-0.0031621342
147	0xbdb6e2e4	-0.08929995
148	0xbe6711da	-0.22565404
149	0x3e2b4826	0.16726741
150	0x3e0be8aa	0.13662973
151	0xbe801f4a	-0.25023872
152	0x3e3c9a45	0.18418224
153	0xbc8116c9	-0.015757935
154	0xbd8236df	-0.06358122
155	0xbd53c769	-0.051703844
156	0x3c8243cb	0.015901467
157	0x3d8d49a9	0.06898815
158	0x3e923ee9	0.28563622
159	0x3e967a82	0.2939034
160	0xbd55d1fe	-0.052202217
161	0xbd1a7bdd	-0.03771578
162	0xbea9b30b	-0.3314441
163	0xbebd35c0	-0.3695507
164	0xbe56639b	-0.20936434
165	0xbd57d390	-0.052691996
166	0xbe2b6715	-0.16738541
167	0xbe892542	-0.26786238
168	0x3df18104	0.11792186
169	0xbe500457	-0.20314156
170	0xbe13a161	-0.1441703
171	0x3e567a39	0.20945062
172	0xbe9769ae	-0.29572815
173	0xbe5a5984	-0.2132321
174	0xbd6781d9	-0.056520317
175	0xbdd91a6f	-0.10600745
176	0xbb5ae283	-0.0033399172
177	0x3e969f5b	0.29418454
178	0x3dce070f	0.1005994
179	0x3e83476c	0.25640428
180	0xbd320a26	-0.04346671
181	0xbe8bb515	-0.27286592
182	0xbe8a107b	-0.269657
183	0xbd168bb6	-0.036754332
184	0xbe3a158c	-0.18172282
185	0xbe8f14e0	-0.27945614
186	0xbcda35ab	-0.026636919
187	0xbe329239	-0.17438592
188	0x3eae85be	0.34086412
189	0x3e3ab5bd	0.1823339
190	0xbe9a736d	-0.30166188
191	0x3e9a30fe	0.30115503
192	0xbf073c6d	-0.5282658
193	0xbba60435	-0.0050664195
194	0xbe074f4b	-0.13213842
195	0x3e31a39a	0.17347565
196	0x3d8ae77e	0.06782435
197	0x3e88c3aa	0.2671178
198	0xbeb102ee	-0.34572548
199	0xbda10962	-0.07863118
200	0xbe07eddb	-0.13274328
201	0xbece2670	-0.402637
202	0xbeba6383	-0.36404046
203	0xbe90a6f5	-0.28252378
204	0x3cffa2f6	0.031205636
205	0xbecea456	-0.40359753
206	0xbe1c4883	-0.15262036
207	0xbe8f66f2	-0.2800823
208	0xbec18005	-0.37792984
209	0xbe057075	-0.1303118
210	0x3eced5c3	0.40397462
211	0xbe957648	-0.29191804
212	0x3e3db067	0.18524323
213	0xbe7c5b08	-0.246441
214	0xbe0c454a	-0.13698307
215	0xbe52fad2	-0.20603493
216	0x3e5ebd40	0.2175188
217	0xbea40581	-0.3203545
218	0xbcc11d94	-0.023573674
219	0xbe8630f3	-0.2620922
220	0x3e3dbcf5	0.18529113
221	0xbeb0b342	-0.34511763
222	0x3e4adfa0	0.19811869
223	0x3d86c2a8	0.065800965
224	0xbea2f8b8	-0.31830382
225	0x3eff82cb	0.49904475
226	0xbe4b52ed	-0.19855852
227	0x3e9c332f	0.305078
228	0xbf211a0b	-0.62930363
229	0xbe3e345e	-0.18574664
230	0x3d70aa28	0.058756024
231	0xbe6cdb5e	-0.23130557
232	0xbdb75d22	-0.089533105
233	0xbd65b2b0	-0.056078613
234	0xbcf11e1f	-0.029433308
235	0xbdf47a92	-0.11937441
236	0x3e12756e	0.14302608
237	0xbd993afb	-0.07481953
238	0x3d9bb9be	0.07603787
239	0x3e0bb24f	0.13642238
240	0xbe1c0ec3	-0.15240006
241	0x3de7c0d3	0.11316075
242	0xbed9fb24	-0.42574418
243	0xbd98e4f6	-0.07465546
244	0xbe2f889f	-0.1714196
245	0xbdce40c9	-0.100709505
246	0xbe886ce4	-0.26645577
247	0xbeaeb0bb	-0.3411921
248	0x3d0af820	0.033928037
249	0xbe0cf49f	-0.1376519
250	0xbd7af5bc	-0.061269507
251	0xbe8c9144	-0.2745458
252	0x3e7b234e	0.24525186
253	0xbede8263	-0.43458852
254	0xbe28c27e	-0.16480443
255	0xbe81524a	-0.25258094

lstm.bias_hh_l0 f4 [256]
0	0xbed4b366	-0.4154312
1	0x3e189b57	0.14903007
2	0xbe72908a	-0.2368795
3	0x3e36fffd	0.1787109
4	0x3ce8f81a	0.028438617
5	0x3e88bcf2	0.26706654
6	0xbe37cfba	-0.17950335
7	0xbd315130	-0.043290317
8	0x3dbd5eca	0.09246595
9	0xbe870e18	-0.2637794
10	0xbeab6d57	-0.33481857
11	0xbea34299	-0.31886747
12	0x3e3f1842	0.18661597
13	0xbe426056	-0.18982062
14	0xbe6a2ec0	-0.22869396
15	0xbdcb8f29	-0.09939415
16	0xbe8828c4	-0.26593602
17	0xbcecb526	-0.028894972
18	0x3e8dda31	0.2770553
19	0xbecbba37	-0.39790508
20	0x3ea2fdf4	0.31834376
21	0xbe5fa512	-0.21840313
22	0xbd11aa5c	-0.035562858
23	0xbe52655b	-0.20546477
24	0x3e96da25	0.29463306
25	0xbedc4466	-0.43020934
26	0xbd127762	-0.035758384
27	0xbecf5c11	-0.4049993
28	0x3e07dfb8	0.13268936
29	0xbe50f659	-0.20406474
30	0x3ed889ef	0.42292735
31	0x3d2b31b5	0.04179545
32	0xbe054e63	-0.13018183
33	0x3d28b6ee	0.04119008
34	0xbe46a6da	-0.19399586
35	0x3e8bfad4	0.27339804
36	0xbf0884d2	-0.5332767
37	0xbdc3bfa6	-0.095580384
38	0xbd6d7c8b	-0.0579801
39	0xbe711ff2	-0.23547342
40	0xbdae5122	-0.085115686
41	0x3dd7b6fa	0.10532947
42	0xbd5a8eb3	-0.053358745
43	0xbe647302	-0.22309497
44	0x3ea3b345	0.3197271
45	0x3df03ca1	0.11730314
46	0x3dbd1067	0.09231644
47	0xbe585889	-0.21127523
48	0xbe585d92	-0.21129444
49	0x3dc3600f	0.09539806
50	0xbea54547	-0.32279417
51	0x3d07ba19	0.03313646
52	0xbe91e465	-0.28494564
53	0x3dc1be3e	0.09460114
54	0xbe1c2e6d	-0.15252085
55	0xbed6af15	-0.41930452
56	0xbc976094	-0.01847867
57	0x3d708d6b	0.058728617
58	0xbe24ad53	-0.16081743
59	0xbe195408	-0.14973462
60	0x3ed912b6	0.42397088
61	0xbf03956e	-0.51399887
62	0xbeba8769	-0.36431435
63	0xbeb00f7e	-0.3438682
64	0xbe5c027d	-0.21485324
65	0xbdc791c1	-0.09744597
66	0xbe133752	-0.14376572
67	0xbe654c6c	-0.22392434
68	0xbf09042b	-0.53521985
69	0xbddf4965	-0.10902671
70	0xbf252ac8	-0.64518404
71	0xbeac2e4a	-0.33629066
72	0xbe984428	-0.297395
73	0xbe857538	-0.26065993
74	0xbf207bef	-0.6268911
75	0xbf2d1a6f	-0.6761846
76	0xbf38ceec	-0.7219074
77	0xbe936ae7	-0.28792498
78	0xbe2f1a59	-0.17099895
79	0xbe16b84a	-0.14718738
80	0xbda98a8b	-0.08278378
81	0xbf18983f	-0.5960731
82	0xbf05f50f	-0.52327055
83	0xbe708a96	-0.23490366
84	0xbeba6d6a	-0.364116
85	0xbeebde39	-0.4606798
86	0xbe8ee0fb	-0.2790602
87	0xbe8c313f	-0.27381322
88	0xbe0254e5	-0.12727697
89	0xbeef8e02	-0.4678803
90	0xbe8d69f8	-0.2761991
91	0xbdca2cda	-0.09871836
92	0x3ddb2438	0.107002676
93	0xbf246ebe	-0.6423148
94	0xbe9c8287	-0.30568334
95	0xbd9303d2	-0.07178463
96	0xbee0f65f	-0.43937966
97	0xbed347c7	-0.412657
98	0xbc8f5ef8	-0.01750134
99	0x3e92903b	0.28625664
100	0xbea52da4	-0.32261384
101	0xbebfb9a8	-0.37446332
102	0xbe842591	-0.2580991
103	0xbed0e6cc	-0.40801084
104	0xbeaf0c28	-0.34188962
105	0xbebb24a4	-0.36551392
106	0xbefb3384	-0.4906274
107	0xbecfd78d	-0.4059414
108	0x3d95d40f	0.073158376
109	0xbded9fc2	-0.11602737
110	0xbead3456	-0.33828992
111	0xbeabaa66	-0.3352844
112	0xbe821e5c	-0.25413787
113	0xbe83846b	-0.25686964
114	0xbd87a4f3	-0.066232584
115	0x3d4327ee	0.0476455
116	0xbdd386a9	-0.10328419
117	0x3d90ba86	0.070668265
118	0xbefe353a	-0.49649984
119	0xbf4e7cfd	-0.80659467
120	0xbccd59e9	-0.025067287
121	0x3d015071	0.031570856
122	0xbe0fb7a3	-0.14034896
123	0xbefa4507	-0.4888079
124	0xbea8d7fa	-0.32977277
125	0xbe4bb0c2	-0.19891647
126	0xbe95a7bd	-0.29229537
127	0xbdfe6dd3	-0.12423291
128	0x3e2b6c34	0.16740495
129	0xbd8dc399	-0.06922073
130	0xbd99c11a	-0.07507534
131	0x3e65a1f5	0.22425063
132	0xbe3178a5	-0.17331178
133	0xbd38c716	-0.04511174
134	0xbced0551	-0.0289332
135	0x3e826ca3	0.25473508
136	0x3eac169f	0.3361101
137	0x3e5ad415	0.21369965
138	0xbe54b07d	-0.2077045
139	0xbc39b447	-0.011334485
140	0x3d78226d	0.060579706
141	0x3e2a109b	0.16607897
142	0xbe8b79bd	-0.27241316
143	0x3e85c80e	0.26129192
144	0x3dd33628	0.10313064
145	0xbe6c8e85	-0.23101242
146	0xbe70573f	-0.23470782
147	0x3d1d7581	0.03844214
148	0xbe0611cb	-0.13092725
149	0x3e256b51	0.16154219
150	0x3dedebf4	0.1161727
151	0xbe872d03	-0.2640153
152	0x3e80b93d	0.25141326
153	0xbdcb1679	-0.09916396
154	0xbc687944	-0.014189068
155	0xbdf42ccd	-0.119226076
156	0x3cdc3868	0.026882365
157	0x3db1b905	0.08677868
158	0x3e70d4f3	0.23518734
159	0x3ea96995	0.33088365
160	0x3d3a2ac1	0.04545093
161	0x3d33575a	0.043784477
162	0xbe8e30be	-0.27771562
163	0xbe9aaab6	-0.30208367
164	0xbd5812af	-0.052752193
165	0x3dac6e1d	0.0841944
166	0xbe7615c3	-0.24031739
167	0xbdc1af39	-0.09457249
168	0x3e6e5dc8	0.23277962
169	0xbe7afcf8	-0.24510562
170	0xbd07d60d	-0.03316312
171	0x3e7d4285	0.24732406
172	0xbebbc10c	-0.3667072
173	0xbecdaad5	-0.40169397
174	0x3d3d897d	0.046273697
175	0xbe2b4c7b	-0.16728394
176	0x3de1cae5	0.11025027
177	0x3e87f953	0.26557407
178	0x3e0dd83e	0.13852021
179	0x3eb8a57a	0.3606375
180	0xbbf62346	-0.007511529
181	0xbeb6a796	-0.35674733
182	0xbe4e9be0	-0.20176649
183	0xbd1dab34	-0.03849335
184	0xbe7341b6	-0.23755535
185	0xbe57e4c2	-0.21083358
186	0xbca04eba	-0.01956879
187	0xbe609a58	-0.21933877
188	0x3e25a7ab	0.16177242
189	0x3de45d87	0.111506514
190	0xbe1529e0	-0.14566755
191	0x3deb3bf7	0.11486047
192	0xbeff4404	-0.4985658
193	0x3dd3c5c0	0.10340452
194	0xbe4f1435	-0.20222552
195	0x3ddcf795	0.1078941
196	0x3d8db2bf	0.06918859
197	0x3e9e7eec	0.3095621
198	0xbed3b374	-0.4134785
199	0xbe7cdf62	-0.24694589
200	0x3cd18c16	0.025579493
201	0xbe77f3e4	-0.2421413
202	0xbe9b0379	-0.30276087
203	0xbe673b8a	-0.22581306
204	0xbdb54279	-0.08850569
205	0xbe83095f	-0.25593087
206	0xbcb9a9c7	-0.022663964
207	0xbe340cb6	-0.17582974
208	0xbecdd197	-0.40198967
209	0xbd513404	-0.051074997
210	0x3ef1ffb1	0.4726539
211	0xbe3bf92d	-0.18356772
212	0x3e1f3a5a	0.15549603
213	0xbe52506e	-0.20538494
214	0xbe3d331a	-0.18476525
215	0xbdf7e790	-0.12104714
216	0x3e317e0b	0.17333238
217	0xbef05072	-0.46936375
218	0x3cbbeec6	0.022941004
219	0xbe59fc36	-0.21287617
220	0x3dabf7d4	0.08396879
221	0xbed01e3b	-0.40648064
222	0x3e50359c	0.2033295
223	0x3e2df4dc	0.16987938
224	0xbe3adb91	-0.1824782
225	0x3ec51b75	0.3849751
226	0xbe4063b2	-0.1878803
227	0x3e81625f	0.25270364
228	0xbf14dc06	-0.5814823
229	0xbe78c772	-0.24294832
230	0x3d312fa9	0.043258343
231	0xbed9e329	-0.42556122
232	0xbe841f02	-0.25804907
233	0x3d9aadec	0.07552704
234	0xbe4893f5	-0.19587691
235	0x3b0ea4f7	0.0021765807
236	0x3e0b244a	0.13588062
237	0xbde544ed	-0.11194787
238	0x3dd3a4c5	0.10334162
239	0x3dddaa2f	0.108234756
240	0xbe77462d	-0.24147864
241	0x3d5f347d	0.054493416
242	0xbebfc444	-0.37454426
243	0xbe685799	-0.22689666
244	0xbe67b462	-0.22627404
245	0xbdc2d3cd	-0.09513054
246	0xbdc6f9da	-0.09715624
247	0xbe8ba0d1	-0.2727113
248	0x3d8e565e	0.06950067
249	0x3aad8b14	0.0013240301
250	0xbc8d99a6	-0.01728518
251	0xbe7ff420	-0.2499547
252	0x3e173b72	0.1476877
253	0xbef2a89c	-0.47394264
254	0xbe842be8	-0.25814748
255	0xbe147dae	-0.14501068

lstm.weight_ih_l1 f4 [256, 64]
0	0xbe164a9d	-0.146769
1	0x3db3231f	0.08746933
2	0xbe9a621d	-0.3015298
3	0x3c3a9256	0.011387428
4	0xbab8cf85	-0.0014099932
5	0xbd8e75aa	-0.069560364
6	0xbd015e9e	-0.031584375
7	0xbe1fe12e	-0.15613243
8	0xbe147b6c	-0.14500207
9	0xbe71c4b8	-0.23610198
10	0x3c11917c	0.008884784
11	0xbdbd098c	-0.092303365
12	0x3d98b848	0.07457024
13	0xbe305a40	-0.17221928
14	0x3bc0586f	0.005869917
15	0x3c1b5f0d	0.009483111
16	0xbd46076f	-0.048346933
17	0x3d5806d1	0.052740876
18	0x3d8343d7	0.06409424
19	0x3e8ae094	0.27124465
20	0xbdcf7ab8	-0.101308286
21	0xbe3461f4	-0.17615491
22	0xbdc30c77	-0.09523862
23	0x3ec55810	0.3854375
24	0xbe859d2c	-0.26096475
25	0x3d907ce1	0.07055069
26	0x3ddd9e69	0.1082123
27	0x3d92ad49	0.07161958
28	0x3e30b1d8	0.17255342
29	0x3e42fe19	0.19042243
30	0x3e17e008	0.14831555
31	0xbe533144	-0.20624262
32	0x3e0433fb	0.12910454
33	0xbe072fdb	-0.13201849
34	0xbd110bed	-0.035411764
35	0x3e2b0434	0.16700822
36	0x3dda1097	0.106476955
37	0xbec0eb98	-0.37679744
38	0x3e8fcce2	0.28086
39	0x3d75992d	0.059960533
40	0xbc9d00bd	-0.019165391
41	0xbe7f1149	-0.24908938
42	0xbc7a335b	-0.015271033
43	0xbe7a32ec	-0.24433488
44	0xbe439439	-0.19099511
45	0x3dacacea	0.08431418
46	0x3e6183ae	0.22022888
47	0xbde66ccd	-0.11251221
48	0xbe44f31d	-0.19233365
49	0xbd909d29	-0.07061226
50	0xbe4e183d	-0.20126434
51	0xbd5d650b	-0.05405144
52	0x3ea032ea	0.31288844
53	0xbe131ea8	-0.14367163
54	0xbe0042b9	-0.12525453
55	0xbe490ea1	-0.19634487
56	0x3d8cb47c	0.06870362
57	0xbe17808e	-0.14795133
58	0xbe0e3432	-0.13887098
59	0xbeca14c5	-0.3946897
60	0xbdc6127a	-0.09671493
61	0xbe3d4b63	-0.18485789
62	0x3ca1bffb	0.019744864
63	0xbed1d2bd	-0.40981093
64	0x3f199c6e	0.6000432
65	0xbe107692	-0.14107731
66	0x3e58601c	0.21130413
67	0x3e4e65c1	0.20156004
68	0x3d297767	0.041373637
69	0x3cc6fb39	0.024289714
70	0xbe3c3126	-0.18378124
71	0x3d9b3cee	0.07579981
72	0x3e59733a	0.21235362
73	0x3d554e9b	0.052076917
74	0xbd82d8c8	-0.06389004
75	0x3d1fcab2	0.039011665
76	0x3e1acfc0	0.15118313
77	0x3f1d5459	0.6145683
78	0x3e8d8d80	0.27647018
79	0x3e6c3c51	0.23069884
80	0x3dd49937	0.10380786
81	0x3e9f0e3c	0.31065547
82	0xbda8353f	-0.08213281
83	0x3e28cb9e	0.16483924
84	0xbe9306d9	-0.28716162
85	0x3e02a083	0.12756543
86	0xbe60cf71	-0.21954133
87	0x3e8a8386	0.2705347
88	0x3ed3a9a5	0.41340366
89	0x3e199ca3	0.15001158
90	0x3dda5c3c	0.106621236
91	0x3ea9f000	0.33190918
92	0x3daaf086	0.083466575
93	0xbe8aa76b	-0.27080855
94	0x3d5b89c7	0.05359819
95	0x3d126e76	0.035749875
96	0xbef556e1	-0.47917846
97	0x3e1a9a72	0.15097979
98	0xbe7c3a00	-0.246315
99	0xbe20637c	-0.1566295
100	0xbe8eacf9	-0.27866343
101	0xbe0ad320	-0.135571
102	0xbe58e247	-0.21180068
103	0x3dd5affd	0.10433958
104	0xbf730a20	-0.94937325
105	0xbe4e25f9	-0.20131673
106	0x3d2a3b30	0.04156035
107	0xbe1b61d5	-0.15174039
108	0xbe7e0b76	-0.2480906
109	0xbdb275a7	-0.08713847
110	0x3c59b85c	0.013288584
111	0xbe89bb32	-0.2690063
112	0xbda28304	-0.079351455
113	0x3eee1934	0.46503603
114	0xbea08ff1	-0.3135982
115	0x3e34f889	0.17672934
116	0xbe85be30	-0.26121664
117	0x3dfa9fd8	0.12237519
118	0x3f0e7c4e	0.55658424
119	0x3efd266c	0.49443376
120	0xbdd3efd7	-0.1034848
121	0x3e0ee4d7	0.13954483
122	0x3e91346f	0.28360316
123	0x3eb7220c	0.35768163
124	0xbe659d9a	-0.22423401
125	0x3afc16f3	0.0019232914
126	0xbe84161e	-0.25798124
127	0x3e6d4b3f	0.23173235
128	0x3cd3822d	0.025818909
129	0x3dc2b760	0.09507632
130	0x3e05cc31	0.13066174
131	0xbdb0dfd1	-0.086364396
132	0x3df54963	0.11976888
133	0x3d92a74f	0.07160818
134	0xbda9045b	-0.08252784
135	0xbea47008	-0.32116723
136	0x3e61d7d1	0.22054984
137	0x3d911973	0.07084932
138	0x3cd260fe	0.025681015
139	0x3e3a1537	0.18172155
140	0xbe05381b	-0.13009684
141	0x3d9fe8d2	0.07808079
142	0x3e7c49f1	0.24637581
143	0x3c769dd2	0.015052276
144	0x3e89fb7a	0.26949674
145	0x3de31ff3	0.11090078
146	0xbd46ade1	-0.048505668
147	0xbef525ba	-0.47880346
148	0xbe05d08e	-0.13067839
149	0xbdbb21ad	-0.091372825
150	0xbd9924c4	-0.074777156
151	0x3eb016b2	0.34392315
152	0xbe081979	-0.13290967
153	0x3e777923	0.24167304
154	0x3e52289b	0.20523302
155	0x3e45e705	0.19326408
156	0xbd12b34e	-0.03581553
157	0xbd405783	-0.046958458
158	0xbd3d03ea	-0.04614631
159	0xbe475f33	-0.1946991
160	0xbdc71919	-0.09721584
161	0x3da9cbb5	0.08290807
162	0xbec53f87	-0.3852503
163	0x3e6d322e	0.23163673
164	0x3e96e3bf	0.2947063
165	0xbde6db2a	-0.11272271
166	0xbe4fe9d2	-0.20304039
167	0xbe7d0e26	-0.24712428
168	0x3d9a6832	0.07539405
169	0x3dbb89ca	0.091571406
170	0xbd0479c7	-0.0323427
171	0xbe48e562	-0.19618753
172	0xbda12a54	-0.078694016
173	0xbdf82bb2	-0.12117709
174	0x3e007a69	0.12546696
175	0xbe25e1c7	-0.16199408
176	0xbe6157a2	-0.22006086
177	0xbd869be2	-0.06572701
178	0xbe7916bf	-0.24325083
179	0xbe49397e	-0.19650838
180	0xbd41a1a2	-0.047273286
181	0xbde6b7d9	-0.11265535
182	0x3c9fe920	0.019520342
183	0xbe229517	-0.15877186
184	0x3e1f5338	0.15559089
185	0xbd43f166	-0.047837637
186	0xbd5d3f14	-0.054015234
187	0xbebf5eca	-0.37377006
188	0xbe19bb55	-0.15012868
189	0xbe30507f	-0.17218207
190	0x3d823bed	0.06359086
191	0x3c245a2e	0.010031266
192	0x3e703043	0.2345591
193	0xbe4ec593	-0.20192556
194	0xbef91aa7	-0.48653147
195	0x3e8fd60e	0.28092998
196	0xbd96439a	-0.07337113
197	0xbdbdd247	-0.09268623
198	0x3e87562a	0.26432925
199	0x3da7068b	0.08155545
200	0xbdb0cd78	-0.0863294
201	0x3df8eb94	0.12154308
202	0xbe825efb	-0.2546309
203	0xbe434445	-0.19069012
204	0x3da231d0	0.07919657
205	0x3f240e03	0.6408388
206	0x3e13696c	0.14395684
207	0x3ecc4b67	0.39901277
208	0xbba27dea	-0.004958858
209	0xbc77e7f2	-0.015130984
210	0x3e5830af	0.21112321
211	0x3e03648e	0.12831327
212	0x3d425ac8	0.047449857
213	0xbe0167ff	-0.12637328
214	0x3dc6262d	0.0967525
215	0x3e278e67	0.16362916
216	0x3d4b35b3	0.04961176
217	0x3cc1fae5	0.023679206
218	0x3ed7afa8	0.42126203
219	0xbe2af677	-0.16695581
220	0xbddfe0a2	-0.10931517
221	0x3de5ca23	0.11220195
222	0xbca5c923	-0.020237511
223	0xbbbfa34b	-0.0058483235
224	0xbe41b581	-0.18916894
225	0xbeedc6b0	-0.4644065
226	0xbd5154fc	-0.051106438
227	0xbe55849d	-0.20851369
228	0x3db70ccc	0.08937988
229	0xbf0e34b4	-0.5554917
230	0x3d7e1512	0.062031813
231	0xbe204521	-0.1565137
232	0x3d397774	0.045279935
233	0xbe8a4a67	-0.2700989
234	0x3dea2a19	0.11433811
235	0x3c2950fc	0.01033425
236	0x3e3e47a9	0.18582024
237	0xbe68cdf2	-0.22734812
238	0x3bf68911	0.007523664
239	0xbde4a567	-0.111643605
240	0xbe260a04	-0.16214758
241	0xbdbd40ba	-0.09240861
242	0xbdae5751	-0.08512748
243	0xbd60434d	-0.054751683
244	0xbf03cec8	-0.514874
245	0xbcb578e5	-0.022152374
246	0xbd6bf736	-0.057608806
247	0x3d9cbae5	0.07652835
248	0x3db8d948	0.09025818
249	0x3e26d5dc	0.16292518
250	0x3df4a3de	0.11945318
251	0xbe87ca44	-0.26521504
252	0xbeb00076	-0.34375352
253	0x3d01315d	0.031541217
254	0x3ddcd74b	0.107832514
255	0xbcaeb8e2	-0.021328393

lstm.weight_hh_l1 f4 [256, 64]
0	0x3f126438	0.5718417
1	0x3f3a9ddc	0.72897124
2	0x3f0a205c	0.53955626
3	0x3f3c1aae	0.7347821
4	0x3f3a7238	0.72830534
5	0xbf4a2872	-0.78967965
6	0x3ecf1acc	0.40450132
7	0x3e9c1222	0.30482584
8	0x3f02453a	0.5088688
9	0x3f57e2bc	0.84330344
10	0xbf3afc21	-0.7304097
11	0xbf02e121	-0.5112477
12	0xbee47c6b	-0.44626173
13	0xbf39e774	-0.72618794
14	0xbf3803f2	-0.7188102
15	0xbc0b25ec	-0.008492928
16	0x3d4b7f90	0.0496822
17	0x3f475dc5	0.77877456
18	0xbea0af48	-0.3138373
19	0x3e956fbb	0.29186806
20	0xbd9adbd8	-0.07561463
21	0xbf0f5046	-0.5598186
22	0xbef1bb64	-0.4721328
23	0xbf2461ac	-0.64211535
24	0xbba11d01	-0.0049167876
25	0xbe841b08	-0.25801873
26	0xbe92b2ff	-0.28652188
27	0xbf36a984	-0.7135241
28	0x3f33b9e6	0.70205534
29	0x3f232b83	0.6373827
30	0xbf5a0f9e	-0.8518008
31	0xbee6a3d4	-0.45046866
32	0xbf3a3cb8	-0.727489
33	0x3f32ec5b	0.698919
34	0xbeb7e4f8	-0.35916877
35	0xbef03ba5	-0.46920505
36	0xbece3a69	-0.40278938
37	0x3f147ce6	0.5800308
38	0x3c9cfc77	0.019163353
39	0xbf56d3fa	-0.839172
40	0xbf4f4a80	-0.8097305
41	0xbe6f4cc5	-0.23369129
42	0x3f20d280	0.628212
43	0xbe3b8293	-0.18311529
44	0x3ee7468f	0.4517102
45	0x3f66b0a5	0.9011329
46	0x3d728938	0.059212893
47	0x3e925d2c	0.2858671
48	0x3eba5d3f	0.36399266
49	0x3e841758	0.2579906
50	0xbf30595e	-0.68886364
51	0xbe053838	-0.13009727
52	0xbeeedc8b	-0.46652636
53	0xbf22e632	-0.636325
54	0xbf10065a	-0.5625969
55	0xbf284353	-0.6572773
56	0x3da5ae25	0.08089856
57	0x3dbef52d	0.09324107
58	0x3f1d636d	0.61479837
59	0x3f03cf6e	0.5148839
60	0x3d590635	0.052984435
61	0x3f5adcde	0.85493267
62	0xbf223fd2	-0.6337863
63	0xbf32ab93	-0.6979305
64	0x3d277c3c	0.040889964
65	0x3e3e373b	0.18575756
66	0x3ea01afe	0.31270593
67	0x3e387ae9	0.18015637
68	0x3d116550	0.03549701
69	0x3d000be9	0.03126136
70	0xbd2f3af4	-0.04278083
71	0xbe4c1601	-0.19930269
72	0x3e78a2dd	0.24280877
73	0x3cfd61c3	0.030930405
74	0xbe4d2b7e	-0.20036122
75	0xbe596285	-0.21228988
76	0x3d2662cf	0.040621575
77	0xbe1ddda6	-0.15416583
78	0xbe0f5edb	-0.14001028
79	0x3e896968	0.2683823
80	0xbd4f1706	-0.050559066
81	0x3dc852f7	0.09781449
82	0xbe4d3155	-0.2003835
83	0xbec8d67b	-0.39226136
84	0xbcccadfb	-0.024985304
85	0xbdb4acfa	-0.08822055
86	0x3da7414b	0.081667505
87	0xbded8cbd	-0.11599109
88	0x3e476332	0.19471434
89	0x3cb54792	0.022128854
90	0xbdff71cc	-0.12472877
91	0xbb85f81a	-0.004088414
92	0x3e23a5cf	0.1598122
93	0x3db67993	0.08909907
94	0xbe37ed17	-0.17961536
95	0x3eaf18f8	0.34198737
96	0xbd63e13a	-0.055634715
97	0x3d5ec608	0.054388076
98	0x3e133910	0.14377236
99	0xbe8faec1	-0.28063014
100	0xbf416c57	-0.7555594
101	0x3d164353	0.0366853
102	0x3eaa8044	0.33300984
103	0xbdd6908a	-0.104767874
104	0xbd9cf0cd	-0.076631166
105	0xbe5e0822	-0.2168279
106	0x3de907f0	0.11378467
107	0xbc506ff1	-0.012722001
108	0x3ea3778b	0.31927142
109	0x3ea1dfca	0.3161605
110	0x3c78033f	0.015137493
111	0x3e14e3e8	0.14540064
112	0x3e5ed0a5	0.21759279
113	0x3dbc6ddc	0.092006415
114	0xbe9fa289	-0.31178692
115	0x3c467486	0.012112742
116	0xbed2f902	-0.41205603
117	0xbe17b423	-0.1481481
118	0xbcce65bf	-0.025195
119	0xbe818032	-0.25293118
120	0xbdb8ca65	-0.09022979
121	0xbd9e0e51	-0.077175744
122	0x3e24dd30	0.16100001
123	0x3c8fbe5f	0.01754683
124	0xbd1768f4	-0.036965325
125	0x3dcf5818	0.101242244
126	0xbd91e2b9	-0.07123322
127	0x3d51ddf2	0.051237054
128	0x3f65927b	0.89676636
129	0x3f756856	0.9586233
130	0x3f4c8de0	0.79903984
131	0x3f70d1f9	0.9407039
132	0x3f50fee0	0.8163891
133	0xbf610953	-0.8790485
134	0x3ef8b9b5	0.48579183
135	0x3ed86ec3	0.42272004
136	0x3ee7af1e	0.4525079
137	0x3f4c5098	0.79810476
138	0xbf5957e9	-0.84899765
139	0xbf40a88c	-0.7525718
140	0xbefdd661	-0.4957762
141	0xbf63406b	-0.8877017
142	0xbf603643	-0.87582797
143	0xbe17d09c	-0.14825672
144	0xbe4e6050	-0.20153928
145	0x3f7bb88d	0.9832848
146	0xbd5c3a40	-0.05376649
147	0x3e0e4614	0.1389392
148	0x3e12e609	0.14345564
149	0xbf61b934	-0.8817322
150	0xbf56eed8	-0.83958197
151	0xbf785879	-0.9701
152	0xbebf3811	-0.37347463
153	0xbeca8e38	-0.3956163
154	0xbebf68bd	-0.37384596
155	0xbf43ee5f	-0.765356
156	0x3f867a59	1.0506088
157	0x3f5bbbb1	0.8583327
158	0xbf81dc2d	-1.0145317
159	0xbf13b1b5	-0.57693034
160	0xbf874535	-1.0567995
161	0x3f60b7fd	0.87780744
162	0xbf12b651	-0.5730944
163	0xbead0a5f	-0.33796975
164	0xbde073ee	-0.10959612
165	0x3f81a322	1.0127909
166	0xbd8fb093	-0.07016101
167	0xbf650860	-0.89465904
168	0xbf81ce69	-1.0141116
169	0xbe29562a	-0.16536775
170	0x3f41ae32	0.75656426
171	0x3c69e453	0.014275628
172	0x3eab8e59	0.3350704
173	0x3f6f2224	0.9341147
174	0x3ec4a1ad	0.384046
175	0x3f119865	0.5687316
176	0x3e558605	0.20851906
177	0x3e049fee	0.12951633
178	0xbf516486	-0.8179401
179	0xbe4a1fe1	-0.19738723
180	0x3cf39bb0	0.029737324
181	0xbf822be6	-1.0169647
182	0xbf33989b	-0.7015473
183	0xbf6b6892	-0.91956437
184	0x3e1d89a0	0.15384531
185	0xbda9397f	-0.0826292
186	0x3f3dea13	0.74185294
187	0x3f56ab40	0.83855057
188	0x3e05c2ac	0.13062543
189	0x3f7422f5	0.9536584
190	0xbf6fc79c	-0.93663955
191	0xbf5da294	-0.865762
192	0x3f18fb62	0.5975858
193	0x3f205ab2	0.6263839
194	0x3f4b0f8d	0.79320604
195	0x3f1c7bdb	0.6112649
196	0x3ed86c77	0.42270252
197	0xbf2f0179	-0.6836162
198	0x3e9df30b	0.3084949
199	0x3e4aad10	0.1979258
200	0x3ecd49af	0.4009528
201	0x3f337f17	0.701158
202	0xbeffff1a	-0.49999315
203	0xbe0097a8	-0.12557852
204	0xbd85ff84	-0.06542876
205	0xbf3b59c0	-0.7318382
206	0xbf21022c	-0.6289394
207	0x3de3afe6	0.11117534
208	0xbe5f8ec0	-0.21831799
209	0x3f14d9cb	0.58144826
210	0xbe88b399	-0.26699522
211	0x3e20573c	0.15658277
212	0x3c3ae104	0.011406187
213	0xbf1fe8be	-0.6246451
214	0xbef09883	-0.46991357
215	0xbf484fb7	-0.78246635
216	0xbd3d8ec1	-0.04627872
217	0xbf1ae34c	-0.6050308
218	0xbd4ba9fa	-0.04972265
219	0xbee45319	-0.44594648
220	0x3f3c36c2	0.73521054
221	0x3f30650e	0.689042
222	0xbf3725c7	-0.7154202
223	0xbee081b1	-0.43848947
224	0xbf1164d3	-0.5679447
225	0x3f2c54b0	0.6731672
226	0xbe23ac09	-0.15983595
227	0xbec491cc	-0.38392484
228	0xbe4d7319	-0.20063438
229	0x3f47243d	0.7778967
230	0x3c1f4ba2	0.009722622
231	0xbf2cc60c	-0.67489696
232	0xbf321552	-0.6956378
233	0xbce808bd	-0.02832448
234	0x3ecfd699	0.40593413
235	0xbdb8ca03	-0.09022906
236	0x3ed01867	0.40643618
237	0x3f4a91b0	0.7912855
238	0x3df0939a	0.11746903
239	0x3e3a5bce	0.18199083
240	0x3e6e2b34	0.23258668
241	0x3e12961c	0.14315075
242	0xbf21df32	-0.63231194
243	0xbe06b38e	-0.13154432
244	0xbcda2297	-0.026627822
245	0xbf400846	-0.75012624
246	0xbf417f69	-0.7558504
247	0xbf2f1348	-0.68388796
248	0x3c6929f3	0.014231193
249	0x3dc3558f	0.095378034
250	0x3f21ce97	0.63205856
251	0x3f091979	0.53554493
252	0xbbf0f532	-0.0073534483
253	0x3f56231f	0.8364734
254	0xbf1c2f05	-0.61009246
255	0xbf169afb	-0.5883023

lstm.bias_ih_l1 f4 [256]
0	0xbda0601c	-0.078308314
1	0x3e2f1072	0.17096117
2	0x3cfca77d	0.030841583
3	0x3dee8729	0.116468735
4	0x3dc66141	0.096865185
5	0xbdcbdcf8	-0.09954256
6	0x3c8bc8c0	0.017063498
7	0x3e6f9f1b	0.23400538
8	0x3d22f41e	0.03978359
9	0xbe4e637f	-0.20155142
10	0xbe16579b	-0.14681856
11	0xbe134b23	-0.14384131
12	0x3c8357df	0.016033111
13	0x3e05c4d4	0.13063365
14	0x3c21493e	0.009844122
15	0x3f11d1a4	0.5696051
16	0x3e07d265	0.13263853
17	0xbe3c112b	-0.18365924
18	0x3e041ce1	0.12901641
19	0x3dfc1bed	0.12310014
20	0xbe4685e0	-0.19387007
21	0xbd271d8c	-0.040799662
22	0xbe61b85a	-0.22042981
23	0xbd51e158	-0.051240295
24	0x3e2f8b78	0.17143047
25	0xbe8a202e	-0.26977676
26	0xbf3fa074	-0.7485421
27	0x3bf16085	0.0073662424
28	0x3ddf8d43	0.109156154
29	0xbb3ddc66	-0.002897048
30	0xbdc4394d	-0.09581242
31	0x3e3dbc02	0.1852875
32	0x3c9d2a00	0.019185066
33	0xbe4b5dfe	-0.19860074
34	0xbe918aba	-0.28426152
35	0xbc7fc93a	-0.015611941
36	0x3e0b21a1	0.13587047
37	0xbd62d57b	-0.055379372
38	0x3e4d7b1f	0.20066498
39	0xbd3b627a	-0.04574821
40	0x3e140e82	0.1445866
41	0xbdecae29	-0.11556656
42	0x3d8c33bf	0.06845807
43	0x3e433a25	0.19065149
44	0xbde07c29	-0.10961182
45	0x3ebe25aa	0.3713811
46	0xbdba385b	-0.0909278
47	0x3e29eb48	0.16593659
48	0x3b3182ad	0.0027085945
49	0x3dfc8db6	0.12331717
50	0x3e4a4d50	0.19756055
51	0xbf399c03	-0.7250368
52	0x3d1c5e06	0.038175605
53	0x3eaefea0	0.34178638
54	0xbe76742b	-0.24067752
55	0x3df7b7d1	0.12095607
56	0xbf8497f1	-1.0358869
57	0x3e59e3e1	0.21278335
58	0xbd93696a	-0.071978405
59	0x3e344626	0.17604885
60	0xbf253034	-0.6452668
61	0x3e3a3273	0.18183307
62	0xbdb14210	-0.086551785
63	0xbead9e01	-0.3390961
64	0x3e9c51b6	0.3053109
65	0x3f153a46	0.58292043
66	0xbc4ee8fc	-0.01262879
67	0x3ec4fb60	0.38473034
68	0x3e0fb05c	0.1403212
69	0x3e50185f	0.20321797
70	0xbe1a0a9d	-0.15043111
71	0xbd930bed	-0.07180009
72	0xbd2d2b4e	-0.042277627
73	0x3f3ec516	0.7451948
74	0x3e5f064a	0.21779743
75	0xbd4e0846	-0.05030086
76	0xbdc7454e	-0.09730016
77	0x3e96ab8b	0.29427752
78	0x3ca214f7	0.019785387
79	0xbe25339e	-0.16132972
80	0xbe7f1c67	-0.24913178
81	0x3ec09dea	0.3762048
82	0xbeb4ccb1	-0.35312417
83	0xbebb5784	-0.36590207
84	0xbe638a19	-0.22220649
85	0x3e3eca0a	0.1863176
86	0x3d9254c0	0.07145071
87	0xbdbf7a34	-0.0934948
88	0xbe452279	-0.19251432
89	0x3cf3bd0f	0.029753236
90	0x3de8320c	0.11337671
91	0x3ebcba52	0.368609
92	0x3f1e480f	0.618287
93	0x3eb8f231	0.36122277
94	0x3ef5364e	0.47892994
95	0xbe583c60	-0.21116781
96	0x3d362b07	0.044474628
97	0x3e80575f	0.2506666
98	0xbe91b033	-0.28454742
99	0x3eaf881e	0.34283537
100	0xbf0be728	-0.5464959
101	0x3e50c393	0.20387106
102	0xbe6fb874	-0.23410207
103	0x3eb764fc	0.35819232
104	0x3f0ea1af	0.5571546
105	0xbc879612	-0.016551051
106	0x3e2680a9	0.16260017
107	0xbe123b8c	-0.14280528
108	0x3e4ec9b8	0.20194137
109	0x3edb24ea	0.428016
110	0xbe2709b0	-0.16312289
111	0xbe16fe4d	-0.14745446
112	0x3c84c841	0.01620877
113	0x3b222511	0.0024741332
114	0x3e2bbf95	0.16772301
115	0xbe26e98a	-0.16300026
116	0xbdc3bd95	-0.09557644
117	0x3e64522d	0.22296973
118	0x3ea05f27	0.31322595
119	0x3f073b8e	0.5282525
120	0xbdf41c69	-0.11919481
121	0xbef8ee78	-0.48619437
122	0x3f01ab8d	0.5065239
123	0xbc0936a5	-0.008374845
124	0xbe71b413	-0.23603849
125	0x3ec6de31	0.38841394
126	0x3eb23eb5	0.34813467
127	0x3db450c1	0.08804465
128	0x3e64f8e9	0.22360577
129	0x3f12b981	0.57314306
130	0x3eb72249	0.35768345
131	0x3f03fad6	0.5155462
132	0x3d614f3a	0.055007197
133	0xbe95cdb9	-0.29258516
134	0x3db31cdd	0.087457396
135	0xbba75001	-0.0051059728
136	0x3e5cc0de	0.21557948
137	0x3e86bc57	0.26315567
138	0xbea869e4	-0.32893288
139	0xbe492a2d	-0.19644995
140	0xbdac9bd2	-0.08428158
141	0xbf0709e3	-0.5274946
142	0xbedfcba6	-0.4371006
143	0xbdba948f	-0.091103666
144	0xbddc4075	-0.10754482
145	0x3e987e40	0.2978382
146	0xbde80205	-0.1132851
147	0x3cb86042	0.022506837
148	0x3dca438f	0.09876167
149	0xbeb99329	-0.36245087
150	0xbead525a	-0.33851892
151	0xbeb9a887	-0.3626139
152	0x3c824424	0.015901633
153	0xbcc0c2cc	-0.023530386
154	0x3c9b64d2	0.018968973
155	0xbeab55e5	-0.3346397
156	0x3f117c1b	0.56829995
157	0x3eac1636	0.33610696
158	0xbef84a09	-0.48493984
159	0x3d85942b	0.065224014
160	0xbee3c5a2	-0.4448672
161	0x3eaf451f	0.34232423
162	0xbe261785	-0.1621991
163	0xbda46b00	-0.08028221
164	0xbdc88f3d	-0.097929455
165	0x3efea9ef	0.49739024
166	0xbc51aaa8	-0.012797035
167	0xbee7e5fa	-0.45292646
168	0xbef736db	-0.4828404
169	0xbe8a589b	-0.27020726
170	0x3efd4672	0.49467808
171	0x3c890a49	0.016728537
172	0x3e988ab7	0.2979333
173	0x3f2ce2db	0.67533654
174	0x3dc19ea9	0.0945409
175	0x3d9bbc8f	0.07604324
176	0x3e985f20	0.29760075
177	0x3c7d12b0	0.01544635
178	0xbed729b8	-0.42024016
179	0xbc65afb3	-0.014018941
180	0xbdbc6bb0	-0.09200227
181	0xbf2ddddf	-0.67916673
182	0xbdb5ec8d	-0.08883009
183	0xbf1a0051	-0.6015673
184	0xbccba888	-0.024860635
185	0xbceffffc	-0.029296868
186	0x3f063866	0.5242981
187	0x3eb3a88a	0.35089523
188	0x3d4f7e47	0.050657537
189	0x3f0314b7	0.51203483
190	0xbec56e5c	-0.3856076
191	0xbe0203aa	-0.1269671
192	0x3e05325f	0.13007496
193	0x3e5af5cc	0.21382827
194	0x3e66fde4	0.22557789
195	0x3e9b9ce8	0.30393147
196	0xbdbebac9	-0.0931297
197	0x3e428d45	0.18999203
198	0xbe3bcf0e	-0.18340704
199	0xbd8e72fe	-0.06955527
200	0xbd1da852	-0.0384906
201	0x3e9e5273	0.3092228
202	0x3d943e5b	0.07238456
203	0xbdc18c55	-0.09450594
204	0xbc8e2162	-0.017349903
205	0x3eaa2c80	0.33237076
206	0x3ddff59f	0.109355204
207	0x3cdb0b0b	0.026738664
208	0x3d8715ec	0.06595978
209	0x3e55b115	0.20868333
210	0x3d0148c0	0.03156352
211	0x3e362615	0.17787965
212	0xbe7c358e	-0.24629804
213	0x3e4fd247	0.20295058
214	0x3e9732e1	0.29531005
215	0x3e5a8e2f	0.21343301
216	0x3decfec9	0.11572034
217	0x3e1e228c	0.15442866
218	0xbf37cf3f	-0.7180061
219	0x3e0c86c3	0.13723283
220	0x3e97fa41	0.29683116
221	0x3e523feb	0.20532195
222	0x3eed54f4	0.46353877
223	0x3e196af2	0.14982203
224	0x3e83bec0	0.25731468
225	0x3e74fbb4	0.23924142
226	0xbeb61259	-0.35560873
227	0x3ed388b7	0.41315243
228	0x3e2ba23e	0.16761109
229	0xbd0fcd5d	-0.03510796
230	0x3de2cdac	0.11074385
231	0x3e808882	0.25104147
232	0x3ec588cb	0.38580927
233	0xbd35f832	-0.04442615
234	0x3e2cafc0	0.16863918
235	0x3d70b64d	0.058767606
236	0x3dbc2376	0.09186451
237	0x3ef1cdb8	0.47227263
238	0xbdfdb702	-0.123884216
239	0x3bf765e6	0.007549989
240	0x3e5f17e5	0.21786459
241	0xbd65daf4	-0.056117013
242	0x3dc723bd	0.097236134
243	0xbf5e62f5	-0.86869746
244	0x3d77b77d	0.060477722
245	0x3e7b3298	0.24531019
246	0x3e42dfa5	0.19030626
247	0x3e3950c2	0.18097213
248	0xbf8ac447	-1.0841149
249	0x3d0c757b	0.034291726
250	0x3eb35472	0.35025364
251	0x3e273760	0.16329718
252	0xbf527b72	-0.8221961
253	0x3eb95cfc	0.36203754
254	0x3eb55ed4	0.3542391
255	0x3e099b5f	0.13438176
