saved_lstm_models_cv/inference_lstm_period_20pct_pca_True.pth (torch, 347167 bytes, 13 tensors)

lstm.weight_ih_l0 f4 [256, 6]
0.37572655 -0.38538983 -0.98862475 -0.9114069 0.2859616 0.16796345 0.017736897 -1.7139347
0.27890146 1.136926 1.0552143 -1.0563233 0.8221734 0.7764264 -1.3974313 -0.5321022
0.3277819 0.045026917 0.92292434 -0.36869967 -0.8635882 -0.65587646 0.106196515 0.44775373
0.65112907 -0.542647 1.0937139 0.6631916 0.6472127 0.066890776 0.26119953 -0.27035278
0.5273804 -1.0022776 -0.32118124 -0.09382886 0.7422809 0.17715377 0.4058173 0.51286346
-1.4335581 -1.1437079 0.11123896 -0.771715 -0.006470744 0.1474149 0.21417737 0.36041433
0.042298075 -0.9097886 0.0076531083 -0.15980202 0.57218117 0.019137232 0.8476133 -0.16155529
0.03629698 -1.2417096 -0.47517642 -0.7048836 0.8391111 -0.23756464 -0.23860957 -1.3151546
-0.21273264 -0.46610698 1.2982934 -0.4079828 -0.09201793 0.21532883 0.1248542 0.117724076
0.5008877 -0.50361794 1.2895764 -0.17775685 -0.38230646 -0.70059127 0.4994498 -0.03388376
0.64979243 -0.4139568 0.26035237 -1.5279068 -0.17736419 -0.69676596 -0.5508588 -0.014257144
0.10669323 -0.13247855 -0.026323717 -0.26879928 0.42724478 -0.78291136 0.43001348 -0.073314644
0.4424891 0.81147826 1.0168362 -0.5806469 -1.0410426 -0.41980803 0.84053737 0.10624571
0.25675863 0.28994596 -1.3802816 -1.181407 1.1519276 0.08393249 1.0699998 0.6096016
0.494794 0.76665395 0.5875398 -1.1275611 -0.9309662 0.83263427 0.9307472 -0.5579565
0.5153997 -0.23386288 0.698118 -0.122858934 -0.04096738 -1.743743 0.17921449 -0.8422173
-0.9345517 0.27354813 0.66961384 0.099130884 0.7149574 -0.23114197 0.9145197 0.25467762
-0.40724272 -2.1057553 0.05674287 -1.3692234 0.45864958 -0.66534346 -0.8858471 -0.0045998194
0.4645851 -0.453553 0.20229663 -1.3935181 0.08067822 -0.0052453578 1.1403155 0.18871254
0.29484195 0.35195783 1.1567035 -1.2195227 1.1007781 0.84951335 -0.04753103 1.3390149
-0.04000728 -0.24497563 0.24015573 0.2083152 1.3626022 -1.244353 -0.3160185 -0.6071253
0.124324486 -0.5267392 0.11384052 -0.34622476 0.2507258 0.271833 -0.6050959 0.44900393
-0.6231638 -0.8607641 -2.1155503 -0.6704068 -0.45755985 1.4036069 1.3139893 0.09420133
-1.0896347 0.021715207 -0.26341888 0.40704277 -0.8866712 -0.61527526 -0.44747955 -0.48872325
0.76161855 0.013920381 -0.4091664 -0.019524531 1.030539 -0.30043775 0.6778049 0.7694811
1.6308897 -0.27174258 0.54109937 -1.444867 0.09666671 0.6865076 -0.070624836 0.8984562
0.33039948 -0.71957684 -0.30998835 -0.5922963 -0.16068228 0.1468432 0.75749075 0.32370427
0.61886334 -0.8652479 0.03939835 1.6021827 0.6902999 -0.85834384 0.36758298 -0.22671041
-0.9466521 -1.0734147 0.51022255 -0.95015335 0.036966994 -2.064873 -0.15951489 -0.35407495
-0.1791966 -0.5655482 0.20345496 -0.14169703 0.44643357 -0.40081692 0.29322124 -1.2044755
-0.07663526 -0.10590045 0.24315186 -0.4948738 1.312667 0.56275904 0.86264724 0.7583246
1.5531366 -0.43637133 0.49556673 -1.5455776 0.7095338 -0.23353058 0.367816 -0.69149196
00000000: 3b5f c03e d151 c5be 8316 7dbf f651 69bf
00000010: 8f69 923e 9cfe 2b3e f84c 913c 3662 dbbf
00000020: 2ccc 8e3e cb86 913f 4311 873f 9a35 87bf
00000030: f579 523f e1c3 463f 07df b2bf da37 08bf
00000040: 07d3 a73e 256e 383d c544 6c3f 34c6 bcbe
00000050: 1e14 5dbf 85e7 27bf 8f7d d93d fa3f e53e
00000060: 65b0 263f eaea 0abf d1fe 8b3f edc6 293f
00000070: bbaf 253f 08fe 883d f2bb 853e ae6b 8abe
00000080: 6702 073f a24a 80bf de71 a4be 5829 c0bd
00000090: 1f06 3e3f cc67 353e 49c7 cf3e 054b 033f
000000a0: d57e b7bf 0565 92bf 40d1 e33d 1d8f 45bf
000000b0: 8908 d4bb eef3 163e 5051 5b3e 3a88 b83e
000000c0: bf40 2d3d e8e7 68bf edc6 fa3b 24a3 23be
000000d0: 777a 123f afc5 9c3c 2ffd 583f c06e 25be
000000e0: 24ac 143d 57f0 9ebf 534a f3be 4073 34bf
000000f0: fccf 563f 2544 73be 1156 74be fc56 a8bf
00000100: 96d6 59be 93a5 eebe 7a2e a63f 1fe3 d0be
00000110: e573 bcbd 297f 5c3e 8fb3 ff3d 5219 f13d
00000120: 2d3a 003f 1bed 00bf d710 a53f e405 36be
00000130: acbd c3be f359 33bf e2b7 ff3e b3c9 0abd
00000140: cc58 263f 25f2 d3be e84c 853e 7392 c3bf
00000150: f59e 35be 415f 32bf 1505 0dbf cc96 69bc
00000160: fb81 da3d 75a8 07be d6a4 d7bc 0fa0 89be
00000170: d4bf da3e e16c 48bf ba2a dc3e fd25 96bd
00000180: ee8d e23e 0abd 4f3f b027 823f 46a5 14bf
00000190: e240 85bf 14f1 d6be 752d 573f 5a97 d93d
000001a0: de75 833e cc73 943e 11ad b0bf 5838 97bf
000001b0: 5d72 933f cce4 ab3d c1f5 883f da0e 1c3f
000001c0: a455 fd3e 6f43 443f 0269 163f ec53 90bf
000001d0: cd53 6ebf 8527 553f 7345 6e3f 3dd6 0ebf
000001e0: 3cf1 033f c079 6fbe dcb7 323f 779d fbbd
000001f0: 69cd 27bd f832 dfbf 0184 373e 8e9b 57bf
00000200: c83e 6fbf 800e 8c3e d06b 2b3f 2205 cb3d
00000210: 7307 373f 7bb0 6cbe f71d 6a3f 1b65 823e
00000220: 1e82 d0be b2c4 06c0 366b 683d b642 afbf
00000230: 1ed4 ea3e f353 2abf e0c6 62bf 15ba 96bb
00000240: 19de ed3e 1938 e8be d926 4f3e cd5e b2bf
00000250: 9f3a a53d 40e1 abbb dcf5 913f dc3d 413e
00000260: 86f5 963e d133 b43e dc0e 943f 5219 9cbf
00000270: 4ce6 8c3f b579 593f e6af 42bd d764 ab3f
00000280: acde 23bd e4da 7abe 62eb 753e 9450 553e
00000290: c069 ae3f f646 9fbf 2dcd a1be 906c 1bbf
000002a0: d69d fe3d 61d8 06bf 3825 e93d 5f44 b1be
000002b0: 225f 803e b22d 8b3e 91e7 1abf d8e3 e53e
000002c0: aa87 1fbf 095b 5cbf 2d65 07c0 c89f 2bbf
000002d0: 4945 eabe 64a9 b33f cd30 a83f a0ec c03d
000002e0: 2679 8bbf 17e4 b13c d7de 86be e967 d03e
000002f0: e2fc 62bf ae82 1dbf 0a1c e5be ef39 fabe
00000300: 6ff9 423f 4f12 643c 427e d1be e9f1 9fbc
00000310: b4e8 833f fad2 99be 9f84 2d3f b7fc 443f
00000320: fec0 d03f d821 8bbe 7d85 0a3f 67f1 b8bf
00000330: 32f9 c53d f6be 2f3f c1a3 90bd 3a01 663f
00000340: 1f2a a93e 3036 38bf cbb6 9ebe bba0 17bf
00000350: e589 24be 105e 163e eaea 413f 91bc a53e
00000360: d46d 1e3f e380 5dbf 2a60 213d 5314 cd3f
00000370: 7fb7 303f 6cbc 5bbf d633 bc3e c626 68be
00000380: cb57 72bf a765 89bf f29d 023f 403d 73bf
00000390: b46a 173d e126 04c0 df57 23be 5049 b5be
000003a0: 507f 37be c4c7 10bf 7f56 503e 0719 11be
000003b0: f192 e43e e037 cdbe 1821 963e 412c 9abf
000003c0: f2f2 9cbd 56e2 d8bd cdfc 783e 1960 fdbe
000003d0: 7905 a83f fa10 103f 73d6 5c3f 9021 423f
000003e0: 2ecd c63f 106c dfbe ecba fd3e 7dd5 c5bf
000003f0: 02a4 353f a422 6fbe 6152 bc3e 9e05 31bf

lstm.weight_hh_l0 f4 [256, 64]
5.73767e-40 1.226245e-39 -6.71188e-40 6.43437e-40 1.02552e-39 7.28373e-40 1.253708e-39 9.31426e-40
-5.9334e-40 8.54831e-40 -6.03492e-40 -1.23716e-39 -6.35478e-40 1.229855e-39 -1.249067e-39 -6.09541e-40
-9.92251e-40 -7.08191e-40 -1.123041e-39 -1.156649e-39 -7.95981e-40 -1.332119e-39 9.66694e-40 1.061523e-39
4.33766e-40 -1.236681e-39 8.053e-40 -8.04763e-40 -7.3521e-40 -8.55043e-40 7.43092e-40 1.312016e-39
6.38335e-40 -1.202922e-39 6.56884e-40 -4.54728e-40 9.12447e-40 -8.86401e-40 -1.19704e-39 -9.95691e-40
8.58393e-40 -9.88528e-40 1.275472e-39 9.86929e-40 -8.88523e-40 1.146426e-39 -1.223788e-39 -5.19491e-40
7.03677e-40 6.69057e-40 -5.21709e-40 1.071702e-39 -1.126572e-39 -4.06936e-40 1.0258e-39 -6.89854e-40
9.92159e-40 -9.57957e-40 1.249094e-39 6.56906e-40 -1.075068e-39 -4.90264e-40 1.037618e-39 -9.57817e-40
-1.009243e-39 -5.44116e-40 1.205915e-39 -1.137067e-39 1.076221e-39 1.056935e-39 1.184918e-39 -6.15606e-40
-1.030146e-39 -5.66535e-40 6.23711e-40 -1.27994e-39 1.318627e-39 6.7752e-40 7.0209e-40 6.33335e-40
-1.229819e-39 -1.18687e-39 -8.10508e-40 -1.205047e-39 1.047607e-39 -1.01872e-39 7.63572e-40 5.13827e-40
5.84745e-40 1.347082e-39 -9.93937e-40 -1.30899e-39 9.58899e-40 1.312986e-39 -6.42518e-40 -9.29641e-40
1.00098e-39 -1.165446e-39 7.39895e-40 1.35219e-39 8.15605e-40 1.226635e-39 1.125135e-39 -7.25796e-40
-1.23763e-39 -9.08228e-40 1.18915e-39 5.87122e-40 6.17126e-40 -8.94526e-40 1.147104e-39 1.13784e-39
1.222501e-39 -1.183168e-39 5.92204e-40 8.64507e-40 1.07365e-39 6.23209e-40 -6.54402e-40 -9.2071e-40
-4.25506e-40 1.022038e-39 -9.21278e-40 9.60575e-40 -8.2818e-40 -5.4498e-40 7.55394e-40 1.214929e-39
6.20566e-40 5.58352e-40 -1.249524e-39 7.07216e-40 -5.38111e-40 7.2423e-40 7.96945e-40 -8.98497e-40
8.63776e-40 9.46287e-40 -1.115746e-39 4.79352e-40 -1.06449e-39 5.1494e-40 -1.100629e-39 -6.503e-40
-1.116469e-39 1.26907e-39 1.174763e-39 -6.59399e-40 5.37957e-40 8.22995e-40 1.179991e-39 1.28504e-39
-5.25586e-40 -7.29494e-40 -1.156595e-39 -1.347763e-39 5.54895e-40 -1.216208e-39 -6.60562e-40 1.192527e-39
-5.33312e-40 7.11984e-40 9.19364e-40 -7.47181e-40 -5.71314e-40 -4.95856e-40 -6.59545e-40 7.40798e-40
5.27098e-40 7.5654e-40 5.4581e-40 9.19266e-40 1.059974e-39 -1.077669e-39 -5.62805e-40 -6.8425e-40
9.60488e-40 -5.57955e-40 4.08244e-40 6.08472e-40 9.75437e-40 -7.63692e-40 -5.14038e-40 4.93083e-40
1.341439e-39 -5.31619e-40 -6.98658e-40 -9.9002e-40 -4.90646e-40 8.34482e-40 -8.36212e-40 -8.63147e-40
-4.99016e-40 1.28312e-39 -7.77625e-40 9.47842e-40 8.7648e-40 1.332055e-39 -1.293363e-39 5.45193e-40
-1.344551e-39 -8.54442e-40 -1.096583e-39 -4.63795e-40 -8.2517e-40 7.53568e-40 6.48182e-40 -1.18295e-39
1.33882e-39 -1.316362e-39 -8.90755e-40 6.04283e-40 1.205306e-39 -1.052798e-39 -1.133756e-39 -1.12172e-39
1.252346e-39 -1.170634e-39 6.93794e-40 1.222396e-39 4.99065e-40 1.244836e-39 -1.160724e-39 -9.69676e-40
-1.210726e-39 -6.59887e-40 7.27968e-40 1.273203e-39 -9.4084e-40 1.317767e-39 8.95486e-40 -1.27228e-39
5.50112e-40 1.036639e-39 7.57709e-40 -6.72557e-40 -1.356226e-39 5.78352e-40 -8.23383e-40 -9.45068e-40
1.322414e-39 -1.098542e-39 1.052232e-39 8.7026e-40 6.98795e-40 -1.06362e-39 6.26564e-40 -7.3948e-40
-5.68465e-40 -9.63366e-40 8.04743e-40 -5.35505e-40 1.335178e-39 -1.337447e-39 7.60733e-40 7.59928e-40
00000000: 6e3f 0600 465a 0d00 004f 0780 a401 0700
00000010: bc2a 0b00 68ee 0700 d4a6 0d00 7024 0a00
00000020: fe75 0680 ec4e 0900 4a92 0680 b378 0d80
00000030: 74eb 0680 5664 0d00 e499 0d80 27a3 0680
00000040: fecd 0a80 26b6 0780 953a 0c80 4498 0c80
00000050: dfaa 0880 6881 0e80 c086 0a00 188f 0b00
00000060: 2ab9 0400 5d77 0d80 d9c4 0800 5ac3 0880
00000070: 7701 0880 834f 0980 7017 0800 5e49 0e00
00000080: 6bf3 0600 4219 0d80 2027 0700 99f3 0480
00000090: 88ef 0900 eda6 0980 dc08 0d80 95d7 0a80
000000a0: da58 0900 9dc3 0a80 7fe3 0d00 28bf 0a00
000000b0: d7ac 0980 c57b 0c00 6c53 0d80 21a8 0580
000000c0: 91a9 0700 0f49 0700 50ae 0580 78ab 0b00
000000d0: 6d44 0c80 5f6e 0480 832b 0b00 0883 0780
000000e0: bccd 0a00 656e 0a80 f799 0d00 3027 0700
000000f0: dab4 0b80 a856 0580 754c 0b00 016e 0a80
00000100: 5cfd 0a80 c6ec 0580 9a21 0d00 ae61 0c80
00000110: 11b8 0b00 4e82 0b00 12e7 0c00 0fb4 0680
00000120: a137 0b80 452b 0680 a7ca 0600 f4ef 0d80
00000130: cc5b 0e00 a660 0700 24a5 0700 7be5 0600
00000140: 3c64 0d80 83ec 0c80 5ed3 0880 2e1f 0d80
00000150: 4d68 0b00 c717 0b80 8750 0800 5798 0500
00000160: 085e 0600 1eab 0e00 b1d2 0a80 ee40 0e80
00000170: 0571 0a00 124c 0e00 14ff 0680 761f 0a80
00000180: 53e6 0a00 cab0 0c80 870e 0800 5bb9 0e00
00000190: 93e1 0800 5c5b 0d00 6b40 0c00 39e7 0780
000001a0: 027a 0d80 c5e3 0980 def2 0c00 a864 0600
000001b0: 4cb8 0600 93bd 0980 a97d 0c00 d663 0c00
000001c0: d64f 0d00 31e2 0c80 d372 0600 e569 0900
000001d0: e6b0 0b00 41c9 0600 3520 0780 9106 0a80
000001e0: 23a2 0480 0721 0b00 2608 0a80 b175 0a00
000001f0: a104 0980 2fef 0580 bb39 0800 ba3a 0d00
00000200: e3c1 0600 7514 0600 2a9b 0d80 6eb3 0700
00000210: 09dc 0580 dce2 0700 8fad 0800 a5c8 0980
00000220: db67 0900 dd4d 0a00 3f26 0c80 3d38 0500
00000230: 5d97 0b80 719b 0500 1bfc 0b80 c614 0780
00000240: 4328 0c80 a7d1 0d00 c3ca 0c00 232e 0780
00000250: 9bdb 0500 2df6 0800 56d9 0c00 2bfe 0d00
00000260: 1fb9 0580 88f1 0780 1e98 0c80 04ad 0e80
00000270: d20a 0600 4b3e 0d80 6131 0780 48fc 0c00
00000280: a8ce 0580 b9c0 0700 d002 0a00 d622 0880
00000290: 9738 0680 3f66 0580 8b2e 0780 0b11 0800
000002a0: 56bd 0500 ed3c 0800 7ff1 0500 8a02 0a00
000002b0: c78a 0b00 1abc 0b80 df20 0680 6973 0780
000002c0: 7375 0a00 5a13 0680 0572 0400 2ca0 0600
000002d0: 1f9f 0a00 dd50 0880 ee98 0580 845e 0500
000002e0: 639b 0e00 f0c9 0580 939b 0780 c6c7 0a80
000002f0: b957 0580 3216 0900 051b 0980 1a66 0980
00000300: 0e6f 0580 d1f8 0d00 b477 0880 3352 0a00
00000310: 458b 0900 3a81 0e00 5f15 0e80 c7ef 0500
00000320: 10a4 0e80 d64d 0980 d4f0 0b80 df0c 0580
00000330: 3dfc 0880 a434 0800 de0e 0700 95e1 0c80
00000340: 1694 0e00 7b55 0e80 10b3 0980 7f94 0600
00000350: e71f 0d00 c676 0b80 7358 0c80 e636 0c80
00000360: 08a3 0d00 40bf 0c80 048e 0700 8b4f 0d00
00000370: 316f 0500 198e 0d00 a0a3 0c80 108f 0a80
00000380: 032f 0d80 7f2f 0780 47ed 0700 2cdd 0d00
00000390: ae3e 0a80 6659 0e00 40c0 0900 99da 0d80
000003a0: 7dfd 0500 ba49 0b00 2f40 0800 d152 0780
000003b0: 9bc4 0e80 364c 0600 42f7 0880 774a 0a80
000003c0: 5a66 0e00 4af6 0b80 3275 0b00 ee79 0900
000003d0: f59b 0700 f194 0b80 9bd2 0600 5f0d 0880
000003e0: a630 0680 797d 0a80 4cc3 0800 c5d4 0580
000003f0: ef89 0e00 4290 0e80 9d48 0800 5f46 0800

lstm.bias_ih_l0 f4 [256]
-0.24907438 -0.50005305 -0.16652429 -0.40907905 -0.094894476 -0.21786934 -0.39328173 0.14204958
0.40449363 -0.059472114 -0.0752371 -0.18834572 -0.44342124 0.12337987 -0.4746173 0.6911897
-0.13279784 -0.37455413 -0.51326156 -0.04992855 -0.31188866 0.54005736 -0.26728854 0.40846714
0.08415956 -0.4961241 -0.17754014 -0.14080162 0.44546586 0.13333209 -0.33261728 0.3170068
-0.78708583 -0.6034771 -0.029914211 0.8251109 0.11989164 0.08232805 0.09813099 -0.055508487
0.2878578 -0.46641457 0.0140557885 0.120421164 0.02887251 -0.30255336 -0.83495975 -0.65372646
-0.15934189 0.02559922 -0.30216387 0.26419333 -0.08102331 0.36446336 0.19889016 -0.73368245
-0.42759523 0.44318405 -0.20269233 -0.33971694 -0.4814453 -0.2074125 -0.046355084 -0.18216607
5.49306e-40 1.027185e-39 9.58316e-40 1.254441e-39 -1.179039e-39 1.309885e-39 6.60225e-40 3.9878e-40
-8.00748e-40 -7.37708e-40 9.89415e-40 7.2209e-40 -1.23194e-39 -1.134309e-39 1.12579e-39 -8.9827e-40
-1.1031e-39 9.07086e-40 6.56762e-40 -1.323703e-39 -1.252511e-39 1.287217e-39 7.64534e-40 -1.112506e-39
-1.134271e-39 -1.207224e-39 -9.61617e-40 6.73477e-40 -1.288197e-39 -4.69513e-40 -7.64462e-40 7.5723e-40
4.71632e-40 -8.53517e-40 -1.225001e-39 5.7283e-40 -8.88793e-40 1.030777e-39 -7.6642e-40 5.32607e-40
-1.087527e-39 -5.417e-40 -4.85208e-40 4.58533e-40 1.341156e-39 6.99098e-40 8.16776e-40 5.71955e-40
1.0255e-39 1.172095e-39 -8.9508e-40 5.53731e-40 -7.53822e-40 -5.39557e-40 9.44436e-40 -1.106334e-39
1.235497e-39 -1.108238e-39 6.25311e-40 -1.093205e-39 -7.54863e-40 6.23562e-40 1.021674e-39 -4.64638e-40
0.21411979 0.21467786 0.1537095 -0.11211359 0.43719992 -0.2836898 -0.13506885 -0.31263858
0.23314895 0.2675601 -0.22454895 -0.17025697 -0.1555606 0.26255694 0.024328921 -0.3819612
-0.45965704 0.088213965 -0.055377558 -0.113019705 0.23392321 -0.27965564 -0.029130816 -0.10365158
-0.49455294 0.043711025 -0.09124991 0.20498109 -0.3599041 -0.46548912 0.09672342 -0.3968566
-0.21620128 -0.012350489 0.13706979 -0.3986808 -0.27909428 -0.30502403 0.29150447 -0.28106505
-0.3160573 -0.09022983 0.3412855 -0.13332038 0.0838919 0.12986107 0.18818524 -0.19730994
0.22710925 0.466552 -0.33253944 0.42999583 -0.22727986 -0.3161952 -0.24149251 -0.1698456
-0.037632078 -0.39890805 -0.20205706 -0.226069 -0.10321885 0.40847328 -0.28744057 0.3922769
-0.24364291 -0.38713887 -0.113977954 -0.33106238 0.07295302 -0.3116581 -0.46223488 0.0588841
0.59171677 -0.028479742 -0.073136225 -0.15109733 -0.3628983 -0.07963717 -0.6197836 0.3026302
-0.053829703 -0.45602277 -0.51351863 0.04846528 -0.13222031 0.6050124 -0.25523916 0.04678701
0.0011359473 -0.4037877 0.015674815 0.020139016 0.4526239 0.041967113 -0.5584574 -0.01746587
-0.4888667 -0.75622904 0.110299215 0.5716376 -0.0474594 0.1435903 0.038122922 -0.07164845
-0.0445842 -0.28644133 0.059533108 0.2261464 0.07487524 -0.1753365 -0.50192356 -0.42708212
-0.14450057 -0.19950618 -0.30761698 0.15190735 -0.047318712 0.37942567 0.1792462 -0.6084766
-0.3589656 0.13833308 -0.1948985 -0.25959206 -0.2947766 -0.1748598 -0.14158963 0.07459692
00000000: 5b0d 7fbe 7a03 00bf 5885 2abe cf72 d1be
00000010: 0958 c2bd 2419 5fbe 395c c9be 7275 113e
00000020: ca19 cf3e 0899 73bd e915 9abd b3dd 40be
00000030: 1c08 e3be 96ae fc3d 0a01 f3be cff1 303f
00000040: 28fc 07be 8fc5 bfbe 1c65 03bf e181 4cbd
00000050: dfaf 9fbe 3341 0a3f 0bda 88be 9b22 d13e
00000060: d95b ac3d fa03 febe 15cd 35be 4d2e 10be
00000070: 1a14 e43e 3588 083e d04c aabe b74e a23e
00000080: 757e 49bf 7a7d 1abf a60e f5bc 783a 533f
00000090: c089 f53d 9c9b a83d e7f8 c83d de5c 63bd
000000a0: 1962 933e e4cd eebe 404a 663c 5f9f f63d
000000b0: 0b86 ec3c 46e8 9abe ecbf 55bf 9e5a 27bf
000000c0: 852a 23be 75b5 d13c 39b5 9abe 5944 873e
000000d0: 8def a5bd f19a ba3e dda9 4b3e 9dd2 3bbf
000000e0: c3ed dabe 05e9 e23e 948e 4fbe 61ef adbe
000000f0: 0080 f6be f163 54be d4de 3dbd be89 3abe
00000100: 3efb 0500 602f 0b00 656f 0a00 dfa8 0d00
00000110: aed6 0c80 6d43 0e00 7030 0700 a357 0400
00000120: 29b8 0880 6e08 0880 16c6 0a00 e5dc 0700
00000130: 266a 0d80 fe59 0c80 3f42 0c00 03c8 0980
00000140: fe02 0c80 96e0 0900 c926 0700 f269 0e80
00000150: 7ea3 0d80 3d04 0e00 3653 0800 371d 0c80
00000160: e359 0c80 4025 0d80 9978 0a80 6155 0700
00000170: f806 0e80 d01c 0580 0253 0880 d93e 0800
00000180: b822 0500 424b 0980 ce56 0d80 d13c 0600
00000190: 98ad 0980 6339 0b00 7858 0880 b1cc 0500
000001a0: 95d7 0b80 0ae6 0580 9048 0580 34fe 0400
000001b0: 999a 0e00 cd9c 0700 d7e4 0800 613a 0600
000001c0: ad2a 0b00 53c3 0c00 1ebf 0980 9407 0600
000001d0: 5935 0880 11e0 0580 b448 0a00 020c 0c80
000001e0: 1074 0d00 5111 0c80 1dcf 0600 69e7 0b80
000001f0: 4038 0880 3dca 0600 0320 0b00 390f 0580
00000200: 3842 5b3e 83d4 5b3e 0666 1d3e cf9b e5bd
00000210: abd8 df3e ca3f 91be 7d4f 0abe 2a12 a0be
00000220: 99be 6e3e a3fd 883e 29f0 65be d857 2ebe
00000230: 474b 1fbe dd6d 863e 724d c73c 6b90 c3be
00000240: 2b58 ebbe 86a9 b43d 94d3 62bd e076 e7bd
00000250: 9189 6f3e 062f 8fbe c0a3 eebc 4847 d4bd
00000260: 0b36 fdbe 550a 333d 3ce1 babd 90e6 513e
00000270: 5a45 b8be 9754 eebe ee16 c63d ca30 cbbe
00000280: de63 5dbe b559 4abc 065c 0c3e e41f ccbe
00000290: 72e5 8ebe 1c2c 9cbe 1340 953e c2e7 8fbe
000002a0: 43d2 a1be 6bca b8bd f9bc ae3e 2385 08be
000002b0: 84cf ab3d 4dfa 043e a2b3 403e 9e0b 4abe
000002c0: 548f 683e e7df ee3e 9c42 aabe 6a28 dc3e
000002d0: 0dbc 68be 56e4 a1be d049 77be 01ec 2dbe
000002e0: 1824 1abd ad3d ccbe 0ce8 4ebe a27e 67be
000002f0: 6864 d3bd 6923 d13e 692b 93be 85d8 c83e
00000300: 877d 79be 1137 c6be 466d e9bd 0281 a9be
00000310: 6568 953d a791 9fbe 0daa ecbe 7430 713d
00000320: c07a 173f 594e e9bc 72c8 95bd 42b9 1abe
00000330: cecd b9be d018 a3bd 23aa 1ebf 58f2 9a3e
00000340: 897c 5cbd d17b e9be f575 03bf 8883 463d
00000350: c364 07be 18e2 1a3f b5ae 82be bca3 3f3d
00000360: 11e4 943a 43bd cebe 7868 803c 94fa a43c
00000370: 52be e73e b5e5 2b3d 10f7 0ebf 9614 8fbc
00000380: bc4c fabe 3a98 41bf 8ee4 e13d d756 123f
00000390: ca64 42bd 5609 133e c826 1c3d 6cbc 92bd
000003a0: ec9d 36bd 70a8 92be fdd8 733d ec92 673e
000003b0: 3158 993d 698b 33be 107e 00bf 82aa dabe
000003c0: f5f7 13be 594b 4cbe f97f 9dbe 9a8d 1b3e
000003d0: 44d1 41bd 1544 c23e 518c 373e 1fc5 1bbf
000003e0: 57ca b7be 30a7 0d3e 7993 47be 40e9 84be
000003f0: f5ec 96be 730e 33be dffc 10be 45c6 983d

lstm.bias_hh_l0 f4 [256]
-0.27401528 -0.3337826 -0.14057966 -0.378537 -0.15598422 -0.1859964 -0.4002751 0.15559705
0.4371362 -0.11311345 0.0015599432 -0.115078695 -0.49259892 -0.056164317 -0.48118958 0.65707463
-0.12762164 -0.43225473 -0.5783742 -0.0597428 -0.115160026 0.58134216 -0.27820712 0.4013999
0.068975195 -0.5043587 -0.05946343 -0.104545884 0.39780033 0.11605093 -0.39728633 0.27876222
-0.8010536 -0.57943416 -0.050159022 0.8394262 0.06865812 0.14600061 -0.12940584 0.014533248
0.22595489 -0.47662857 0.17441459 0.054746863 0.22425923 -0.46364582 -0.74263996 -0.4518931
-0.35654178 -0.16026138 -0.42253846 0.3090048 -0.00084266096 0.42805526 -0.04215348 -0.68336564
-0.50578254 0.25966078 -0.22335757 -0.36452967 -0.42648846 -0.26909453 -0.07517695 -0.13486767
1.256715e-39 1.048327e-39 8.05712e-40 1.322533e-39 -1.152251e-39 -7.9554e-40 1.320609e-39 1.034933e-39
-1.341341e-39 -9.09088e-40 1.23171e-39 1.138824e-39 -1.118448e-39 -9.81007e-40 6.46036e-40 6.00594e-40
5.28308e-40 -1.083299e-39 1.054464e-39 -1.135125e-39 7.00485e-40 1.304224e-39 -5.62418e-40 -6.57425e-40
7.95446e-40 8.06014e-40 1.07124e-39 -9.81198e-40 -7.20167e-40 -7.00107e-40 4.69072e-40 7.09346e-40
1.104034e-39 5.9978e-40 -5.24896e-40 1.349977e-39 -1.1621e-39 -1.101446e-39 8.6073e-40 -8.07715e-40
1.231687e-39 -1.107355e-39 -1.099265e-39 1.253429e-39 9.34829e-40 -7.33842e-40 -3.7717e-40 -6.99254e-40
-8.20778e-40 1.02765e-39 -5.54931e-40 5.42202e-40 -1.045164e-39 -4.3714e-40 1.117606e-39 -9.16581e-40
-9.5432e-40 -1.015263e-39 8.41197e-40 -1.010084e-39 1.023091e-39 -9.90626e-40 5.97843e-40 5.42137e-40
0.014339253 0.17927204 0.2969012 -0.03327049 0.37945324 -0.18334267 -0.08844667 -0.29785705
0.38021848 0.28748438 -0.30137357 -0.28041086 -0.07439234 0.23913293 0.0285165 -0.49871448
-0.39928818 0.09607422 -0.25783205 -0.08643811 0.09263233 -0.43276605 0.19611593 -0.014766746
-0.32346174 0.15971267 -0.003299039 0.112140745 -0.4434919 -0.41033426 -0.020482214 -0.28220367
-0.2867331 0.0017378995 -0.021903824 -0.42015716 -0.3288936 -0.29985407 0.16177918 -0.24494727
-0.10400921 -0.16119462 0.21631303 -0.08476633 -0.124152 0.22196692 0.060702957 -0.044323403
0.12441423 0.47612244 -0.19909108 0.40452185 -0.1740479 -0.32255694 -0.2515936 -0.14317806
0.022156743 -0.27709457 -0.12285517 -0.30696934 -0.018880451 0.31475452 -0.36600193 0.27268332
-0.26777366 -0.34697136 -0.16618752 -0.45132565 -0.07528974 -0.3025322 -0.28558034 0.07098405
0.57483745 -0.0037042366 0.047279924 -0.33103856 -0.538043 0.05992601 -0.49945375 0.46425453
-0.1961518 -0.43573904 -0.5881589 0.17867222 -0.098369844 0.59274894 -0.14236662 0.056137074
0.075573966 -0.35819146 0.114503704 -0.10540482 0.43421745 0.092789076 -0.3905107 -0.06538871
-0.6247358 -0.65426725 0.14223014 0.56506133 -0.017877202 0.005021284 0.045865964 -0.039323106
-0.10259406 -0.36575752 0.19890347 0.054174066 0.0561918 -0.32100648 -0.7224108 -0.46311352
-0.15726012 -0.031337313 -0.24143054 0.2648267 -0.24071847 0.32151985 0.25187835 -0.71365875
-0.402726 0.22458331 -0.111289866 -0.1293962 -0.31662467 -0.33711356 0.021987302 0.064798005
00000000: bb4b 8cbe 8ee5 aabe 1df4 0fbe 9acf c1be
00000010: 54ba 1fbe d775 3ebe dcf0 ccbe d554 1f3e
00000020: 51d0 df3e 06a8 e7bd 0277 cc3a 61ae ebbd
00000030: ed35 fcbe 8e0c 66bd 7b5e f6be 0b36 283f
00000040: 3faf 02be 7e50 ddbe 5510 14bf deb4 74bd
00000050: 05d9 ebbd d7d2 143f 2a71 8ebe 4a84 cd3e
00000060: de42 8d3d a71d 01bf ed8f 73bd 271c d6bd
00000070: 7cac cb3e 1cac ed3d 1d69 cbbe ecb9 8e3e
00000080: d911 4dbf cc55 14bf 8c73 4dbd a3e4 563f
00000090: a19c 8c3d 2f81 153e f782 04be dc1c 6e3c
000000a0: b860 673e a908 f4be bd99 323e 3f3e 603d
000000b0: 36a4 653e fc62 edbe a71d 3ebf 885e e7be
000000c0: a58c b6be 8f1b 24be f656 d8be e135 9e3e
000000d0: 05e6 5cba 0f2a db3e 21a9 2cbd 0df1 2ebf
000000e0: f77a 01bf 42f2 843e d9b7 64be a2a3 babe
000000f0: b25c dabe c2c6 89be 5ff6 99bd c01a 0abe
00000100: 36af 0d00 4f6a 0b00 ffc5 0800 af66 0e00
00000110: 028c 0c80 a4a9 0880 5261 0e00 f944 0b00
00000120: 1d9b 0e80 2be6 0980 8269 0d00 9466 0c00
00000130: c72d 0c80 a6ae 0a80 e308 0700 368a 0600
00000140: b5c0 0500 cccb 0b80 6b7b 0b00 445c 0c80
00000150: aba0 0700 a533 0e00 cb1f 0680 a228 0780
00000160: 61a9 0800 d7c6 0800 2eaa 0b00 2eaf 0a80
00000170: 88d7 0780 9d9f 0780 951b 0500 5eb9 0700
00000180: 9905 0c00 f187 0600 32b7 0580 30b3 0e00
00000190: 76a7 0c80 62fe 0b80 5d5f 0900 95cb 0880
000001a0: 7169 0d00 db0e 0c80 4ef8 0b80 0da6 0d00
000001b0: ec2d 0a00 a7fd 0780 661b 0480 3c9d 0780
000001c0: ffef 0880 ac30 0b00 ec0a 0680 70e7 0500
000001d0: 7e61 0b80 92c2 0480 6e2b 0c00 0efb 0980
000001e0: 4264 0a80 240e 0b80 ea28 0900 b4ff 0a80
000001f0: f623 0b00 76c9 0a80 8b82 0600 42e7 0500
00000200: 30ef 6a3c 1793 373e 6f03 983e a346 08bd
00000210: b247 c23e 2ebe 3bbe 8723 b5bd b880 98be
00000220: ffab c23e 2731 933e a34d 9abe 0392 8fbe
00000230: 035b 98bd 43df 743e 6f9b e93c 8157 ffbe
00000240: 806f ccbe 90c2 c43d 9002 84be 7706 b1bd
00000250: 05b6 bd3d 8393 ddbe 9dd2 483e 39f0 71bc
00000260: c79c a5be b88b 233e b134 58bb 0caa e53d
00000270: 5f11 e3be 5517 d2be 51ca a7bc 007d 90be
00000280: aece 92be 3bca e33a a66f b3bc d71e d7be
00000290: be64 a8be 7986 99be 71a9 253e 75d3 7abe
000002a0: c802 d5bd 3410 25be 2a81 5d3e f899 adbd
000002b0: 6743 febd 4c4b 633e aaa3 783d 758c 35bd
000002c0: e3cc fe3d 52c6 f33e 88de 4bbe 7d1d cf3e
000002d0: 9d39 32be 2f26 a5be e0d0 80be 459d 12be
000002e0: 0f82 b53c 57df 8dbe 7e9b fbbd 162b 9dbe
000002f0: 2dab 9abc 8127 a13e 9b64 bbbe 269d 8b3e
00000300: a119 89be 3ba6 b1be 102d 2abe 2814 e7be
00000310: 8231 9abd 80e5 9abe 9637 92be 1660 913d
00000320: 8c28 133f c7c2 72bb 98a8 413d e37d a9be
00000330: 30bd 09bf fa74 753d 67b8 ffbe c5b2 ed3e
00000340: 04dc 48be 3019 dfbe 9591 16bf daf5 363e
00000350: 2176 c9bd 65be 173f 8ec8 11be fdef 653d
00000360: 86c6 9a3d df64 b7be eb80 ea3d 7bde d7bd
00000370: c051 de3e 3308 be3d 05f1 c7be 84ea 85bd
00000380: afee 1fbf 0f7e 27bf c7a4 113e dca7 103f
00000390: 3673 92bc 9589 a43b f3dd 3b3d 4411 21bd
000003a0: d61c d2bd 9244 bbbe 5aad 4b3e a0e5 5d3d
000003b0: 5f29 663d f65a a4be eaef 38bf 371d edbe
000003c0: cc08 21be 8e5b 00bd 9139 77be 5d97 873e
000003d0: e77e 76be 409e a43e 33f6 803e 57b2 36bf
000003e0: 1a32 cebe 2bf9 653e f1eb e3bd 7080 04be
000003f0: a11c a2be 269a acbe b71e b43c d1b4 843d

lstm.weight_ih_l1 f4 [256, 64]
-0.10500422 -0.10377878 -0.22627096 0.11553792 -0.21363029 -0.30039176 0.85182136 0.187161
0.08624073 0.5829468 -0.6712497 -0.15737933 -0.064906605 0.40851015 -0.055030476 -0.31945023
0.5683006 -0.796217 0.34859926 -0.4711033 0.29894924 0.11405608 0.6781438 -0.3028094
-0.44508338 0.70685536 0.28789812 1.0609185 0.11695531 -0.21883631 0.8861788 0.14810687
0.037908558 0.2405433 0.017462624 0.12698688 0.2540914 -0.53055495 -0.10058109 -0.37837622
-0.020587632 0.49788454 0.37950864 -0.6208132 -0.118968345 0.12535533 -0.19673674 0.48705268
-0.65264153 -0.2804166 -0.15422897 -0.34951514 -0.37057835 0.41390026 -0.45488727 0.55771554
-0.28362975 0.17927875 0.2588142 -0.6745387 -0.59455246 0.23515682 -0.33217052 0.2878673
0.38271555 0.3154733 -0.5731946 0.42644083 -0.59666866 0.28821483 0.42397752 -0.38705444
0.49241447 0.41319668 -0.31868562 -0.44910625 -0.73546594 0.104020886 0.18890272 0.12540583
0.75503206 -0.2523723 -0.5662671 -1.5388186 0.18723999 -0.6247701 0.010708691 -0.7836373
-0.17469256 0.3041115 0.2554699 0.2935458 0.026221568 -0.2723653 0.5740532 -0.0828389
-0.24069434 -0.7525269 -0.052937545 0.05102345 -0.541166 -0.7816578 -0.13789761 0.22929466
-0.32987875 0.774028 0.34573302 0.89384186 -0.9271315 -0.03949526 0.39173234 0.21707597
-0.11019725 0.23722695 -0.20634599 0.23341422 -0.10533957 -0.44422883 -0.80088264 -0.47191632
0.58621603 -0.6164468 0.33090928 -0.3191306 -0.44708073 -0.0033684513 0.10389975 0.09830711
-0.4175513 0.0014895021 0.4324867 -0.36388263 0.20116098 0.00027272373 -0.035029113 0.01915781
0.11996709 -0.13634717 0.021185197 -0.24201766 -0.3539948 -0.48572826 -0.082271904 -0.05773106
0.49199378 0.018201567 -0.5658305 0.13048922 -0.049263578 -0.22013277 -0.037666623 -0.27873513
-0.04930095 -0.39487642 -0.046487723 -0.10845791 0.17508003 -0.044360507 -0.102548964 -0.0066008465
0.12339959 0.40965652 -0.23771298 0.047879163 -0.025760915 -0.225536 0.057903357 0.46575394
-0.099181116 -0.2791134 -0.007908337 0.39033163 -0.3046485 -0.5709676 0.3566486 -0.16189167
-0.22842401 -0.18865898 -0.25765225 -0.30168462 0.049384594 0.20197216 -0.0203229 -0.44734082
-0.07638866 -0.27547872 -0.19133997 0.20672663 0.34892717 -0.15884 -0.040879942 0.48383316
0.045811377 0.44381884 -0.42428002 0.32545215 0.20845647 -0.2762008 0.46858788 -0.35415924
0.38748157 0.4958244 -0.459732 -0.54005015 -0.6079335 0.018999502 0.15024821 -0.13008195
0.5504041 -0.509395 -0.12910926 -1.2060353 0.5567183 -0.57709944 0.8114206 0.09847619
-0.34216082 0.032666016 0.5057269 0.7250341 -0.12373272 -0.5656808 1.0954229 0.07185613
0.31884912 -0.5112294 0.18100414 -0.1638161 -0.48876327 -0.4039231 -0.33256185 0.1376232
-0.49161676 0.7910529 0.5424729 0.65820247 -0.1562945 0.1897841 0.2045824 0.012023984
-0.8147641 0.10304309 -0.10542014 0.14125656 -0.107968554 -0.35127923 -0.39269236 -0.45055392
0.53930324 -0.87508154 0.1625931 -0.5643347 0.045140266 0.24863695 -0.193232 0.56535065
00000000: 740c d7bd f889 d4bd 93b3 67be 259f ec3d
00000010: e6c1 5abe f3cc 99be f710 5a3f 22a7 3f3e
00000020: fb9e b03d 003c 153f 05d7 2bbf 0c28 21be
00000030: c1ed 84bd 3e28 d13e a367 61bd fb8e a3be
00000040: 267c 113f e1d4 4bbf 9a7b b23e 7434 f1be
00000050: e00f 993e 3c96 e93d d59a 2d3f d509 9bbe
00000060: f8e1 e3be 79f4 343f 6267 933e 2dcc 873f
00000070: 4486 ef3d a016 60be 9ddc 623f 54a9 173e
00000080: 0146 1b3d fc50 763e c70d 8f3c d908 023e
00000090: 4518 823e 73d2 07bf 75fd cdbd 87ba c1be
000000a0: 65a7 a8bc b9ea fe3e f54e c23e 9ded 1ebf
000000b0: ada5 f3bd 265d 003e 5b75 49be f85e f93e
000000c0: 8413 27bf c492 8fbe 33ee 1dbe a6f3 b2be
000000d0: 72bc bdbe bcea d33e fce6 e8be 72c6 0e3f
000000e0: eb37 91be d994 373e 4b83 843e 91ae 2cbf
000000f0: 9734 18bf f3cc 703e 4112 aabe 5863 933e
00000100: 4bf3 c33e b785 a13e e2bc 12bf 7456 da3e
00000110: 47bf 18bf e590 933e 9513 d93e 002c c6be
00000120: c01d fc3e 848e d33e c32a a3be 41f1 e5be
00000130: 7f47 3cbf e708 d53d b76f 413e 636a 003e
00000140: c849 413f f136 81be e1f6 10bf 02f8 c4bf
00000150: d7bb 3f3e eff0 1fbf 8173 2f3c 749c 48bf
00000160: 9be2 32be 81b4 9b3e f3cc 823e a34b 963e
00000170: 9dce d63c 7773 8bbe 27f5 123f 71a7 a9bd
00000180: 9478 76be 9aa5 40bf 0ad5 58bd f7fd 503d
00000190: db89 0abf ba1a 48bf 0835 0dbe 38cc 6a3e
000001a0: dee5 a8be b326 463f eb03 b13e d2d2 643f
000001b0: 7d58 6dbf c8c5 21bd 2491 c83e 2a49 5e3e
000001c0: 19af e1bd 9feb 723e 5d4c 53be 2304 6f3e
000001d0: 46bc d7bd f671 e3be a506 4dbf 049f f1be
000001e0: 4112 163f 75cf 1dbf f16c a93e 1665 a3be
000001f0: c4e7 e4be 3cc1 5cbb 64c9 d43d 3d55 c93d
00000200: 49c9 d5be 663b c33a e66e dd3e d34e babe
00000210: 25fd 4d3e 5cfc 8e39 b07a 0fbd d7f0 9c3c
00000220: 4eb1 f53d 989e 0bbe 948c ad3c 7ad3 77be
00000230: ce3e b5be 60b1 f8be 2c7e a8bd 6777 6cbd
00000240: 9ce6 fb3e 741b 953c 45da 10bf f79e 053e
00000250: 9bc8 49bd 7c6a 61be 5148 1abd 5fb6 8ebe
00000260: cbef 49bd 3e2d cabe e969 3ebd 2e1f debd
00000270: 2e48 333e 5db3 35bd 3105 d2bd ea4b d8bb
00000280: edb8 fc3d 80be d13e 086b 73be f11c 443d
00000290: 8e08 d3bc e9f2 66be 122c 6d3d 4d77 ee3e
000002a0: 781f cbbd f4e7 8ebe f891 01bc 8cd9 c73e
000002b0: e3fa 9bbe ef2a 12bf a59a b63e eec6 25be
000002c0: fce7 69be d22f 41be ffea 83be 6876 9abe
000002d0: 8047 4a3d cad1 4e3e 367c a6bc db09 e5be
000002e0: a871 9cbd 8c0b 8dbe a0ee 43be 25b0 533e
000002f0: 95a6 b23e f4a6 22be ba71 27bd fbb8 f73e
00000300: b6a4 3b3d 393c e33e 3b3b d9be aaa1 a63e
00000310: 9d75 553e 316a 8dbe c0ea ef3e 5c54 b5be
00000320: fc63 c63e b2dc fd3e fe61 ebbe ba40 0abf
00000330: 88a1 1bbf d8a4 9b3c abda 193e 3434 05be
00000340: 48e7 0c3f b667 02bf 3835 04be 5d5f 9abf
00000350: 1785 0e3f cabc 13bf 43b9 4f3f e2ad c93d
00000360: b42f afbe cdcc 053d 5177 013f d69b 393f
00000370: 9567 fdbd 75d0 10bf d136 8c3f 4f29 933d
00000380: 3140 a33e eedf 02bf 2659 393e 68bf 27be
00000390: 2e3f fabe 02cf cebe 8c45 aabe 19ed 0c3e
000003a0: 31b5 fbbe 7182 4a3f 81df 0a3f f57f 283f
000003b0: aa0b 20be c356 423e 0c7e 513e 3f00 453c
000003c0: 6194 50bf 4108 d33d 84e6 d7bd 8fa5 103e
000003d0: 9e1e ddbd dfda b3be f90e c9be 01af e6be
000003e0: c70f 0a3f 5805 60bf ce7e 263e 3d78 10bf
000003f0: 00e5 383d af9a 7e3e 9cde 45be d2ba 103f

lstm.weight_hh_l1 f4 [256, 64]
-5.76514e-40 7.00652e-40 -7.51487e-40 1.317055e-39 -1.26781e-39 -8.8038e-40 -5.20226e-40 -6.4127e-40
1.153078e-39 -6.84623e-40 -7.3555e-40 -1.180912e-39 6.32697e-40 7.90763e-40 1.148192e-39 -5.76e-40
5.51125e-40 -5.43247e-40 -1.30311e-39 -1.329862e-39 5.285e-40 1.215952e-39 1.130594e-39 -6.28077e-40
-1.085578e-39 -8.48922e-40 -5.93552e-40 1.238875e-39 4.20858e-40 6.2117e-40 1.251701e-39 1.226719e-39
6.25255e-40 -1.236695e-39 -6.33502e-40 -8.3238e-40 -1.248497e-39 1.328833e-39 -9.67305e-40 -9.63258e-40
1.289953e-39 5.74766e-40 -1.301555e-39 -1.119436e-39 -6.76443e-40 4.76146e-40 -1.201734e-39 -4.85505e-40
-6.69196e-40 1.095097e-39 -6.71394e-40 -1.013824e-39 9.31879e-40 9.01273e-40 -4.22255e-40 -5.94705e-40
9.54699e-40 -8.95522e-40 5.39483e-40 -7.11165e-40 -5.70907e-40 -7.28965e-40 8.25247e-40 1.259854e-39
1.023929e-39 -1.174182e-39 -1.086748e-39 6.67984e-40 -1.065372e-39 9.35556e-40 -5.34789e-40 -1.251829e-39
1.201063e-39 7.21391e-40 -6.92768e-40 6.89456e-40 -1.215888e-39 -5.55245e-40 -5.86712e-40 -1.249443e-39
-7.09975e-40 -1.271935e-39 -6.57229e-40 6.49213e-40 -9.71104e-40 -5.75244e-40 1.162818e-39 -9.30018e-40
8.02036e-40 -4.95167e-40 -5.80523e-40 8.44295e-40 -7.95803e-40 9.01949e-40 8.24835e-40 1.261554e-39
-1.040966e-39 8.80345e-40 -1.330466e-39 9.44477e-40 -7.87933e-40 -1.298136e-39 -1.091226e-39 -1.060878e-39
-1.05876e-39 -1.037377e-39 -1.056665e-39 9.19252e-40 -1.316687e-39 -9.23e-40 1.210608e-39 7.33821e-40
5.57029e-40 7.99382e-40 7.08768e-40 7.58968e-40 -7.46291e-40 8.96366e-40 1.017268e-39 -5.97327e-40
5.39989e-40 1.005831e-39 9.65276e-40 1.268228e-39 8.86146e-40 -1.220452e-39 6.68241e-40 6.73088e-40
-5.26806e-40 -1.302775e-39 -5.21007e-40 1.34685e-39 -1.177915e-39 -1.309438e-39 -1.304787e-39 1.333707e-39
6.88567e-40 -1.306023e-39 -8.55333e-40 -1.169093e-39 -7.92106e-40 -1.032384e-39 1.155153e-39 -7.98213e-40
-1.232166e-39 4.96282e-40 6.26373e-40 -9.80532e-40 -5.65138e-40 -8.39455e-40 7.2191e-40 6.98299e-40
4.31685e-40 -9.11615e-40 -1.286922e-39 8.29052e-40 1.049997e-39 1.085133e-39 -1.198009e-39 -9.41097e-40
1.293568e-39 -7.90933e-40 1.072736e-39 4.79714e-40 8.70545e-40 -1.04269e-39 -1.04709e-39 -1.249448e-39
-1.065357e-39 -9.408e-40 1.282379e-39 -8.01194e-40 -1.096516e-39 5.68923e-40 -5.7618e-40 1.031343e-39
5.98602e-40 7.00488e-40 1.260485e-39 -1.282684e-39 1.171005e-39 1.297391e-39 8.45988e-40 1.358866e-39
1.11933e-39 -4.58945e-40 1.073606e-39 4.64812e-40 9.94392e-40 -8.77457e-40 8.78376e-40 -1.350136e-39
5.42391e-40 -1.197272e-39 -8.16911e-40 7.76371e-40 1.288181e-39 7.51717e-40 -7.6095e-40 -1.297808e-39
-7.38989e-40 9.52933e-40 -5.93226e-40 9.50043e-40 -1.211088e-39 1.052071e-39 -1.205344e-39 1.153581e-39
1.014044e-39 -1.217793e-39 -5.20595e-40 1.011034e-39 8.07067e-40 -5.92697e-40 8.15111e-40 -7.04322e-40
-4.97426e-40 -7.50234e-40 1.353175e-39 1.257206e-39 5.71941e-40 7.71011e-40 -1.26712e-39 -4.52821e-40
1.120145e-39 -1.221712e-39 -9.82359e-40 -1.058908e-39 -6.1458e-40 -1.038563e-39 -8.00085e-40 4.62626e-40
-1.33212e-39 5.58692e-40 1.271875e-39 1.022626e-39 7.19759e-40 1.235664e-39 1.327496e-39 6.10911e-40
1.359942e-39 7.14322e-40 1.173988e-39 1.30326e-39 -5.51775e-40 9.89907e-40 -4.61173e-40 8.92913e-40
-1.254927e-39 -1.2435e-39 -1.357771e-39 3.60327e-40 9.55143e-40 1.167507e-39 -3.63784e-40 -9.21155e-40
00000000: 1647 0680 22a1 0700 d72e 0880 6a57 0e00
00000010: 23ce 0d80 2496 0980 2eaa 0580 9afb 0680
00000020: 508e 0c00 7374 0780 6a02 0880 e7db 0c80
00000030: b4e3 0600 539c 0800 b180 0c00 a745 0680
00000040: 5000 0600 5aea 0580 8a30 0e80 1d7b 0e80
00000050: 3ec1 0500 943d 0d00 a34f 0c00 d3d6 0680
00000060: 26d2 0b80 733e 0980 9576 0680 7b7d 0d00
00000070: 2e95 0400 92c3 0600 3ca1 0d00 985b 0d00
00000080: f5ce 0600 6777 0d80 f2e5 0680 5610 0980
00000090: 4d98 0d80 3f78 0e00 7488 0a80 2c7d 0a80
000000a0: dd0b 0e00 3742 0600 352c 0e80 8830 0c80
000000b0: a65d 0780 4d2f 0500 f215 0d80 6449 0580
000000c0: 7249 0780 afec 0b00 934f 0780 210a 0b80
000000d0: b325 0a00 62d0 0900 1399 0480 cc79 0680
000000e0: 5065 0a00 5ac0 0980 dcdf 0500 70be 0780
000000f0: 7537 0680 0ff0 0780 74fc 0800 f6b7 0d00
00000100: 4c26 0b00 24c9 0c80 69d5 0b80 1146 0700
00000110: d399 0b80 f32f 0a00 c6d2 0580 97a1 0d80
00000120: 1314 0d00 f2da 0700 288b 0780 ec81 0700
00000130: 673d 0d80 cc0b 0680 8463 0680 f09a 0d80
00000140: 1fbb 0780 a3d9 0d80 1628 0780 be11 0700
00000150: 0b93 0a80 8c43 0680 77a9 0c00 8320 0a80
00000160: c0bb 0800 5364 0580 4352 0680 8d31 0900
00000170: 60aa 0880 44d2 0900 4efb 0800 b3bc 0d00
00000180: ca55 0b80 0b96 0900 cc7c 0e80 d148 0a00
00000190: 7094 0880 ad22 0e80 e5e1 0b80 4c8d 0b80
000001a0: 6487 0b80 c94b 0b80 8d81 0b80 8002 0a00
000001b0: 6356 0e80 f30c 0a80 af2e 0d00 98fd 0700
000001c0: c510 0600 5ab4 0800 c2b7 0700 b243 0800
000001d0: 5b20 0880 b4c2 0900 bb13 0b00 1b81 0680
000001e0: 45e1 0500 d9f3 0a00 cc82 0a00 4ecf 0d00
000001f0: 37a6 0900 204a 0d80 c946 0700 4c54 0700
00000200: 85bc 0580 9b2f 0e80 5bac 0580 78aa 0e00
00000210: 8cd3 0c80 2e42 0e80 3735 0e80 d585 0e00
00000220: 727f 0700 a938 0e80 5250 0980 f5ba 0c80
00000230: 12a0 0880 de3d 0b80 1994 0c00 18b1 0880
00000240: c76a 0d80 6f67 0500 13d2 0600 53ad 0a80
00000250: 6027 0680 0f24 0980 64dc 0700 939a 0700
00000260: 5db3 0400 36ed 0980 6a03 0e80 0f07 0900
00000270: f76e 0b00 e9d0 0b00 900b 0d80 653f 0a80
00000280: f115 0e00 cd9c 0880 5aae 0b00 3f39 0500
00000290: ba7a 0900 985a 0b80 dc66 0b80 f49a 0d80
000002a0: c899 0b80 913e 0a80 c0f6 0d00 67b9 0880
000002b0: a4f0 0b80 ed31 0600 2846 0680 f73a 0b00
000002c0: a984 0600 ada0 0700 b8b9 0d00 9af7 0d80
000002d0: 49c0 0c00 9920 0e00 4536 0900 f7cb 0e00
000002e0: 3d30 0c00 5aff 0480 c7b0 0b00 b50f 0500
000002f0: f6d3 0a00 fe8d 0980 8e90 0900 a1b3 0e80
00000300: f7e7 0500 8209 0d80 37e5 0880 3574 0800
00000310: ed06 0e00 7b2f 0800 3849 0880 c321 0e80
00000320: 000c 0880 6460 0a00 ac75 0680 5558 0a00
00000330: 0530 0d80 bf74 0b00 0220 0d80 b78f 0c00
00000340: be0a 0b00 b642 0d80 35ab 0580 5a02 0b00
00000350: c6c9 0800 3374 0680 33e0 0800 5dab 0780
00000360: 9f6a 0580 592b 0880 1abc 0e00 94b0 0d00
00000370: 573a 0600 4465 0800 37cc 0d80 48ee 0480
00000380: 8232 0c00 a34d 0d80 6bb2 0a80 ce87 0b80
00000390: 33b1 0680 174f 0b80 50b6 0880 9d09 0500
000003a0: 6981 0e80 6815 0600 78d9 0d00 aa22 0b00
000003b0: 65d6 0700 8774 0d00 8574 0e00 f9a6 0600
000003c0: f7ce 0e00 3dc7 0700 9ac8 0c00 f530 0e00
000003d0: 2002 0680 75c7 0a00 9005 0580 14b9 0900
000003e0: 3aaa 0d80 5f8a 0d80 eac8 0e80 72ec 0300
000003f0: 8d66 0a00 89b6 0c00 15f6 0380 ce07 0a80

lstm.bias_ih_l1 f4 [256]
0.078065015 -0.21724828 -0.99371 0.056131896 0.23756485 -0.020631822 -0.13880609 -0.81326526
-0.0041637593 -0.21860155 -0.18549438 -0.0879563 0.2119593 -0.0026688327 0.13401484 0.014516549
-0.58860004 -0.2573858 -0.019783214 -0.64080787 -0.27126852 -0.19573149 0.0049135187 -0.017792985
0.07352403 0.10069873 -0.2823248 -0.04808195 -0.084708355 0.22566505 0.019857204 -0.5874324
0.0816079 -0.171696 0.13277113 -0.36847055 -0.14287926 -0.48803195 -0.42264348 0.21025185
-0.360597 -0.22588572 -0.26777118 -0.026236344 -0.18668148 0.24133028 -0.23727278 -0.4659434
0.35602477 -0.57549506 -0.18809572 -0.35217276 -0.34565002 -0.47006437 -0.008919113 -0.3423122
0.061047904 0.018165356 -0.24105106 0.15675274 -0.007715954 -0.44594157 0.2911465 -0.063677736
6.33083e-40 -1.140885e-39 4.4063e-40 6.70181e-40 -1.303097e-39 -6.03464e-40 -6.10033e-40 -8.1645e-40
-5.40394e-40 -9.57603e-40 1.147277e-39 -6.79633e-40 -7.09473e-40 4.59996e-40 9.2654e-40 -8.93949e-40
5.77968e-40 6.61114e-40 4.02154e-40 -6.43336e-40 -8.13926e-40 -7.77417e-40 -6.01181e-40 -7.16155e-40
5.2005e-40 1.27574e-39 -9.29871e-40 1.311248e-39 8.98926e-40 1.000107e-39 -4.54542e-40 -1.159954e-39
9.95679e-40 -1.191643e-39 -9.60537e-40 9.50188e-40 -1.239317e-39 4.47655e-40 -6.31536e-40 -7.24194e-40
8.30147e-40 1.035889e-39 -1.349187e-39 7.18192e-40 -5.52636e-40 1.15949e-39 -7.44213e-40 9.80801e-40
1.231961e-39 -1.22605e-39 7.24646e-40 -6.70147e-40 1.26178e-39 -1.114158e-39 9.69345e-40 -9.59094e-40
7.06985e-40 6.03099e-40 -5.1028e-40 -1.130846e-39 -6.93744e-40 5.02259e-40 1.267913e-39 -9.56835e-40
-0.3695566 0.38979954 0.13672623 -0.27393803 -0.38192838 -0.47706988 0.26150975 -0.020711092
0.5548538 -0.05379558 0.34023347 0.108031124 0.59683055 -0.3186519 -0.24803206 -0.530957
-0.0944396 -0.2902248 0.38343772 -0.17034431 -0.081225574 0.31283596 -0.55725634 -0.4059548
0.0874387 0.42711595 -0.048759084 0.18579036 -0.33250114 -0.5100688 0.35123944 0.06694307
0.51157075 -0.107224934 -0.51826143 0.041019827 -0.36938795 0.11715596 -0.2574647 -0.5404505
0.030060377 -0.0043536825 0.25791627 0.20662151 0.10336889 -0.45751172 0.24508545 0.12076242
0.03759036 0.12742606 0.3700795 0.022595404 0.008863209 -0.09567177 0.20476758 0.41931266
-0.48207235 -0.13775532 -0.19400544 -0.50454974 -0.5283742 0.0032728445 0.4593457 0.1645553
0.10362986 -0.14020634 -0.9807979 -0.06753493 -0.029619658 0.08400018 -0.057239324 -0.8447687
0.14871797 -0.17042325 -0.016798025 -0.20395213 0.01472516 -0.16754082 -0.31120965 -0.10913405
-0.7211446 -0.26468715 -0.025309926 -0.600552 -0.3544928 -0.25579122 0.25261834 -0.1593028
-0.017951507 -0.037283763 -0.22593206 -0.15532717 -0.009668639 0.15113057 -0.10661142 -0.4026695
0.013580528 -0.11402285 -0.08528449 -0.27740943 -0.19216754 -0.38957015 -0.23038827 0.20384188
-0.32285768 -0.20212744 -0.37809297 -0.16865763 -0.09921321 0.18454646 -0.11096053 -0.43479195
0.39357013 -0.59032476 -0.0972546 -0.38022146 -0.35949093 -0.5225454 -0.16165526 -0.2963702
-0.18416817 -0.040870503 -0.40880448 0.086791426 -0.05665369 -0.56761765 0.14512147 -0.15194915
00000000: 8de0 9f3d 5576 5ebe c763 7ebf 8fea 653d
00000010: 3344 733e 1104 a9bc 2f23 0ebe 2732 50bf
00000020: 2570 88bb 16d9 5fbe 3df2 3dbe 6f22 b4bd
00000030: dc0b 593e 95e7 2ebb 303b 093e d2d6 6d3c
00000040: 7eae 16bf 12c8 83be 6810 a2bc fc0b 24bf
00000050: b5e3 8abe d66d 48be 9501 a13b 98c2 91bc
00000060: c493 963d 233b ce3d e08c 90be 94f1 44bd
00000070: 937b adbd bd14 673e 93ab a23c f861 16bf
00000080: 0b22 a73d 14d1 2fbe 28f5 073e 2ca8 bcbe
00000090: f14e 12be 53df f9be ba64 d8be 434c 573e
000000a0: 2ca0 b8be 964e 67be 4e19 89be 9aed d6bc
000000b0: 6e29 3fbe 491f 773e a3f7 72be 2290 eebe
000000c0: e148 b63e a553 13bf 2a9c 40be fd4f b4be
000000d0: 0af9 b0be 47ac f0be 7921 12bc 8b43 afbe
000000e0: 5e0d 7a3d 83cf 943c 17d6 76be ca83 203e
000000f0: 1dd6 fcbb 7452 e4be 2711 953e 7969 82bd
00000100: c7e4 0600 536c 0c80 4ccc 0400 314c 0700
00000110: 8130 0e80 3692 0680 86a4 0680 eee3 0880
00000120: 66e2 0580 686d 0a80 247e 0c00 8a66 0780
00000130: b9b9 0780 4802 0500 d116 0a00 f7bb 0980
00000140: 244b 0600 eb32 0700 0b61 0400 5c01 0780
00000150: e5dc 0880 1f77 0880 d98b 0680 59cc 0780
00000160: b0a9 0500 3ee4 0d00 1a20 0a80 3a47 0e00
00000170: d7c9 0900 e4e3 0a00 14f3 0480 7ba1 0c80
00000180: 8cd7 0a00 d1f9 0c80 9675 0a80 bd58 0a00
00000190: b67e 0d80 e1df 0400 77e0 0680 c2e2 0780
000001a0: 1d0a 0900 a347 0b00 fcb0 0e80 07d2 0700
000001b0: 8604 0680 30a0 0c00 901a 0880 13ae 0a00
000001c0: 356a 0d00 bb59 0d80 05e4 0700 194c 0780
000001d0: 54bd 0d00 d221 0c80 248e 0a00 9071 0a80
000001e0: c9b2 0700 3291 0600 748e 0580 5750 0c80
000001f0: e08d 0780 1878 0500 6dce 0d00 446b 0a80
00000200: 8636 bdbe ce93 c73e f601 0c3e 9b41 8cbe
00000210: 1e8c c3be 8142 f4be 9be4 853e 4faa a9bc
00000220: e60a 0e3f c158 5cbd 1533 ae3e 6c3f dd3d
00000230: e3c9 183f 5826 a3be 1efc 7dbe ccec 07bf
00000240: 8d69 c1bd 5898 94be f351 c43e bd6e 2ebe
00000250: 9859 a6bd 092c a03e 5aa8 0ebf 4fd9 cfbe
00000260: 1013 b33d f1ae da3e 9bb7 47bd d43f 3e3e
00000270: 973d aabe de93 02bf a8d5 b33e 7319 893d
00000280: 4df6 023f bf98 dbbd c8ac 04bf 6804 283d
00000290: 6b20 bdbe 77ef ef3d 6ad2 83be f75a 0abf
000002a0: 2e41 f63c 56a9 8ebb 9a0d 843e 9794 533e
000002b0: 12b3 d33d fa3e eabe aef7 7a3e 4a52 f73d
000002c0: 59f8 193d fa7b 023e 0f7b bd3e ff19 b93c
000002d0: fe36 113c 90ef c3bd 98ae 513e 26b0 d63e
000002e0: 30d2 f6be bb0f 0dbe 5da9 46be 2c2a 01bf
000002f0: 8843 07bf 387d 563b 5c2f eb3e 2f81 283e
00000300: e43b d43d 4092 0fbe 9215 7bbf c14f 8abd
00000310: eda4 f2bc 4908 ac3d c873 6abd c342 58bf
00000320: 8649 183e 6f83 2ebe 039c 89bc d4d8 50be
00000330: cc41 713c d28f 2bbe df56 9fbe ac81 dfbd
00000340: ef9c 38bf 1385 87be c356 cfbc c7bd 19bf
00000350: 1580 b5be 11f7 82be 3157 813e 4620 23be
00000360: 0a0f 93bc dcb6 18bd bc5a 67be 160e 1fbe
00000370: 3669 1ebc f9c1 1a3e 1757 dabd b22a cebe
00000380: dd80 5e3c d084 e9bd a2a9 aebd 9c08 8ebe
00000390: 91c7 44be bd75 c7be e7ea 6bbe edbb 503e
000003a0: 9a4d a5be 7ffa 4ebe 6795 c1be 96b4 2cbe
000003b0: 4c30 cbbd bff9 3c3e 463f e3bd 0d9d debe
000003c0: 0682 c93e 861f 17bf 6b2d c7bd 63ac c2be
000003d0: 320f b8be 89c5 05bf f588 25be d6bd 97be
000003e0: 9596 3cbe d467 27bd d24e d1be b4bf b13d
000003f0: b30d 68bd 644f 11bf b99a 143e 8f98 1bbe
