saved_lstm_models_cv/inference_lstm_period_66pct_pca_False.pth (torch, 955302 bytes, 25 tensors)

lstm.weight_ih_l0 f4 [256, 7]
0.18216941 0.010501266 0.046640106 -0.06928754 -0.10616275 -0.09735597 0.10767168 0.09379879
0.12936994 0.09914735 0.0764886 0.17047954 -0.028498225 0.037523482 0.2510664 -0.00087429944
0.22506349 -0.442304 0.4450944 0.032793656 -0.022781381 0.07424235 0.0051921313 0.09399785
0.11126014 -0.15644535 -0.043300197 0.09848718 0.0629835 0.03751107 0.054668065 0.055353113
0.0052386876 -0.033358216 -0.0111878645 -0.17246082 -0.19501251 -0.025168486 -0.028608311 0.08925621
-0.06844552 0.2545165 0.0026844575 -0.14045095 -0.1407812 0.15409133 0.05847811 0.012964122
0.122186184 -0.17499755 -0.16198686 -0.13106848 -0.009504273 -0.114941366 0.037813228 0.27995133
-0.080297284 0.076317854 -0.030553425 -0.00047027023 -0.10520196 -0.06844236 0.09078479 0.007778509
0.090395786 -0.0062035015 0.13301219 0.0611442 -0.04816693 0.030624477 0.11279712 -0.039245658
-0.00934723 -0.08387451 -0.027249208 -0.062310167 0.21633004 0.251285 -0.03262734 -0.009381152
-0.14265068 -0.05540708 0.1758309 0.22616486 0.012021903 -0.09313992 -0.030430041 0.20360307
0.08209114 0.2399174 0.29953694 -0.057195816 -0.061060105 -0.10444452 0.11936657 0.09610596
0.03766725 0.31723452 0.05981917 -0.08202271 0.121752575 0.04625766 0.029287951 0.056584105
-0.045661382 0.05055479 -0.0948826 -0.058536816 -0.00023133263 -0.08965169 0.04326384 -0.00015815301
-0.17666207 -0.28590894 -0.070901684 -0.0038032574 0.014034956 0.065708466 -0.16878489 -0.13681169
-0.015458058 0.07767449 -0.006248337 0.19524576 -0.30550325 0.16117619 -0.06401786 -0.17396055
-0.49374908 0.12041429 0.008662673 -0.6359053 -0.16243857 -0.38242203 -0.20740671 -0.04577885
0.19861841 -0.0791851 -0.12204369 -0.11546007 -0.223341 -0.10808211 0.057135582 -0.051608853
0.17440206 0.18221314 0.11741746 -0.13750325 -0.044234917 0.16190577 -0.1085596 -0.0004423585
-0.056987733 0.17529765 0.026012573 -0.14541952 -0.011803857 -0.023740761 0.15263866 -0.054965638
0.09750643 -0.007014101 0.018514967 -0.02357741 0.3448184 0.29470998 -0.13097128 -0.19736429
0.01608871 -0.076549895 -0.0435522 -0.008988909 0.06821231 0.039571606 0.043656282 0.14165395
0.034398776 -0.051173147 0.25974524 -0.1203644 -0.16932343 0.18465778 0.10430265 0.028393593
0.05237735 0.024383793 0.15579307 0.29409504 0.016127262 -0.06253343 0.046913277 -0.0074859154
0.29150635 0.14291105 -0.15754093 0.08971176 -0.060250554 -0.11082196 -0.052625872 0.12724613
-0.15491644 -0.23058389 0.15340762 -0.18618038 -0.22058046 -0.16365975 0.11615779 -0.24498954
-0.0390218 -0.018809665 0.15292954 -0.15524408 -0.015280896 -0.33990797 -0.030417372 0.20068865
0.006442281 -0.06161509 -0.14790462 0.04036284 -0.07944435 -0.0782691 0.44174302 0.18055585
-0.06480664 0.023746163 0.111127585 0.12804317 0.15065774 -0.21555379 0.10624973 0.15105635
-0.045675695 -0.006137312 0.08106789 0.20608719 -0.032651037 0.24231827 -0.08228053 0.06280348
0.1023336 -0.10730687 0.35471773 -0.060493104 0.044889167 -0.36658585 -0.20921755 -0.17023642
0.23017722 -0.54607475 -0.032834176 0.1729803 -0.058140174 0.04650366 -0.23710886 0.057593405
00000000: 9e8a 3a3e 810d 2c3c b209 3f3d a0e6 8dbd
00000010: db6b d9bd 9162 c7bd f882 dc3d 9419 c03d
00000020: 8e79 043e c40d cb3d 0ea6 9c3d 3092 2e3e
00000030: 1c75 e9bc 39b2 193d c68b 803e 3e31 65ba
00000040: 0b77 663e ab75 e2be 6ae3 e33e a452 063d
00000050: 05a0 babc 600c 983d c122 aa3b f281 c03d
00000060: 5bdc e33d 3633 20be 8c5b 31bd a6b3 c93d
00000070: 7efd 803d 35a5 193d 9feb 5f3d f2b9 623d
00000080: 4ca9 ab3b a0a2 08bd 4e4d 37bc 9299 30be
00000090: 5cb1 47be 242e cebc fa5b eabc f6cb b63d
000000a0: 2a2d 8cbd fd4f 823e b9ed 2f3b 60d2 0fbe
000000b0: f228 10be 1eca 1d3e be86 6f3d 7867 543c
000000c0: c03c fa3d 8f32 33be e2df 25be d136 06be
000000d0: cfb7 1bbc 6166 ebbd 0be2 1a3d c855 8f3e
000000e0: e772 a4bd 894c 9c3d 2d4b fabc 9a8e f6b9
000000f0: 2074 d7bd 822b 8cbd 60ed b93d dde2 fe3b
00000100: 6d21 b93d be46 cbbb 5934 083e 5772 7a3d
00000110: b04a 45bd 2fe0 fa3c 2d02 e73d 0ec0 20bd
00000120: 2025 19bc 66c6 abbd bb39 dfbc f238 7fbd
00000130: 9f85 5d3e 6da8 803e 3fa4 05bd 67b3 19bc
00000140: 0513 12be 89f2 62bd 040d 343e c397 673e
00000150: 84f7 443c 24c0 bebd 6c48 f9bc 537d 503e
00000160: 661f a83d e8ac 753e e85c 993e 2946 6abd
00000170: 291a 7abd 02e7 d5bd 7676 f43d 34d3 c43d
00000180: f948 1a3d 906c a23e f204 753d 86fb a7bd
00000190: 6a59 f93d ac78 3d3d 49ed ef3c bcc4 673d
000001a0: 6e07 3bbd 8a12 4f3d cf51 c2bd 4dc4 6fbd
000001b0: e191 72b9 4e9b b7bd 6d35 313d e0d5 25b9
000001c0: e7e6 34be a862 92be e734 91bd 1240 79bb
000001d0: dff2 653c 2992 863d f2d5 2cbe 5d18 0cbe
000001e0: cb43 7dbc ce13 9f3d dabe ccbb 81ee 473e
000001f0: ec6a 9cbe 5f0b 253e cc1b 83bd b722 32be
00000200: aecc fcbe c49b f63d e2ed 0d3c b1ca 22bf
00000210: 4c56 26be d2cc c3be 6d62 54be 9a82 3bbd
00000220: a062 4b3e cc2b a2bd 0bf2 f9bd 5476 ecbd
00000230: 81b3 64be 275a ddbd 0007 6a3d ce63 53bd
00000240: 7496 323e 1596 3a3e 9178 f03d a7cd 0cbe
00000250: ac2f 35bd a0ca 253e 7f54 debd 5aec e7b9
00000260: f86b 69bd 3a81 333e 5218 d53c dbe8 14be
00000270: f764 41bc fc7b c2bc 4f4d 1c3e a623 61bd
00000280: 73b1 c73d 8bd6 e5bb b3ac 973c 6a25 c1bc
00000290: 0a8c b03e 3ae4 963e 561d 06be dd19 4abe
000002a0: 78cc 833c 31c6 9cbd cb63 32bd 3846 13bc
000002b0: e5b2 8b3d d615 223d eed0 323d bc0d 113e
000002c0: bbe5 0c3d ef9a 51bd 54fd 843e 9c81 f6bd
000002d0: 1f63 2dbe ee16 3d3e a19c d53d ae99 e83c
000002e0: a289 563d 85c0 c73c 3888 1f3e a093 963e
000002f0: 521d 843c 8711 80bd 2328 403d 694c f5bb
00000300: 5240 953e 4657 123e 6952 21be cdba b73d
00000310: 49c9 76bd a0f6 e2bd 3a8e 57bd cf4c 023e
00000320: 6aa2 1ebe 2f1e 6cbe e316 1d3e 12a6 3ebe
00000330: d8df 61be 6c96 27be 23e4 ed3d 8ade 7abe
00000340: 53d5 1fbd ba16 9abc 9099 1c3e 4ef8 1ebe
00000350: b95c 7abc 6b08 aebe da2d f9bc 5381 4d3e
00000360: c519 d33b 1b60 7cbd 4f74 17be 8153 253d
00000370: b8b3 a2bd 8d4b a0bd 242c e23e a2e3 383e
00000380: 58b9 84bd 5087 c23c dc96 e33d c01d 033e
00000390: 0646 1a3e 22ba 5cbe 7599 d93d 84ae 1a3e
000003a0: 7016 3bbd 811b c9bb ec06 a63d 8508 533e
000003b0: 18bd 05bd 4822 783e b282 a8bd 1c9f 803d
000003c0: 4794 d13d b4c3 dbbd 909d b53e 9ec7 77bd
000003d0: b4dd 373d 24b1 bbbe 203d 56be 7552 2ebe
000003e0: 94b3 6b3e 8ecb 0bbf 217d 06bd bf21 313e
000003f0: 6424 6ebd 9f7a 3e3d aacc 72be 10e7 6b3d

lstm.weight_hh_l0 f4 [256, 64]
-0.10454073 -0.07762076 0.059849408 -0.021404339 -0.0795668 0.023104435 0.17709172 0.07593649
-0.0506537 -0.03688698 0.04500385 -0.30259526 -0.06137486 0.23410401 0.023194253 0.024225883
0.04933818 0.14413524 0.28369144 0.03060695 0.113206625 -0.07578783 -0.2030074 -0.040291335
-0.11045397 -0.19199654 -0.11570898 -0.12471957 0.11995897 -0.010813985 -0.2285486 -0.1516736
-0.033336088 0.1626874 -0.19747421 0.11196846 -0.32999066 0.23870994 -0.07464089 0.051629156
-0.2060385 -0.018477604 -0.08324399 0.11955106 0.081129245 -0.045814924 0.20206606 -0.05248374
-0.09892617 -0.060060136 0.06763217 -0.014325487 0.010893938 -0.11979464 -0.00046158253 0.11804654
0.18676873 0.26391032 0.24299695 0.23941627 0.17343317 -0.0928366 -0.006220633 0.18409128
-0.16374472 -0.118386365 -0.10122256 0.0071947277 0.16065148 0.019457087 0.17372377 0.081514046
0.009552244 -0.074041076 -0.08649235 -0.1635687 -0.05269806 -0.05409435 0.009789637 0.084733576
-0.027961986 0.1965688 0.23775871 0.18230435 0.004466222 0.060970135 -0.09380908 -0.08868077
-0.08893623 -0.021724086 -0.06638251 -0.024425972 0.015269135 0.06264587 -0.014085227 -0.0010022044
0.0020738565 -0.12191108 -0.07526964 0.23099087 -0.13531543 0.027926892 -0.04565547 0.027595673
0.04081342 -0.07018957 -0.13819529 -0.03715405 -0.0002944877 -0.009020128 0.071481146 -0.042870946
-0.0071694925 -0.118856944 -0.008789947 -0.2365315 0.15733601 -0.035164267 0.02541996 -0.029055461
0.17651929 0.22345534 0.16156551 0.22679056 -0.007371682 0.026992721 0.0016615632 0.013557582
0.12817991 0.05303535 0.12731245 -0.067289904 -0.11074148 0.2508232 -0.54112744 -0.24555913
-0.071997456 0.14676596 0.040073 0.23018049 -0.046727836 -0.08129873 0.15109459 0.23544303
-0.06157879 0.18079004 -0.28636888 -0.1346138 0.012059363 -0.0020633675 -0.015908547 -0.18345895
0.33553392 0.21269351 0.20775321 -0.031010548 -0.24221879 0.10673823 -0.12803414 0.22292705
0.44543707 -0.14715303 0.029232802 -0.03559471 0.35689545 -0.10567721 0.03377793 0.057962954
0.11964669 -0.039862536 -0.14306311 0.026674172 0.4692412 -0.0110902 -0.1407719 -0.10724715
-0.05837507 -0.09843063 -0.23450546 -0.34285936 -0.16225013 -0.106686085 -0.4102203 -0.09740899
-0.06276882 0.10441049 -0.048928007 0.09562148 -0.101710774 -0.19662765 -0.11355554 -0.043598168
-0.07214265 0.025450213 -0.09756614 -0.0110986065 -0.046028867 0.0074890656 0.08917211 -0.074694335
-0.026611978 -0.0628886 0.096354276 -0.06843205 -0.017309155 -0.058723923 0.036636017 0.076026246
-0.0077406317 -0.0023456595 -0.05827816 0.0035543449 0.11423413 -0.08792936 0.015634874 0.1229933
-0.096188955 0.043395706 -0.12516582 -0.029848367 0.05305794 0.06866405 0.08240688 0.08075019
-0.19011353 0.15453497 0.059530288 -0.06460221 -0.13191548 0.06057401 0.06071853 -0.09313799
-0.09945055 0.0031782605 -0.012374834 0.062412594 0.10775037 -0.09206163 0.10287001 -0.04318537
-0.036210313 -0.103584945 -0.056203492 0.13512877 0.08282891 -0.104246214 -0.044175293 0.002666826
0.016965445 -0.036609564 0.07359415 0.14208943 0.02237859 0.117981665 -0.038603965 -0.053963646
00000000: 7319 d6bd a2f7 9ebd a724 753d 2758 afbc
00000010: ebf3 a2bd 8345 bd3c 8857 353e 9784 9b3d
00000020: 417a 4fbd cd16 17bd f555 383d c4ed 9abe
00000030: 3564 7bbd f6b8 6f3e e001 be3c 5c75 c63c
00000040: d516 4a3d 3098 133e 0140 913e 6dbb fa3c
00000050: e0d8 e73d a636 9bbd 2ce1 4fbe 8708 25bd
00000060: b135 e2bd be9a 44be d4f8 ecbd f96c ffbd
00000070: 0cad f53d 242d 31bc a508 6abe 5350 1bbe
00000080: 6c8b 08bd 8797 263e ae36 4abe b84f e53d
00000090: 89f4 a8be 6170 743e 53dd 98bd 1879 533d
000000a0: c2fb 52be 585e 97bc d37b aabd 30d7 f43d
000000b0: 1727 a63d 6ea8 3bbd 68ea 4e3e 31f9 56bd
000000c0: ce99 cabd 9e01 76bd bc82 8a3d 73b5 6abc
000000d0: 7d7c 323c e456 f5bd 8f00 f2b9 62c2 f13d
000000e0: 4d40 3f3e 411f 873e 31d4 783e 8a29 753e
000000f0: 7798 313e 1e21 bebd 74d6 cbbb 6d82 3c3e
00000100: b2ac 27be 8d74 f2bd c64d cfbd c0c1 eb3b
00000110: d281 243e 7864 9f3c a5e4 313e d6f0 a63d
00000120: 0481 1c3c d9a2 97bd e722 b1bd 8e7e 27be
00000130: ecd9 57bd 0a92 5dbd b764 203c cc88 ad3d
00000140: 8910 e5bc 5549 493e 0577 733e fead 3a3e
00000150: 6359 923b d2bb 793d fa1e c0bd 439e b5bd
00000160: 3324 b6bd b6f6 b1bc 8ef3 87bd fa18 c8bc
00000170: 652b 7a3c 7a4c 803d b9c5 66bc 665c 83ba
00000180: 8ae9 073b 84ac f9bd f826 9abd df88 6c3e
00000190: 2190 0abe f0c6 e43c 3b01 3bbd 5210 e23c
000001a0: f92b 273d 8dbf 8fbd 1183 0dbe d82e 18bd
000001b0: 7865 9ab9 29c9 13bc b564 923d 7299 2fbd
000001c0: 10ee eabb 456b f3bd b603 10bc 5035 72be
000001d0: b11c 213e 6808 10bd 853d d03c b805 eebc
000001e0: 79c1 343e 7ad1 643e 6e71 253e c93b 683e
000001f0: 278e f1bb d71f dd3c cfc8 d93a 9f20 5e3c
00000200: 9841 033e 983b 593d 325e 023e 4acf 89bd
00000210: 6ecc e2bd e66b 803e 5487 0abf da73 7bbe
00000220: 6773 93bd d149 163e 9623 243d 6fb4 6b3e
00000230: b065 3fbd f37f a6bd 8ab8 1a3e fa17 713e
00000240: 0b3a 7cbd 0621 393e f19e 92be 33d8 09be
00000250: a294 453c 9039 07bb a452 82bc aadc 3bbe
00000260: 1acb ab3e 54cc 593e 42bd 543e d509 febc
00000270: 3408 78be 9399 da3d 621b 03be fd46 643e
00000280: 5410 e43e 49af 16be a179 ef3c c2cb 11bd
00000290: 00bb b63e 4b6d d8bd ba5a 0a3d 906a 6d3d
000002a0: 5309 f53d e646 23bd 237f 12be cb83 da3c
000002b0: 6240 f03e acb3 35bc 8226 10be 65a4 dbbd
000002c0: b31a 6fbd 0096 c9bd 3322 70be 438b afbe
000002d0: e624 26be 3c7e dabd 6508 d2be 5d7e c7bd
000002e0: f08c 80bd 2bd5 d53d bc68 48bd 32d5 c33d
000002f0: bd4d d0bd c258 49be cf8f e8bd fe93 32bd
00000300: 87bf 93bd f77c d03c c2d0 c7bd eed6 35bc
00000310: c488 3cbd d666 f53b de9f b63d 58f9 98bd
00000320: 5d01 dabc bdcb 80bd 6455 c53d 1a26 8cbd
00000330: eecb 8dbc 7f88 70bd a60f 163d a6b3 9b3d
00000340: 20a5 fdbb a3b9 19bb 14b5 6ebd 03f0 683b
00000350: 95f3 e93d 4f14 b4bd b514 803c e9e3 fb3d
00000360: b7fe c4bd b2bf 313d 782b 00be 9084 f4bc
00000370: 4853 593d bd9f 8c3d f0c4 a83d 5b60 a53d
00000380: 1fad 42be 6a3e 1e3e 08d6 733d 2a4e 84bd
00000390: da14 07be 741c 783d feb3 783d 21bf bebd
000003a0: bbac cbbd 5d4a 503b d1bf 4abc 59a4 7f3d
000003b0: 3aac dc3d cf8a bcbd 83ad d23d 24e3 30bd
000003c0: 4451 14bd 5824 d4bd a235 66bd 325f 0a3e
000003d0: 34a2 a93d 0a7f d5bd 27f1 34bd eac5 2e3b
000003e0: 1efb 8a3c e9f3 15bd 88b8 963d e47f 113e
000003f0: 4e53 b73c 5fa0 f13d 311f 1ebd fc08 5dbd

lstm.bias_ih_l0 f4 [256]
0.14474925 0.08935527 0.27329043 -0.08035424 -0.018090796 0.0017829252 0.076169774 0.10095424
0.12453978 0.019779675 -0.06633302 0.19799343 -0.060813732 0.0123682115 -0.0047996263 0.119955145
0.16324338 0.20632873 0.0563773 -0.03658725 0.07925572 0.052801877 0.07036357 -0.029174289
0.22609329 0.08278674 -0.073741145 -0.09569084 0.15822478 0.06426437 0.10683394 0.08514346
0.1830362 0.0027733692 0.27124152 0.13317366 0.11715718 0.15941143 0.15186179 0.17972629
0.09259341 -0.061513092 0.0967894 -0.04422577 0.094880395 0.10346045 0.13512446 -0.050127737
0.15501319 0.13077626 0.039055478 0.22912437 -0.07376722 0.04856225 -0.08040272 0.064221635
-0.0090998905 0.07522481 0.31987765 0.064897865 -0.04691311 -0.011716097 0.10767985 0.14601403
0.1336163 0.0073920633 0.16243306 0.08278857 -0.029976526 -0.003833568 0.030528748 -0.09949212
-0.099268995 -0.022001958 -0.067648776 -0.014272325 0.0945992 -0.061433513 0.04338139 0.11015398
0.03223967 0.03578384 0.053626988 0.18394417 0.008536993 -0.05137675 -0.15019369 0.17246969
0.045061346 0.048319027 0.034987867 0.07207337 0.10439547 -0.019891487 0.043579306 0.08829146
0.074096546 0.010850462 -0.012450237 -0.039531995 0.103177585 0.076888524 -0.015614047 -0.015393568
0.13725004 0.11551398 0.079427436 -0.065886416 0.13687995 -0.067535385 0.07953809 0.061831713
-0.0036226253 0.10478281 -0.03630807 0.047072314 0.005518553 0.020942777 0.15485847 0.032595187
-0.083375946 -0.019017322 0.07701033 0.08008193 -0.07179575 -0.094544865 0.06719228 -0.00910965
-0.08227081 -0.119503446 0.07945079 0.10193777 0.0028218557 0.12700059 -0.026078304 -0.08136311
0.13462798 0.056988988 -0.15110748 0.043338627 -0.09541175 0.13523847 -0.0878334 0.12122
0.05477685 0.05708866 -0.08280186 -0.0035331277 0.051821396 0.11657952 -0.18542208 0.049666807
0.10079117 0.0483184 -0.034267053 -0.06985067 0.11433737 0.0500368 -0.010050882 -0.12139438
-0.10678954 0.137398 0.09163384 -0.013643044 -0.088851355 0.0033106185 0.033180717 0.13764554
-0.14782827 0.03948703 0.12908947 -0.09902162 0.026623173 -0.10629089 0.10080329 0.12793994
0.14419931 -0.043882504 0.09048298 -0.041228984 0.085498005 0.010422677 0.025411237 0.032338455
0.117926344 0.01798135 -0.07486763 -0.07607901 -0.08816983 -0.08670486 -0.10721019 0.1056978
0.12987585 -0.09819749 0.11950481 0.0052611562 0.05619703 0.13042234 0.0932383 0.011737662
-0.012925196 0.104783535 0.035119213 0.044757467 -0.000694444 0.06266344 -0.0323009 -0.03278586
0.12121175 0.18550047 0.10544818 -0.044084918 0.03771265 0.12716322 0.08986087 -0.015891444
0.19671759 -0.0027663428 -0.09746187 0.1261965 0.09576834 0.09691039 0.15786354 -0.025580328
0.017493553 0.0361199 0.06264 0.19621044 0.122216925 0.25323153 0.14101395 0.19857146
0.07850115 0.105063066 -0.04459705 0.11388217 0.07510872 0.018385764 -0.032956228 0.05451419
-0.0052043307 0.042367343 0.10478322 0.25041693 -0.025177667 0.023996603 0.04902824 0.0199699
0.121511154 0.07081948 0.14286286 0.12712473 -0.09090736 0.16004723 0.18517041 0.1915128
00000000: 2639 143e e5ff b63d b9ec 8b3e c490 a4bd
00000010: 2633 94bc 0bb1 e93a e6fe 9b3d 19c1 ce3d
00000020: b60e ff3d fc08 a23c 9bd9 87bd cabe 4a3e
00000030: d217 79bd 0aa4 4a3c 2f46 9dbb 0bab f53d
00000040: 4629 273e d747 533e e2eb 663d 83dc 15bd
00000050: d350 a23d c846 583d c61a 903d ebfe eebc
00000060: 0085 673e 188c a93d 9905 97bd 8ff9 c3bd
00000070: ad05 223e 0a9d 833d c1cb da3d b25f ae3d
00000080: d76d 3b3e 6ac1 353b 2be0 8a3e ad5e 083e
00000090: 1bf0 ef3d c03c 233e a881 1b3e 2b0a 383e
000000a0: 9da1 bd3d 27f5 7bbd 8539 c63d 1526 35bd
000000b0: a750 c23d 13e3 d33d 115e 0a3e be52 4dbd
000000c0: c7bb 1e3e 36ea 053e a3f8 1f3d 949f 6a3e
000000d0: 4513 97bd 36e9 463d 2eaa a4bd a286 833d
000000e0: b517 15bc 770f 9a3d 01c7 a33e 2ce9 843d
000000f0: f627 40bd dff4 3fbc 4187 dc3d b484 153e
00000100: b6d2 083e 1f39 f23b da54 263e 0e8d a93d
00000110: 5591 f5bc 993c 7bbb 6d17 fa3c 86c2 cbbd
00000120: 8b4d cbbd 733d b4bc 718b 8abd 78d6 69bc
00000130: 3abd c13d b5a1 7bbd afb0 313d 6998 e13d
00000140: bf0d 043d 1392 123d f9a7 5b3d dc5b 3c3e
00000150: bede 0b3c 6d70 52bd 60cc 19be e59b 303e
00000160: 3f92 383d 2cea 453d 704f 0f3d 349b 933d
00000170: 4bcd d53d 79f3 a2bc 3780 323d 27d2 b43d
00000180: eebf 973d 23c6 313c 14fc 4bbc 4dec 21bd
00000190: c54e d33d bb77 9d3d 0fd2 7fbc 4e35 7cbc
000001a0: 468b 0c3e 9892 ec3d daaa a23d 75ef 86bd
000001b0: 422a 0c3e fe4f 8abd dee4 a23d 4043 7d3d
000001c0: 9169 6dbb 5f98 d63d c5b7 14bd e6ce 403d
000001d0: fad4 b43b 3090 ab3c 3893 1e3e 8882 053d
000001e0: 02c1 aabd 37ca 9bbc 98b7 9d3d ff01 a43d
000001f0: a609 93bd bda0 c1bd 1b9c 893d a440 15bc
00000200: 997d a8bd 39be f4bd 19b7 a23d c0c4 d03d
00000210: e2ee 383b 710c 023e 2ba2 d5bc b4a1 a6bd
00000220: ebdb 093e 496d 693d ebbb 1abe d883 313d
00000230: 3c67 c3bd f47b 0a3e ffe1 b3bd 3142 f83d
00000240: b15d 603d ccd5 693d 0694 a9bd 0c8c 67bb
00000250: ac42 543d 3ec1 ee3d 49df 3dbe 6c6f 4b3d
00000260: 9a6b ce3d 84e9 453d 9c5b 0cbd de0d 8fbd
00000270: b629 ea3d 63f3 4c3d 74ac 24bc 9e9d f8bd
00000280: 79b4 dabd 10b2 0c3e 86aa bb3d 1387 5fbc
00000290: b3f7 b5bd f6f6 583b 81e8 073d f4f2 0c3e
000002a0: 4b60 17be 27bd 213d 0830 043e d9cb cabd
000002b0: d718 da3c 0aaf d9bd f571 ce3d b002 033e
000002c0: fca8 133e 24be 33bd 244f b93d b9df 28bd
000002d0: 9419 af3d e0c3 2a3c 3a2b d03c 5475 043d
000002e0: 5e83 f13d a04d 933c 3354 99bd 50cf 9bbd
000002f0: 6292 b4bd 5192 b1bd 0491 dbbd 1778 d83d
00000300: 2dfe 043e c41b c9bd f0be f43d c765 ac3b
00000310: db2e 663d 6f8d 053e b9f3 be3d 534f 403c
00000320: 34c4 53bc c098 d63d 2ad9 0f3d 9b53 373d
00000330: 590b 36ba b155 803d f34d 04bd 774a 06bd
00000340: de3d f83d d6f3 3d3e 37f5 d73d 6392 34bd
00000350: 9478 1a3d 1337 023e fa08 b83d c62e 82bc
00000360: 5670 493e 884b 35bb 179a c7bd a839 013e
00000370: 3122 c43d f478 c63d fba6 213e d68d d1bc
00000380: a44e 8f3c 76f2 133d 6649 803d 64eb 483e
00000390: de4c fa3d 90a7 813e f665 103e 5156 4b3e
000003a0: 36c5 a03d 4e2b d73d 65ab 36bd 0e3b e93d
000003b0: 9ad2 993d be9d 963c 1cfd 06bd 454a 5f3d
000003c0: 1789 aabb 6189 2d3d 9698 d63d a636 803e
000003d0: 6541 cebc 8694 c43c d6d1 483d ea97 a33c
000003e0: d7da f83d ce09 913d a44a 123e fc2c 023e
000003f0: a32d babd 6ce3 233e 509d 3d3e ee1b 443e

lstm.bias_hh_l0 f4 [256]
0.0022639204 -0.084512725 0.14111385 -0.014556207 0.06877847 -0.01955587 0.1882487 -0.0983017
0.085767254 0.014587183 0.12899426 -0.0038504908 0.031526767 0.074881956 0.034713503 0.07106834
0.04505416 0.19965827 0.0784036 -0.011506875 0.0148344925 0.02965597 -0.08814422 -0.040587645
0.20941474 0.10368996 0.0012964185 -0.08954975 0.20660177 -0.068095505 0.09198706 0.099224724
0.15810163 -0.058387205 0.23042864 0.15160991 0.12663665 0.23785096 -0.08300308 0.2401601
-0.015195537 0.050102424 -0.062244564 -0.05523136 0.13821952 0.15351819 0.03718683 0.10108684
0.0789418 -0.009316461 0.10078975 0.29564703 0.09655423 0.18641014 -0.0067676404 0.14063656
-0.028112223 0.14233445 0.117959045 0.040492054 -0.100577116 0.20453416 0.1743501 0.008172701
0.16822083 0.0010334088 0.2665693 -0.12102401 -0.027104735 0.05832398 0.02175087 -0.07520505
-0.011400094 0.0649273 0.03767132 0.014784897 0.12366316 -0.02360286 0.071509644 -0.06448559
0.0746385 -0.08810228 0.1266978 0.030981695 -0.054987613 -0.04772069 -0.09255122 0.14203586
0.01705637 -0.027276382 0.00087642344 0.19472858 0.01730157 0.080761805 -0.04710515 -0.07859829
0.124810465 0.11879366 0.16699556 0.07210618 -0.08196533 0.057999935 -0.07050142 0.018204771
-0.023597063 0.14386591 0.03029661 0.13965875 0.13792895 0.088722676 0.012730177 0.08408529
0.016572073 -0.065453015 0.026213791 0.20248249 0.08327323 -0.064802155 0.001853182 9.172101e-05
-0.06545094 0.05697331 0.09156881 0.16281983 0.099813156 0.088603094 0.08264649 -0.112061836
-0.039332885 0.029243998 0.03942593 0.08021886 0.14054257 0.08184609 -0.056308784 -0.13497208
0.10327993 -0.13607228 -0.035661936 0.13827707 -0.14874993 -0.017123755 -0.0058174273 0.17742978
-0.049679227 -0.070125595 0.09586812 -0.06537006 0.1343893 0.09183096 0.04059065 0.020084754
-0.0664447 -0.15409173 -0.046735257 0.023853568 0.10038848 -0.09941495 -0.1256618 -0.042147808
0.003395929 0.120304585 -0.10634689 0.13951725 -0.043790706 0.14825661 0.025423476 0.003959086
-0.14355493 0.14070456 -0.04745483 -0.02595127 -0.07437641 0.010739092 0.07047953 -0.08430978
0.15165141 -0.121942036 0.0004295593 -0.0008943087 -0.008621093 -0.08287022 0.04601679 0.123314194
0.080099165 0.1421368 0.011444399 -0.066892445 0.041413687 -0.036178906 -0.08764033 -0.04838849
0.020087678 -0.09818055 0.17743976 0.044212528 0.031527694 -0.07182677 0.15549074 0.13637039
0.120614454 0.13646004 0.09024201 0.19904663 0.013589582 -0.010166307 -0.03809384 -0.08323715
0.0072895074 0.08395341 0.05967865 -0.031011663 0.008776246 0.11999424 -0.0072130617 0.072016776
-0.00013375259 0.097479954 -0.120182745 0.13030994 0.04787447 0.07048572 0.17698091 0.16392425
-0.029236255 -0.05281545 0.1029515 0.3042137 0.09409824 0.098461755 -0.09253425 0.03425105
-0.08965347 0.024052508 -0.060113363 -0.10683216 0.025478695 0.158904 -0.009025805 0.021823822
0.01431631 0.093938716 -0.057072144 0.27017802 0.14671673 0.08440819 -0.0095649725 -0.034457162
0.0041378415 0.21262556 0.17321888 0.029475227 0.016345048 0.19218966 0.11123446 0.10313001
00000000: 485e 143b 0215 adbd 2680 103e 287d 6ebc
00000010: badb 8c3d a233 a0bc 44c4 403e 6752 c9bd
00000020: bea6 af3d 14ff 6e3c 1217 043e 8458 7cbb
00000030: 3622 013d b65b 993d bf2f 0e3d 478c 913d
00000040: b68a 383d 3873 4c3e 1192 a03d 5587 3cbc
00000050: 5f0c 733c 14f1 f23c f584 b4bd 3b3f 26bd
00000060: d170 563e 675b d43d 96ec a93a dc65 b7bd
00000070: 6a8f 533e a875 8bbd b663 bc3d 5536 cb3d
00000080: 65e5 213e 6c27 6fbd 7cf5 6b3e a13f 1b3e
00000090: 0aad 013e 348f 733e 85fd a9bd 87ec 753e
000000a0: b4f6 78bc 3338 4d3d 28f4 7ebd 473a 62bd
000000b0: 6b89 0d3e df33 1d3e 3851 183d 9e06 cf3d
000000c0: 3dac a13d 12a4 18bc db6a ce3d 0c5f 973e
000000d0: 39be c53d 4de2 3e3e 15c3 ddbb 0803 103e
000000e0: 9b4b e6bc 1fc0 113e 8394 f13d ffda 253d
000000f0: 60fb cdbd 6771 513e d588 323e cbe6 053c
00000100: 1542 2c3e 7273 873a c57b 883e 70db f7bd
00000110: c00a debc 20e5 6e3d e12e b23c 1b05 9abd
00000120: 76c7 3abc 9bf8 843d 3e4d 1a3d 5a3c 723c
00000130: 1c43 fd3d c95a c1bc a673 923d 0511 84bd
00000140: 12dc 983d f86e b4bd 11bd 013e 53cd fd3c
00000150: b13a 61bd c576 43bd 7e8b bdbd d971 113e
00000160: cdb9 8b3c b872 dfbc c8bf 653a ee66 473e
00000170: 06bc 8d3c 7266 a53d 54f1 40bd 24f8 a0bd
00000180: a19c ff3d 174a f33d e200 2b3e 68ac 933d
00000190: 70dd a7bd 5791 6d3d 0c63 90bd 2c22 953c
000001a0: a14e c1bc 9651 133e 9930 f83c b402 0f3e
000001b0: 3f3d 0d3e 3cb4 b53d 3b92 503c e934 ac3d
000001c0: 28c2 873c 3b0c 86bd 4ebe d63c 9257 4f3e
000001d0: 288b aa3d feb6 84bd 78e6 f23a 585a c038
000001e0: 240b 86bd d85c 693d 6e88 bb3d 3eba 263e
000001f0: d76a cc3d 8a75 b53d 9042 a93d ad80 e5bd
00000200: 851b 21bd 1c91 ef3c 157d 213d c949 a43d
00000210: 64ea 0f3e ec9e a73d 0aa4 66bd 1f36 0abe
00000220: 6e84 d33d 8856 0bbe 4012 12bd 8198 0d3e
00000230: e751 18be 1e47 8cbc 1ea0 bebb 27b0 353e
00000240: 727c 4bbd 029e 8fbd 8156 c43d bde0 85bd
00000250: 599d 093e df11 bc3d 6242 263d c888 a43c
00000260: 2914 88bd 39ca 1dbe 786d 3fbd 8f68 c33c
00000270: 7a98 cd3d 119a cbbd 7dad 00be 2ea3 2cbd
00000280: 3c8e 5e3b 4062 f63d 66cc d9bd 9cdd 0e3e
00000290: e25d 33bd 95d0 173e e544 d03c 38bb 813b
000002a0: 1000 13be db14 103e ff5f 42bd c297 d4bc
000002b0: a952 98bd 04f3 2f3c 9257 903d 9baa acbd
000002c0: 824a 1b3e bfbc f9bd 7936 e139 0a70 6aba
000002d0: 7c3f 0dbc ddb7 a9bd 1a7c 3c3d 278c fc3d
000002e0: 080b a43d 4f8c 113e 4a81 3b3c e8fe 88bd
000002f0: 66a1 293d 5530 14bd c67c b3bd 0233 46bd
00000300: ea8e a43c e212 c9bd c5b2 353e 3218 353d
00000310: 2f23 013d ea19 93bd f738 1f3e aea4 0b3e
00000320: b604 f73d 2ebc 0b3e ced0 b83d e1d2 4b3e
00000330: d7a6 5e3c 9590 26bc 4908 1cbd 3d78 aabd
00000340: d2dc ee3b c4ef ab3d 9a71 743d 2c0c febc
00000350: 3eca 0f3c 8abf f53d 8c5b ecbb 887d 933d
00000360: f03f 0cb9 92a3 c73d 5f22 f6bd f86f 053e
00000370: 0518 443d d15a 903d 7c3a 353e c2db 273e
00000380: df80 efbc 0355 58bd 3cd8 d23d e6c1 9b3e
00000390: 94b6 c03d 51a6 c93d 9982 bdbd d44a 0c3d
000003a0: 3d9c b7bd c409 c53c 6e39 76bd d2ca dabd
000003b0: b2b8 d03c bbb7 223e f8e0 13bc dfc7 b23c
000003c0: f58e 6a3c f162 c03d 7bc4 69bd c654 8a3e
000003d0: e93c 163e 33de ac3d 67b6 1cbc f422 0dbd
000003e0: bb96 873b 84ba 593e 4a60 313e 0876 f13c
000003f0: 0de6 853c 5ecd 443e e4ce e33d d435 d33d

lstm.weight_ih_l0_reverse f4 [256, 7]
0.011594905 0.078477964 -0.0076943403 0.120496325 -0.10337585 0.09557379 0.19478476 -0.039892204
-0.10991696 0.073588036 -0.07439394 0.032390445 -0.06178122 0.08554936 0.09621199 0.07191538
0.06399192 0.17121582 0.060872562 -0.06606171 0.008814582 0.12587222 0.2359795 0.035163388
-0.020886015 -0.092490084 0.19069533 0.084333606 0.056936927 0.056108877 0.14037105 -0.3341207
0.0048431507 -0.05049525 0.07782307 0.023767786 0.0005502014 -0.0788198 0.1768506 0.10042923
0.20990415 0.03294924 -0.12271804 -0.16024056 0.14676246 -0.08062083 -0.051294733 -0.0127391135
-0.13891388 -0.13222446 0.15611309 0.051900793 -0.09787737 -0.03524823 0.05580001 0.051730268
0.05179254 0.1693868 -0.048025362 -0.18149239 -0.04142805 0.05846942 0.10922472 0.29572603
0.16502266 0.14105603 0.28550187 0.12898949 -0.006845769 -0.049613375 0.07086637 -0.20203441
0.26092505 -0.7356077 -0.5039718 0.0140528185 0.06685534 -0.1269465 0.03876534 0.07611111
-0.04021031 0.02805022 0.1353526 0.06085348 0.019767962 -0.12608676 0.09378278 -0.0534908
-0.13752788 -0.02720337 0.042616636 0.15919557 0.12632236 -0.15820125 -0.028187467 -0.39213786
0.004866619 -0.15921167 -0.031125687 -0.07022642 -0.026521416 -0.20867504 0.024275154 -0.07834562
0.2522445 0.059601527 0.08689678 0.074866004 -0.22728974 -0.31933358 -0.013848784 0.06329509
-0.05971944 -0.048989136 -0.091871075 -0.13637465 0.059928067 0.13432607 0.10134177 0.062633075
0.0055791894 -0.0055199736 -0.015765687 0.06900524 -0.10934223 -0.046612017 -0.11648655 -0.037119884
-0.01673632 0.03611094 0.029425826 -0.046274845 -0.022945128 -0.015678722 -0.30482033 -0.028291756
0.090689294 -0.14305934 -0.14184812 0.042237025 -0.023581456 -0.2033398 0.1639734 -0.23898698
-0.030448576 -0.28103834 0.23682618 -0.011305614 0.09700045 -0.0013667913 -0.036713794 -0.07414089
-0.041838445 0.32261658 0.31565985 0.26643124 0.042066332 0.17590107 0.10062027 -0.009771232
-0.070389226 0.1602115 0.11670117 0.13998777 -0.05562264 0.09767503 -0.064709075 0.015880857
0.030865924 0.16807748 0.16189927 -0.07243019 0.10966298 -0.03213205 0.18704718 -0.10740565
0.019742003 -0.07680537 0.19433948 -0.1496628 -0.030103689 -0.040607866 -0.09886709 0.0026913672
0.020925764 0.03275274 -0.08996451 -0.061544333 -0.0094648115 -0.16933222 -0.14920089 0.022738935
0.0013385613 -0.07432855 -0.1499725 -0.117239505 -0.1149399 -0.004512334 0.13848343 -0.09146672
0.048997838 -0.08405699 0.0762745 0.19898315 0.08327806 -0.054205257 -0.03765796 0.075335
-0.00794191 0.20367451 0.007929822 0.20839466 0.13614823 0.0641747 0.06700721 0.2363925
0.17091295 0.13244608 -0.06524213 0.16642125 -0.19381276 -0.0056441864 -0.011028506 0.19359888
-0.050193753 -0.14701176 -0.01048703 0.04046439 0.092351355 -0.1425124 0.33289236 -0.06109389
-0.11691743 0.1187426 -0.035245992 0.08787747 -0.097641535 -0.030286476 0.05061555 0.19560744
-0.06461256 0.0024514797 0.02831577 0.016288284 0.3366825 0.10730398 -0.072185144 0.13227057
-0.24421489 0.091377355 -0.04281671 0.25891972 0.070166856 0.1109365 0.2456174 -0.1567765
00000000: 8ef8 3d3c 0eb9 a03d ce20 fcbb c7c6 f63d
00000010: b8b6 d3bd 31bc c33d a875 473e 0266 23bd
00000020: 251c e1bd 53b5 963d da5b 98bd d8ab 043d
00000030: 4e0e 7dbd 8134 af3d cb0a c53d 5f48 933d
00000040: 320e 833d 3353 2f3e 8255 793d 5d4b 87bd
00000050: 096b 103c a6e4 003e 9ca4 713e 7c07 103d
00000060: 2619 abbc 716b bdbd a345 433e 19b7 ac3d
00000070: b236 693d 6cd2 653d 6ebd 0f3e de11 abbe
00000080: 4bb3 9e3b 1bd4 4ebd b461 9f3d a9b4 c23c
00000090: 643b 103a 466c a1bd 5318 353e d7ad cd3d
000000a0: 1df1 563e c8f5 063d 9953 fbbd 1a16 24be
000000b0: e648 163e 891c a5bd 6d1a 52bd b7b7 50bc
000000c0: 713f 0ebe d965 07be 1cdc 1f3e ed95 543d
000000d0: ee73 c8bd 7360 10bd 8d8e 643d 1ee3 533d
000000e0: 6a24 543d bc73 2d3e 3eb6 44bd 24d9 39be
000000f0: 75b0 29bd a17d 6f3d 36b1 df3d 6769 973e
00000100: b3fb 283e fe70 103e 4d2d 923e d215 043e
00000110: 7952 e0bb 6537 4bbd 6322 913d 1ce2 4ebe
00000120: f897 853e c950 3cbf 4c04 01bf cb3d 663c
00000130: 74eb 883d 43fe 01be 68c8 1e3d 24e0 9b3d
00000140: 91b3 24bd 93c9 e53c df99 0a3e 8041 793d
00000150: 6cf0 a13c e31c 01be 3011 c03d 2b19 5bbd
00000160: 1cd4 0cbe 9ad9 debc c88e 2e3d 2a04 233e
00000170: a65a 013e 82ff 21be 67e9 e6bc 4bc6 c8be
00000180: 2978 9f3b 6208 23be 4cfb febc dfd2 8fbd
00000190: 7143 d9bc e9ae 55be b0dc c63c ab73 a0bd
000001a0: 3126 813e bb20 743d f0f6 b13d 5953 993d
000001b0: a4be 68be b17f a3be 03e6 62bc dba0 813d
000001c0: 5f9c 74bd d5a8 48bd e726 bcbd cca5 0bbe
000001d0: 2277 753d c68c 093e 468c cf3d c545 803d
000001e0: a2d1 b63b e5e0 b4bb 0b27 81bc 9f52 8d3d
000001f0: d2ee dfbd 3eec 3ebd 8090 eebd 050b 18bd
00000200: 9b1a 89bc 11e9 133d 6e0e f13c b18a 3dbd
00000210: 6cf7 bbbc aa70 80bc 6911 9cbe 1dc4 e7bc
00000220: 4fbb b93d 267e 12be a240 11be bb00 2d3d
00000230: e62d c1bc 4f38 50be a5e8 273e 01b9 74be
00000240: 4b6f f9bc 42e4 8fbe 9082 723e 2f3b 39bc
00000250: 2ca8 c63d e825 b3ba 3461 16bd 2ed7 97bd
00000260: ca5e 2bbd 002e a53e 2b9e a13e ad69 883e
00000270: bf4d 2c3d 691f 343e 0012 ce3d 8417 20bc
00000280: 3a28 90bd 7c0e 243e 0601 ef3d f458 0f3e
00000290: 91d4 63bd d909 c83d 3186 84bd 9218 823c
000002a0: 89da fc3c 811c 2c3e ecc8 253e 4856 94bd
000002b0: fc96 e03d e59c 03bd 4c89 3f3e 7ef7 dbbd
000002c0: fbb9 a13c 224c 9dbd ee00 473e 3441 19be
000002d0: 039c f6bc 6f54 26bd d47a cabd a661 303b
000002e0: 826c ab3c bd27 063d 503f b8bd e915 7cbd
000002f0: 4c12 1bbc 6d65 2dbe 1ec8 18be 0147 ba3c
00000300: aa72 af3a 9139 98bd 6492 19be 441b f0bd
00000310: 9c65 ebbd 33dc 93bb 9ace 0d3e e752 bbbd
00000320: f5b1 483d 1226 acbd ce35 9c3d 3dc2 4b3e
00000330: b08d aa3d 5506 5ebd 3c3f 1abd 3d49 9a3d
00000340: c91e 02bc 0d90 503e 16ec 013c 6965 553e
00000350: 716a 0b3e 066e 833d 133b 893d e010 723e
00000360: ce03 2f3e f29f 073e aa9d 85bd 556a 2a3e
00000370: da76 46be def2 b8bb e8b0 34bc c93e 463e
00000380: f797 4dbd 408a 16be cbd1 2bbc fdbd 253d
00000390: b522 bd3d c5ee 11be de70 aa3e 963d 7abd
000003a0: 6872 efbd 522f f33d 1a5e 10bd 1af9 b33d
000003b0: 49f8 c7bd 581b f8bc 4052 4f3d 514d 483e
000003c0: 9753 84bd 01a9 203b 79f6 e73c 026f 853c
000003d0: a661 ac3e 30c2 db3d ced5 93bd f071 073e
000003e0: 7813 7abe 0d24 bb3d 9360 2fbd 2091 843e
000003f0: a4b3 8f3d ad32 e33d 2183 7b3e 058a 20be

lstm.weight_hh_l0_reverse f4 [256, 64]
-0.089973144 -0.081260085 -0.07110117 -0.10805051 -0.05100737 -0.040538684 0.015111364 0.02948179
0.0059680943 0.027412368 -0.046940427 -0.054377172 -0.111616075 0.17509739 0.04939141 -0.16672452
-0.093685195 -0.06503188 -0.15245901 -0.11401453 -0.0724956 0.04583666 0.016817847 0.00038754777
0.0013512712 -0.078707434 0.022716222 0.05994876 0.13998981 -0.08340641 -0.1275352 -0.016979257
0.07236594 -0.008440503 -0.108634815 -0.11159802 -0.09246424 -0.0035779905 -0.03154832 -0.012626269
-0.040182117 -0.04783102 0.0040849736 -0.11063794 0.035961084 0.14649396 -0.08368944 -0.009974189
0.09999457 0.07165719 0.10500115 0.02098207 0.033812772 -0.029741542 0.050242465 -0.06985875
0.055027626 -0.15796088 0.019705374 -0.009965831 -0.012912166 -0.08464097 -0.021530595 0.039007194
0.14067055 0.000825605 0.027136022 -0.07004624 0.12979034 0.006374183 -0.028214209 0.086653925
0.06872615 0.080620006 -0.05518893 0.0031765685 0.074054055 0.0041540633 0.15588717 -0.058748204
0.13666035 0.14033072 0.05963014 0.172817 0.15376216 0.016479835 0.05722039 -0.099919505
-0.033022467 -0.037329197 0.064692385 0.058962863 -0.07876906 0.1533881 -0.10453041 0.0009711332
-0.031635534 -0.008223371 -0.04890127 -0.035073645 -0.086183794 -0.0101893125 0.11621042 0.10004559
-0.042108342 0.1410509 -0.10007693 0.04604204 -0.108182415 0.15333486 -0.033134744 -0.18777426
0.030254547 -0.14073165 -0.12757337 0.08151064 0.095530644 -0.13499938 0.13713673 0.099717684
-0.025038725 0.1415871 -0.020241058 0.063862965 0.1492826 -0.09018567 -0.019809093 -0.114791535
0.10867373 -0.030649573 0.02926112 0.04793524 0.032870192 0.07714373 -0.081263535 -0.08468932
0.112706505 -0.039917484 -0.030930528 0.066975914 0.02753259 0.03521107 0.021200888 0.08592101
0.105066046 0.09252836 -0.09773116 -0.12864478 -0.08006105 0.14342932 -0.037521202 -0.06761319
-0.009896397 -0.062199824 0.031401847 0.07823281 0.081948444 0.025693897 -0.046776634 -0.1122032
0.048954174 -0.05854813 0.073758036 -0.12226657 -0.16518362 0.119944826 0.06937202 0.0016884768
0.06784954 0.038925655 -0.04943724 -0.06529522 -0.0037533285 -0.0042396258 0.035660792 -0.04704632
0.0006381005 0.038892902 -0.08166216 -0.010748949 -0.057810046 -0.060230583 -0.06112202 -0.007595668
-0.009285764 0.04355304 0.13389683 0.081179924 -0.0344993 -0.02035754 -0.119652845 -0.0015556407
0.08837451 -0.095440924 0.1444151 -0.12129834 0.06252331 0.055060506 -0.13283242 0.014726711
0.060874723 0.02594828 -0.20522416 -0.038093857 -0.079563074 0.05456067 0.026149735 -0.13651296
-0.1711828 -0.057010707 -0.0735333 0.007154106 -0.090485364 -0.07319411 -0.09284358 0.053873446
0.054365158 0.013828205 -0.16864718 0.051645618 -0.040062185 0.006586891 0.025845386 0.036923002
-0.10336912 -0.09215701 -0.013239443 -0.12603985 -0.10414591 0.07464861 -0.045273896 0.2074344
0.10370231 -0.003324025 -0.078190684 0.02775175 0.0031719657 0.007963108 -0.1571174 0.066828206
0.018727386 0.016485555 0.03894128 0.16021961 -0.008833493 0.08106533 0.15333931 0.14261934
-0.01924954 -0.09053165 -0.053786866 0.08676661 -0.007823035 -0.25052398 -0.109021276 0.11210815
00000000: d743 b8bd b06b a6bd 7d9d 91bd 9649 ddbd
00000010: 1bed 50bd e40b 26bd a895 773c cb83 f13c
00000020: 0190 c33b e78f e03c 9b44 40bd 99ba 5ebd
00000030: f896 e4bd bb4c 333e a64e 4a3d d5b9 2abe
00000040: 06de bfbd 6f2f 85bd 371e 1cbe 7380 e9bd
00000050: 9378 94bd 39bf 3b3d 95c5 893c c82f cb39
00000060: 231d b13a 5d31 a1bd 5f17 ba3c d58c 753d
00000070: 7d59 0f3e fbd0 aabd 9698 02be 1518 8bbc
00000080: 9834 943d 094a 0abc ee7b debd 818d e4bd
00000090: e45d bdbd b87c 6abb d038 01bd 69de 4ebc
000000a0: 0196 24bd 76ea 43bd 3edb 853b 2596 e2bd
000000b0: ee4b 133d 8302 163e 5e65 abbd c86a 23bc
000000c0: f4c9 cc3d 01c1 923d d80a d73d 97e2 ab3c
000000d0: 437f 0a3d 89a4 f3bc 0bcb 4d3d 1b12 8fbd
000000e0: a664 613d 7fc0 21be 2a6d a13c ba47 23bc
000000f0: 8d8d 53bc 3f58 adbd ee60 b0bc 02c6 1f3d
00000100: f10b 103e 6a6d 583a 5d4c de3c 6774 8fbd
00000110: c2e7 043e 86de d03b 7c21 e7bc 9d77 b13d
00000120: 4cc0 8c3d 1a1c a53d ca0d 62bd fa2d 503b
00000130: a7a9 973d cf1e 883b e3a0 1f3e f5a1 70bd
00000140: b1f0 0b3e dbb2 0f3e bc3e 743d f1f6 303e
00000150: d473 1d3e b800 873c ed5f 6a3d 99a2 ccbd
00000160: 9142 07bd 80e6 18bd 717d 843d 0b83 713d
00000170: ac51 a1bd c511 1d3e 0a14 d6bd a593 7e3a
00000180: 4394 01bd 51bb 06bc b34c 48bd 62a9 0fbd
00000190: 2181 b0bd 13f1 26bc bbff ed3d b4e4 cc3d
000001a0: cc79 2cbd a66f 103e 22f5 ccbd 9496 3c3d
000001b0: be8e ddbd d003 1d3e 4cb8 07bd e547 40be
000001c0: 62d8 f73c f51b 10be 98a2 02be 0def a63d
000001d0: 92a5 c33d 473d 0abe 926d 0c3e c938 cc3d
000001e0: 031e cdbc 35fc 103e 93d0 a5bc 96ca 823d
000001f0: 8add 183e 44b3 b8bd ae46 a2bc d317 ebbd
00000200: 5590 de3d d014 fbbc 04b5 ef3c be57 443d
00000210: e5a2 063d 88fd 9d3d 7f6d a6bd 9871 adbd
00000220: abd2 e63d 8480 23bd 0562 fdbc ab2a 893d
00000230: 078c e13c 7c39 103d 7cad ad3c 5bf7 af3d
00000240: de2c d73d 827f bd3d 4627 c8bd 75bb 03be
00000250: 0cf7 a3bd 23df 123e d5af 19bd c978 8abd
00000260: 7f24 22bc 3ec5 7ebd 399f 003d 8638 a03d
00000270: 96d4 a73d 027c d23c db98 3fbd cbca e5bd
00000280: 2c84 483d 2ad0 6fbd 740e 973d e566 fabd
00000290: e525 29be a2a5 f53d eb12 8e3d e14f dd3a
000002a0: b3f4 8a3d 8270 1f3d b47e 4abd 80b9 85bd
000002b0: 67fa 75bb 8fec 8abb 0d11 123d a4b3 40bd
000002c0: 3346 273a 2a4e 1f3d 7e3e a7bd 5c1c 30bc
000002d0: 3aca 6cbd 58b4 76bd 155b 7abd 15e5 f8bb
000002e0: 5123 18bc ac64 323d 401c 093e a941 a63d
000002f0: 234f 0dbd dbc4 a6bc 8d0c f5bd a4e6 cbba
00000300: b2fd b43d 8876 c3bd 8de1 133e 446b f8bd
00000310: 390c 803d 2087 613d 3905 08be 4e48 713c
00000320: c657 793d 7d91 d43c 4826 52be 4e08 1cbd
00000330: f7f1 a2bd 027b 5f3d f837 d63c 0eca 0bbe
00000340: 8b4a 2fbe 0f84 69bd a098 96bd fe6c ea3b
00000350: 6450 b9bd cbe6 95bd c624 bebd 67aa 5c3d
00000360: 00ae 5e3d b28f 623c d9b1 2cbe 5b8a 533d
00000370: 3f18 24bd d9d6 d73b b4b9 d33c 933c 173d
00000380: 30b3 d3bd d1bc bcbd 40ea 58bc 9710 01be
00000390: 734a d5bd 5fe1 983d 1f71 39bd af69 543e
000003a0: e061 d43d e3d7 59bb 7022 a0bd a357 e33c
000003b0: c1e0 4f3b b277 023c 62e3 20be 3add 883d
000003c0: 2d6a 993c b70c 873c e480 1f3d 9c10 243e
000003d0: 5bba 10bc 9405 a63d fb04 1d3e ce0a 123e
000003e0: 36b1 9dbc a868 b9bd 9e4f 5cbd b1b2 b13d
000003f0: 302c 00bc ae44 80be 8c46 dfbd f598 e53d

lstm.bias_ih_l0_reverse f4 [256]
-0.039291207 0.13014154 0.021460908 -0.07513743 0.1970748 -0.0056642634 0.0166932 0.071021974
0.08749353 0.09213935 0.30728808 -0.0010194493 0.074321754 0.1191978 0.053849086 -0.07157749
0.031801686 0.1485312 0.090086035 0.018461471 0.18402268 0.053395562 0.071946494 -0.0070560626
0.017833712 -0.0912898 -0.056664906 0.06283266 0.016376602 0.03678553 0.0002653151 0.004155971
-0.05634647 -0.03428016 -0.01607405 0.014595327 0.031823903 -0.057074115 0.12128182 -0.07242462
-0.020680306 0.0036701825 0.14144164 -0.09052376 -0.0875374 0.13439046 -0.02140643 0.049929585
0.026369475 0.07152329 0.19548336 -0.0009931182 0.16701055 -0.05668235 0.017600346 0.052580804
-0.0017381882 0.099151485 -0.014156036 -0.056125097 0.08696515 0.005946763 -0.059172403 -0.0658968
-0.08552257 0.020024756 0.0069882767 -0.006616437 -0.04135513 -0.010816504 0.0030964278 -0.068219095
0.03518345 0.02856393 0.213348 0.10262399 -0.036638748 0.21205257 -0.09579019 0.17049435
-0.00025765097 -0.032932684 -0.09676909 0.0031711534 -0.086757034 -0.03380602 0.19148561 -0.07872278
-0.070712 -0.03244177 -0.04426652 0.07918103 0.05369979 0.03992944 0.04852593 0.024080005
0.011281289 -0.066804685 0.12929739 0.0044452 0.063117184 0.08842111 0.07673614 -0.030610478
0.013911141 -0.06420273 -0.100533165 0.085816026 -0.040874805 0.11579252 0.029383393 0.0862038
0.012289595 0.042659417 0.26486892 -0.040125914 -0.11488778 0.16113308 0.013601688 0.1325217
-0.08167395 -0.034853417 -0.049097456 0.11356083 -0.07054781 0.11044693 0.14517963 -0.02864187
0.07182196 -0.17580503 -0.12729073 -0.047325097 -0.013065406 -0.0061763255 0.050117124 -0.06930439
0.06256772 0.00871087 -0.06495254 0.116350695 0.14668675 0.017894838 0.118618004 0.08385851
0.16299608 0.024048228 0.12482847 0.0042454577 0.10942778 0.13517995 -0.09727296 -0.081741914
0.009166142 0.06717563 0.07971383 -0.1329285 -0.11687474 -0.02243703 -0.09189889 -0.12756978
-0.147345 0.0210992 0.14753811 0.03643445 -0.101537324 0.11939988 0.14293274 -0.16063453
0.02776277 0.03513777 -0.014424785 -0.09152058 -0.04355871 -0.009183973 0.01876375 -0.06141687
-0.16638742 -0.12696196 0.016527902 -0.059995443 0.05674787 -0.13756916 0.075076506 0.077540144
0.005213417 0.13330996 -0.00093182066 0.10344738 0.037055098 0.015227844 -0.12722738 -0.1571023
-0.080376714 0.11790613 0.013946193 -0.07209808 0.08589193 -0.047691487 -0.081384845 -0.094512776
-0.07112392 -0.11346701 0.16815907 -0.06807021 0.023497673 0.19014186 0.086052254 0.1950444
0.07921385 0.03787813 0.053883143 0.056560297 0.050586715 0.08552078 0.14091417 0.06759233
-0.02117766 0.114674464 -0.06688551 0.013011107 -0.06591563 -0.12944603 0.15765949 -0.087863036
-0.07353867 0.036445264 -0.08901885 0.15559825 0.056893397 -0.04043468 0.0109397145 0.020211294
-0.06251317 -0.08239285 -0.025974749 -0.03495222 -0.09084293 0.024754073 -0.08789535 0.15018477
-0.066758655 -0.031958036 -0.0024074635 0.12292027 -0.09984489 0.0011568539 0.19493051 0.043316826
-0.00037415096 0.16134937 0.013558938 -0.025245344 0.081940085 0.015155231 0.038539056 0.023849394
00000000: d1ef 20bd d343 053e c9ce af3c a7e1 99bd
00000010: facd 493e 499b b9bb 2ec0 883c f873 913d
00000020: cf2f b33d 8eb3 bc3d dd54 9d3e 0b9f 85ba
00000030: 0136 983d fa1d f43d dc90 5c3d 3897 92bd
00000040: 7c42 023d 9018 183e 077f b83d 833c 973c
00000050: 7170 3c3e 4eb5 5a3d af58 933d 8b36 e7bb
00000060: 0118 923c 26f6 babd 7619 68bd 69ae 803d
00000070: 3928 863c 6dac 163d fd19 8b39 d02e 883b
00000080: 8ecb 66bd 5a69 0cbd baad 83bc 3d21 6f3c
00000090: c859 023d 8cc6 69bd 9a62 f83d 5c53 94bd
000000a0: bf69 a9bc 7287 703b 14d6 103e 8564 b9bd
000000b0: cf46 b3bd a79d 093e 8a5c afbc f782 4c3d
000000c0: cc04 d83c cd7a 923d ca2c 483e 842b 82ba
000000d0: d004 2b3e c02b 68bd 9a2e 903c f85e 573d
000000e0: ebd3 e3ba ef0f cb3d b8ee 67bc 6ee3 65bd
000000f0: c91a b23d 10dd c23b c35e 72bd e7f4 86bd
00000100: 7526 afbd f50a a43c eafd e43b b2ce d8bb
00000110: ff63 29bd b537 31bc 70ed 4a3b 74b6 8bbd
00000120: 851c 103d e7fe e93c e677 5a3e 872c d23d
00000130: 8312 16bd 4f24 593e a62d c4bd 1296 2e3e
00000140: 5415 87b9 6ce4 06bd df2e c6bd 20d3 4f3b
00000150: acad b1bd 2e78 0abd ce14 443e 6939 a1bd
00000160: 74d1 90bd a9e1 04bd cf50 35bd aa29 a23d
00000170: 50f4 5b3d 0d8d 233d 20c3 463d 6e43 c53c
00000180: 28d5 383c e5d0 88bd 8966 043e 0aa9 913b
00000190: 9543 813d 2016 b53d d627 9d3d d3c2 fabc
000001a0: 8eeb 633c b97c 83bd 55e4 cdbd 50c0 af3d
000001b0: 576c 27bd a124 ed3d 71b5 f03c 9e8b b03d
000001c0: 4c5a 493c a4bb 2e3d e69c 873e 125b 24bd
000001d0: 494a ebbd 1200 253e 9dd9 5e3c c5b3 073e
000001e0: ac44 a7bd 75c2 0ebd 6a1a 49bd 9592 e83d
000001f0: 5f7b 90bd 0032 e23d f8a9 143e 5ba2 eabc
00000200: 6417 933d 3c06 34be 8058 02be f6d7 41bd
00000210: 4910 56bc c662 cabb 9d47 4d3d 76ef 8dbd
00000220: 8123 803d 09b8 0e3c d605 85bd 4649 ee3d
00000230: 0d35 163e 3298 923c ffed f23d 03be ab3d
00000240: 72e8 263e ca00 c53c 12a6 ff3d 7b1d 8b3b
00000250: ac1b e03d 9d6c 0a3e 0c37 c7bd 4e68 a7bd
00000260: 962d 163c 6093 893d 0141 a33d 691e 08be
00000270: 065c efbd ddcd b7bc 7c35 bcbd a7a1 02be
00000280: 9ce1 16be 3bd8 ac3c 3b14 173e 4a3c 153d
00000290: cdf2 cfbd ed87 f43d f65c 123e 617d 24be
000002a0: c06e e33c 9fec 0f3d ef55 6cbc 246f bbbd
000002b0: 9e6a 32bd 6078 16bc 70b6 993c 4290 7bbd
000002c0: 7761 2abe 5102 02be 8665 873c c8bd 75bd
000002d0: 7470 683d eede 0cbe b6c1 993d 5ecd 9e3d
000002e0: 50d5 aa3b 6882 083e 6d45 74ba 38dc d33d
000002f0: 16c7 173d 357e 793c e547 02be 6ddf 20be
00000300: 8c9c a4bd c578 f13d 937e 643c 28a8 93bd
00000310: 1ce8 af3d 2658 43bd 19ad a6bd ea8f c1bd
00000320: 6ba9 91bd 6461 e8bd e431 2c3e 6568 8bbd
00000330: 317e c03c 8cb4 423e 2a3c b03d b8b9 473e
00000340: df3a a23d 1926 1b3d 92b4 5c3d c5ab 673d
00000350: 0434 4f3d 8525 af3d ce4b 103e d96d 8a3d
00000360: c67c adbc 72da ea3d 45fb 88bd 8a2c 553c
00000370: c6fe 86bd 808d 04be 7d71 213e 89f1 b3bd
00000380: 719b 96bd a147 153d 844f b6bd 2655 1f3e
00000390: 0d09 693d d69e 25bd 7d3c 333c 2892 a53c
000003a0: e806 80bd 95bd a8bd ffc8 d4bc 0f2a 0fbd
000003b0: dc0b babd 0ec9 ca3c 7a02 b4bd 09ca 193e
000003c0: c3b8 88bd 6ee6 02bd 89c6 1dbb 9fbd fb3d
000003d0: 7a7b ccbd 93a1 973a dd9b 473e fc6c 313d
000003e0: b129 c4b9 c538 253e 4f26 5e3c 53cf cebc
000003f0: 34d0 a73d a54d 783c 21db 1d3d ce5f c33c

lstm.bias_hh_l0_reverse f4 [256]
0.017260177 0.13395931 -0.07985822 0.0064579654 0.16146012 0.08637146 -0.06285599 -0.0011492984
-0.0046032546 -0.04287458 0.17637587 -0.038206518 -0.027042763 -0.011623923 -0.0778004 0.100296274
0.11027439 0.15353067 -0.001441787 -0.052754555 0.087257296 0.043751847 0.12566787 -0.031379342
0.13249782 0.054992996 0.15329161 0.18053772 -0.098510094 -0.00875955 0.16574867 -0.09696925
0.1529527 0.16008079 0.121688515 0.06756841 0.10728976 0.05734209 -0.008352057 0.015749168
0.11561459 0.108690955 0.11872814 0.035153277 0.14453489 0.015866281 0.074020065 0.0145960525
-0.08227973 0.050865676 0.138199 0.0837713 0.060073365 0.04171984 0.045467697 0.021400433
-0.0343816 0.05094937 0.011335068 -0.07889068 -0.089589134 -0.07621034 0.066765815 0.052274115
-0.08580427 0.10029322 0.09204682 0.11023342 0.12482837 0.010791008 -6.2354775e-05 -0.083744794
-0.008804304 -0.021734443 0.03468644 -0.06393612 0.02163892 0.020538038 0.10252192 0.16600558
0.063021526 0.03666309 0.072989516 0.06515044 -0.124035686 0.08232414 0.13648988 -0.111882344
0.16009733 0.0804581 0.040226795 0.052053154 -0.0051065846 -0.051481728 0.11377727 0.027604878
0.062169336 0.08555153 0.15032926 -0.009777411 -0.02784877 0.14951508 0.14192 0.016127106
0.08698984 -0.04591812 -0.0012949677 0.047872853 -0.031033665 -0.12790571 -0.04916703 -0.03101954
-0.0039054037 -0.103959925 0.0887692 -0.06584697 0.0172304 0.013148006 0.09134361 -0.005813822
0.13100824 0.16228849 -0.051592354 0.15479645 -0.049637914 0.0001480098 0.15072559 -0.072464556
0.14347577 0.072765544 -0.055740632 -0.09736453 0.08063963 0.16021796 0.053704944 -0.07775801
0.13565423 -0.10006075 0.078364216 0.04502143 0.025052339 -0.02577734 0.042735383 0.03349433
0.080484316 0.15374735 0.0038431103 0.15233293 0.08227598 0.16045803 -0.024037521 -0.029351205
0.102634154 0.16927297 0.12371255 -0.11475447 -0.032137733 0.12140838 -0.08118213 -0.084366225
-0.03681593 0.074609615 0.1493394 -0.16438024 -0.095401645 0.12485889 0.00098151 -0.036495388
0.11608488 0.14151771 -0.09021926 -0.01221338 -0.13646264 0.11722787 0.08380402 -0.06554111
-0.11715346 0.021379458 -0.10553354 -0.15121664 0.030497998 -0.17846528 0.050122414 0.09095249
-0.1498903 0.16091362 0.06725388 0.05416028 0.070049606 0.1248563 -0.11193748 -0.10280791
0.11357848 0.071769305 0.049482062 0.05006452 0.09553253 0.08674147 0.10092188 0.12263338
0.11051114 0.019842563 0.31072265 0.008147175 0.04836524 0.20472138 0.06893402 0.1502778
0.06439683 0.070547424 0.033803556 0.1262823 -0.02422851 -0.01734613 0.16951056 -0.09998191
0.09023567 0.034866903 0.042530693 -0.05242955 -0.00016508621 0.051224075 0.040544342 -0.07860828
-0.038999893 -0.0075001637 0.13834055 0.05052233 -0.073872864 -0.07484155 0.03826135 0.0068735373
-0.03866758 -0.015034299 0.09308315 -0.051432844 0.1328688 -0.06437494 0.09000919 0.074192695
0.15345931 0.07962794 0.07490529 0.011605045 -0.06379586 -0.022313096 0.055216495 0.13129765
-0.019719096 0.001829085 -0.06671436 0.10735688 0.035075817 0.05098582 0.06532593 0.09612997
00000000: 3765 8d3c a12c 093e b58c a3bd 579d d33b
00000010: cd55 253e 85e3 b03d a4ba 80bd 0ea4 96ba
00000020: e6d6 96bb 419d 2fbd e09b 343e 707e 1cbd
00000030: c988 ddbc 4472 3ebc d155 9fbd 2268 cd3d
00000040: 8ad7 e13d 2537 1d3e 58fa bcba 2915 58bd
00000050: f4b3 b23d 2335 333d 14af 003e a087 00bd
00000060: 82ad 073e 5640 613d 7af8 1c3e e1de 383e
00000070: a9bf c9bd 3784 0fbc 05ba 293e d097 c6bd
00000080: a29f 1c3e 38ec 233e d437 f93d 4e61 8a3d
00000090: bcba db3d 8adf 6a3d 11d7 08bc 6604 813c
000000a0: 58c7 ec3d 5d99 de3d bd27 f33d e2fc 0f3d
000000b0: f400 143e 01fa 813c d597 973d 4824 6f3c
000000c0: 4682 a8bd 8758 503d 0a84 0d3e 4a90 ab3d
000000d0: 7d0f 763d 6ce2 2a3d 563c 3a3d f64f af3c
000000e0: b8d3 0cbd 49b0 503d b9b6 393c 7091 a1bd
000000f0: 827a b7bd 2b14 9cbd 84bc 883d 621d 563d
00000100: 26ba afbd 8866 cd3d 0b83 bc3d 0fc2 e13d
00000110: 04a6 ff3d c5cc 303c 77c4 82b8 6482 abbd
00000120: ed3f 10bc 6e0c b2bc 5e13 0e3d f1f0 82bd
00000130: 1b44 b13c 633f a83c 03f7 d13d 5efd 293e
00000140: 6e11 813d 092c 163d 877b 953d 986d 853d
00000150: 6c06 febd 8f99 a83d 01c4 0b3e 9222 e5bd
00000160: 8ef0 233e 37c7 a43d dac4 243d b035 553d
00000170: 2355 a7bb 81de 52bd 0f04 e93d a023 e23c
00000180: 46a5 7e3d a435 af3d eaef 193e 6f31 20bc
00000190: 1b23 e4bc 7b1a 193e 7a53 113e fe1c 843c
000001a0: bb27 b23d a314 3cbd e8bb a9ba 5316 443d
000001b0: 503a febc b7f9 02be 5e63 49bd b11c febc
000001c0: cdf1 7fbb f1e8 d4bd a0cc b53d c7da 86bd
000001d0: c526 8d3c bc6a 573c 5c12 bb3d e081 bebb
000001e0: 0627 063e f42e 263e 8152 53bd f682 1e3e
000001f0: 2051 4bbd 1433 1b39 cf57 1a3e 4c68 94bd
00000200: 50eb 123e 1a06 953d 4a50 64bd 0e67 c7bd
00000210: 6426 a53d 2d10 243e b7f9 5b3d 973f 9fbd
00000220: f1e8 0a3e a7ec ccbd 6b7d a03d 6468 383d
00000230: 903a cd3c 002b d3bc 4c0b 2f3d 5a31 093d
00000240: f6d4 a43d f26f 1d3e b1dc 7b3b 2afd 1b3e
00000250: 4f80 a83d 1c4f 243e 56ea c4bc f071 f0bc
00000260: db31 d23d e555 2d3e 015d fd3d 6404 ebbd
00000270: dba2 03bd f5a4 f83d d142 a6bd 33c8 acbd
00000280: 4dcc 16bd edcc 983d 6dec 183e 4b53 28be
00000290: f061 c3bd 05b6 ff3d 03a6 803a 307c 15bd
000002a0: e9bd ed3d 05ea 103e e0c4 b8bd a11a 48bc
000002b0: ddbc 0bbe 2a15 f03d 71a1 ab3d 6b3a 86bd
000002c0: 27ee efbd f923 af3c f821 d8bd 89d8 1abe
000002d0: f0d6 f93c 9abf 36be 294d 4d3d 4d45 ba3d
000002e0: d87c 19be 8ac6 243e 67bc 893d 2bd7 5d3d
000002f0: 2b76 8f3d a9b4 ff3d 7a3f e5bd f48c d2bd
00000300: d69b e83d c9fb 923d b4ad 4a3d 7410 4d3d
00000310: 8fa6 c33d 83a5 b13d 21b0 ce3d 3627 fb3d
00000320: aa53 e23d df8c a23c 0a17 9f3e bb7b 053c
00000330: a11a 463d 7ba2 513e 482d 8d3d 6ce2 193e
00000340: 7ce2 833d 2b7b 903d 9975 0a3d 2650 013e
00000350: de7a c6bc 7919 8ebc 2d94 2d3e 51c3 ccbd
00000360: 7bcd b83d 99d0 0e3d aa34 2e3d 5ec0 56bd
00000370: fe1a 2db9 56d0 513d d311 263d 61fd a0bd
00000380: 5abe 1fbd efc3 f5bb 25a9 0d3e 81f0 4e3d
00000390: a84a 97bd 8746 99bd efb7 1c3d 693b e13b
000003a0: e561 1ebd 6c52 76bc 61a2 be3d 3fab 52bd
000003b0: c20e 083e 02d7 83bd bd56 b83d 57f2 973d
000003c0: 7024 1d3e f913 a33d f267 993d 1623 3e3c
000003d0: 67a7 82bd f4c9 b6bc b12a 623d e472 063e
000003e0: f189 a1bc e9bd ef3a 8aa1 88bd eddd db3d
000003f0: a9ab 0f3d 82d6 503d 9ac9 853d cadf c43d
