saved_lstm_models_cv/inference_lstm_period_20pct_pca_False.pth (torch, 286182 bytes, 5 tensors)

lstm.weight_ih_l0 f4 [512, 7]
0.3191404 0.052520618 -0.3888427 0.011317774 0.3557217 -0.19951202 0.18431498 0.8532436
0.38765672 0.8726797 0.3630289 0.06558841 -0.49655575 0.3801289 -0.59034675 -0.24943154
0.53944826 0.61362237 -0.500431 0.62371695 0.039607175 -0.19102192 0.13554792 0.60893005
-0.016083164 -0.09934021 0.310962 0.16615893 0.34170806 0.51386297 0.20686439 0.010849808
0.26778805 -0.3466325 0.5428348 -0.2627449 -0.42615187 1.4333688 -0.21871409 -0.15323725
0.2653097 0.6527214 -0.08869515 0.32068455 -0.053749856 -0.2654265 0.12847668 -0.10966004
0.6314831 0.11978365 0.6250994 0.31173933 0.011703646 0.21725607 -0.26890394 0.3446711
0.1269941 0.2120797 0.3436036 -0.6165427 0.29857603 -0.2364319 0.33675832 0.33396468
0.46579838 -0.08407041 0.4014373 0.49523452 -0.31634656 -0.09223221 0.022402385 0.14575419
0.29972193 -0.0029050189 -0.6221649 0.049247842 0.0728253 0.06311273 0.084537156 -0.14712735
-0.13314272 -0.080519184 0.36424017 0.35331532 0.011349137 0.09941075 0.41578454 0.050641004
0.03615478 0.052693393 0.21753488 0.21235746 0.3740353 0.3543581 -0.44458643 0.51411945
0.21474582 0.7223577 0.10267194 0.12706526 -0.08659372 -0.2782234 -0.006204406 0.33201054
0.39571258 -0.009151785 0.037421796 -0.016665647 0.046720322 -0.017239746 -0.027626738 -0.05003435
-0.40807536 0.10652534 0.21448252 1.4131017 1.695052 -0.37764776 0.82862175 -0.1737884
-0.19092666 -0.13756403 -1.1697743 -0.24907383 -0.059897676 -0.37201077 -0.16671619 0.06335938
0.19653343 0.18630509 0.14234415 0.13349132 0.2698765 -0.23481159 -0.046240978 -0.08223152
-0.6011298 -0.1899562 0.059183717 -0.08146372 0.020975031 0.42950106 0.20617685 0.2884197
0.061301734 -0.20967585 0.41032624 -0.19720878 -0.090017036 0.16196284 0.02544917 0.1734671
0.2678422 0.30269414 -0.06312562 -0.041944325 -0.2516076 -0.12027308 -0.07332762 0.41354102
0.40056115 0.51615465 0.5282848 0.34873915 0.092076324 0.29477423 -0.5778563 0.27867806
0.015047926 -0.29801846 -0.12881641 -0.029840799 -0.118640296 0.19788279 0.26053488 -0.023215221
0.3152808 0.6296496 -0.22997244 0.4129731 0.04786215 0.3377129 -0.14420208 0.05285485
0.12768637 -0.11787597 0.14482635 0.235964 0.29590666 -0.14086787 0.28155127 -0.14055589
0.32944414 0.3851208 -0.0018340804 0.15372646 -0.09306249 0.41355738 0.33443782 0.030995997
0.18667565 0.13211304 0.33419323 -0.078670375 -0.22308548 -0.10852002 0.06029994 -0.13496447
0.34518206 0.27066812 0.8956814 0.6277456 0.0629242 0.11740489 0.23880646 -0.25992212
-0.44386926 0.05073573 0.18600161 0.2228369 0.43966725 0.22191499 0.17255546 0.42812717
1.3452001 1.5404907 0.6561036 0.337916 0.87548804 -0.11354415 -1.1506772 0.5630775
0.32349858 0.38927263 0.58547616 0.38374165 0.96743935 0.006784931 0.074705645 -0.011273529
-0.23887208 0.38642472 0.4160237 -0.15456647 0.2448002 0.2514991 0.3284615 0.3628661
0.34627095 0.32449633 0.21113706 -0.037890736 0.3550811 -0.30444032 -0.55639815 0.4167003
00000000: 5f66 a33e dc1f 573d 6416 c7be 2f6e 393c
00000010: 2821 b63e e14c 4cbe 11bd 3c3e 2c6e 5a3f
00000020: f17a c63e f067 5f3f edde b93e 3753 863d
00000030: 8e3c febe 41a0 c23e f720 17bf fb6a 7fbe
00000040: 4819 0a3f 5b16 1d3f 3f1c 00bf eaab 1f3f
00000050: 223b 223d 409b 43be 13cd 0a3e d7e2 1b3f
00000060: d7c0 83bc e172 cbbd 6936 9f3e 9125 2a3e
00000070: 5cf4 ae3e 868c 033f 42d4 533e 65c3 313c
00000080: 841b 893e d179 b1be 39f7 0a3f 8086 86be
00000090: 9430 dabe a178 b73f 96f6 5fbe 3aea 1cbe
000000a0: acd6 873e c018 273f cea5 b5bd c430 a43e
000000b0: cf28 5cbd fbe5 87be 648f 033e 7195 e0bd
000000c0: e0a8 213f 2151 f53d 8406 203f 4c9c 9f3e
000000d0: a6c0 3f3c 6078 5e3e c7ad 89be bb78 b03e
000000e0: be0a 023e 6c2b 593e d0ec af3e bed5 1dbf
000000f0: f5de 983e 341b 72be 966b ac3e 6bfd aa3e
00000100: 207d ee3e 1b2d acbd 3189 cd3e 618f fd3e
00000110: 2df8 a1be 3ee4 bcbd 3585 b73c 9640 153e
00000120: 2775 993e 2162 3ebb 3346 1fbf 1bb8 493d
00000130: 6e25 953d 3f41 813d d121 ad3d 8da8 16be
00000140: 9156 08be 3ee7 a4bd b07d ba3e bfe5 b43e
00000150: bbf1 393c dd97 cb3d b6e1 d43e f16c 4f3d
00000160: 0917 143d 07d5 573d 77c1 5e3e 3c74 593e
00000170: 8e81 bf3e 6d6e b53e d5a0 e3be 559d 033f
00000180: 54e6 5b3e 6fec 383f ab45 d23d 651d 023e
00000190: 0c58 b1bd 4c73 8ebe 544e cbbb 49fd a93e
000001a0: d79a ca3e 5ef1 15bc 9947 193d 6586 88bc
000001b0: cf5d 3f3d 5e3a 8dbc 7851 e2bc d2f0 4cbd
000001c0: 41ef d0be f529 da3d 4ea1 5b3e 84e0 b43f
000001d0: 77f7 d83f 0c5b c1be 8e20 543f 96f5 31be
000001e0: 4782 43be 96dd 0cbe 2abb 95bf 360d 7fbe
000001f0: 4457 75bd 3278 bebe a6b7 2abe 90c2 813d
00000200: 0f40 493e c3c6 3e3e aac2 113e f3b1 083e
00000210: 412d 8a3e 7372 70be 2e67 3dbd 0069 a8bd
00000220: a4e3 19bf e183 42be a06a 723d 73d6 a6bd
00000230: d4d3 ab3c 90e7 db3e 0620 533e bfab 933e
00000240: 8717 7b3d 44b5 56be 4816 d23e 19f1 49be
00000250: da5a b8bd 96d9 253e c77a d03c 5ca1 313e
00000260: 9d22 893e bafa 9a3e 0148 81bd d0cd 2bbd
00000270: b6d2 80be bc51 f6bd cb2c 96bd a6bb d33e
00000280: 5a16 cd3e b622 043f ac3d 073f f08d b23e
00000290: 8392 bc3d a6ec 963e 64ee 13bf e4ae 8e3e
000002a0: 948b 763c e095 98be 73e8 03be b174 f4bc
000002b0: aff9 f2bd c9a1 4a3e d464 853e d92d bebc
000002c0: 7c6c a13e b730 213f e57d 6bbe 3671 d33e
000002d0: 1a0b 443d b5e8 ac3e b6a9 13be 547e 583d
000002e0: 37c0 023e f568 f1bd 5c4d 143e 8ca0 713e
000002f0: 1481 973e ab3f 10be 7d27 903e e2ed 0fbe
00000300: e7ac a83e 8e2e c53e 8765 f0ba 786a 1d3e
00000310: 8c97 bebd cbbd d33e 6f3b ab3e 51eb fd3c
00000320: e727 3f3e a448 073e 601b ab3e ef1d a1bd
00000330: 8570 64be bf3f debd 12fd 763d 2034 0abe
00000340: b4bb b03e 0395 8a3e 604b 653f f0b3 203f
00000350: 67de 803d fa71 f03d ae89 743e 8314 85be
00000360: d542 e3be 45d0 4f3d 3577 3e3e 5b2f 643e
00000370: 111c e13e af3d 633e 61b2 303e 7c33 db3e
00000380: 842f ac3f cd2e c53f 68f6 273f 5303 ad3e
00000390: fc1f 603f d689 e8bd 6449 93bf d925 103f
000003a0: 9ba1 a53e be4e c73e c4e1 153f c979 c43e
000003b0: 1baa 773f 2054 de3b 46ff 983d 9cb4 38bc
000003c0: e29a 74be 76d9 c53e 0f01 d53e ac46 1ebe
000003d0: e7ac 7a3e 7dc4 803e 1b2c a83e 96c9 b93e
000003e0: 6d4a b13e 6224 a63e 5034 583e 5133 1bbd
000003f0: 31cd b53e 9adf 9bbe 1c70 0ebf be59 d53e

lstm.weight_hh_l0 f4 [512, 128]
4.29829e-40 3.47041e-40 -4.00557e-40 4.0615e-40 -3.98898e-40 3.85622e-40 3.4598e-40 4.2318e-40
-3.2196e-40 -3.45719e-40 4.05362e-40 -3.78847e-40 -3.85059e-40 -4.41052e-40 3.83442e-40 -3.9481e-40
3.81798e-40 3.49921e-40 -3.75496e-40 3.46192e-40 -3.47254e-40 8.3611e-41 3.45698e-40 -4.17877e-40
-3.46062e-40 3.68673e-40 3.53821e-40 -3.6484e-40 -4.40491e-40 3.55145e-40 3.87724e-40 3.45829e-40
-4.32104e-40 -4.13061e-40 4.3958e-40 -4.24484e-40 -3.45696e-40 4.24666e-40 -4.38601e-40 4.34183e-40
3.80807e-40 3.721e-40 -3.56375e-40 -3.92308e-40 4.21372e-40 -3.45758e-40 -4.37621e-40 3.50968e-40
3.87868e-40 4.26683e-40 -8.50011e-40 3.45859e-40 -4.39957e-40 7.68171e-40 -4.05924e-40 2.02347e-40
-3.51457e-40 -3.62352e-40 3.56509e-40 3.45699e-40 3.70126e-40 2.0228e-40 4.20348e-40 3.79212e-40
-3.49327e-40 3.73247e-40 -3.45992e-40 -3.82341e-40 3.50256e-40 3.85249e-40 2.14902e-40 3.46104e-40
3.48563e-40 -2.32133e-40 3.8798e-40 4.2885e-40 3.67891e-40 -4.14808e-40 -4.20038e-40 3.45912e-40
8.31462e-40 -3.91855e-40 3.69811e-40 -3.45734e-40 -4.30098e-40 -3.90113e-40 -3.8772e-40 3.87889e-40
4.41863e-40 -3.88922e-40 4.16725e-40 4.00556e-40 4.01962e-40 -3.81149e-40 -3.4492e-40 2.7432e-41
-4.44006e-40 4.32385e-40 3.8533e-40 4.28297e-40 -3.76439e-40 -4.09898e-40 4.32631e-40 4.42509e-40
-3.58283e-40 4.09536e-40 -6.26568e-40 -3.46627e-40 3.83098e-40 3.45878e-40 3.60606e-40 -4.1724e-40
3.91591e-40 -3.77462e-40 -7.49491e-40 3.79914e-40 -5.38192e-40 4.2303e-40 4.0396e-40 2.5397e-41
3.60068e-40 -3.73683e-40 -7.0113e-40 3.69786e-40 3.46178e-40 4.31615e-40 3.6978e-40 -3.45941e-40
-4.1575e-41 -4.14231e-40 3.464e-40 -3.69734e-40 3.95598e-40 3.80748e-40 -3.60207e-40 4.35622e-40
4.2134e-40 -8.18987e-40 -4.17408e-40 4.36014e-40 -4.16682e-40 -4.24072e-40 -3.63704e-40 3.87872e-40
3.98085e-40 -4.09712e-40 -3.89857e-40 3.88947e-40 -4.14077e-40 -3.46663e-40 -3.4609e-40 -9.20416e-40
-4.1717e-40 3.76956e-40 3.97981e-40 -3.46006e-40 4.25558e-40 -4.15908e-40 -3.56706e-40 -3.4572e-40
-3.45734e-40 -1.99743e-39 -3.90112e-40 4.04364e-40 4.19425e-40 4.13047e-40 -4.19819e-40 3.52878e-40
-4.43358e-40 3.47041e-40 3.50364e-40 -4.22927e-40 -4.10538e-40 -4.35716e-40 -3.46003e-40 4.05476e-40
-4.00749e-40 -3.45758e-40 -3.45754e-40 4.0311e-40 3.97638e-40 -9.8663e-40 -4.26132e-40 -3.62977e-40
2.45069e-40 -3.05264e-40 -4.00851e-40 -4.22039e-40 3.85374e-40 4.33628e-40 4.26988e-40 1.508744e-39
2.86673e-40 3.66772e-40 -3.46381e-40 3.46097e-40 3.73359e-40 3.46229e-40 -4.06028e-40 4.24752e-40
-3.46917e-40 4.0356e-40 -3.73253e-40 -4.19186e-40 -3.46034e-40 -6.33004e-40 -1.22e-42 -3.46335e-40
-3.85262e-40 -3.46171e-40 4.30501e-40 -3.824e-40 -4.11246e-40 3.50086e-40 -3.99852e-40 4.23356e-40
4.44156e-40 -4.02587e-40 3.55629e-40 -3.46845e-40 -3.4347e-41 3.78568e-40 3.46063e-40 4.44331e-40
4.41814e-40 -3.47781e-40 -4.43759e-40 -4.16525e-40 3.9059e-40 -3.72649e-40 -3.52397e-40 -4.17073e-40
-8.79255e-40 -3.79473e-40 -4.29724e-40 -3.83677e-40 3.90744e-40 -4.40867e-40 3.99265e-40 3.88195e-40
-4.22996e-40 -3.56307e-40 6.13083e-40 3.47006e-40 3.45699e-40 3.78622e-40 -3.45768e-40 -4.34154e-40
4.4068e-40 -4.24585e-40 4.25262e-40 -4.07369e-40 -3.99778e-40 -3.52616e-40 -3.87166e-40 4.32547e-40
00000000: 30ae 0400 69c7 0300 975c 0480 2e6c 0400
00000010: f757 0480 f532 0400 74c4 0300 a79b 0400
00000020: 7e81 0380 b9c3 0380 fc69 0400 1220 0480
00000030: 6331 0480 79cd 0480 e12c 0400 924c 0480
00000040: 4c28 0400 70cf 0300 bb16 0480 0bc5 0300
00000050: 01c8 0380 13e9 0000 aac3 0300 df8c 0480
00000060: aec4 0380 b603 0400 4fda 0300 07f9 0380
00000070: e9cb 0480 00de 0300 d138 0400 08c4 0300
00000080: 88b4 0480 727f 0480 5fc9 0400 4a9f 0480
00000090: a9c3 0380 cc9f 0400 a4c6 0480 53ba 0400
000000a0: 8925 0400 430d 0400 6ee1 0380 9845 0480
000000b0: 9d96 0400 d5c3 0380 e9c3 0480 5bd2 0300
000000c0: 3839 0400 6ba5 0400 7c41 0980 1dc4 0300
000000d0: 6cca 0480 595d 0800 8d6b 0480 1034 0200
000000e0: b8d3 0380 17f2 0380 cde1 0300 abc3 0300
000000f0: c307 0400 e033 0200 c293 0400 1721 0400
00000100: c8cd 0380 7610 0400 7cc4 0380 d029 0480
00000110: 5fd0 0300 eb31 0400 0f57 0200 ccc4 0300
00000120: a7cb 0300 1887 0280 8839 0400 76ab 0400
00000130: 8801 0400 5184 0480 e592 0480 43c4 0300
00000140: c70d 0900 5544 0480 e206 0400 c4c3 0380
00000150: f0ae 0480 7a3f 0480 ce38 0480 4739 0400
00000160: bccf 0400 283c 0480 a989 0400 965c 0400
00000170: 8260 0400 7d26 0480 7fc1 0380 784c 0000
00000180: b5d5 0480 50b5 0400 2532 0400 eba9 0400
00000190: 5c19 0480 a176 0480 00b6 0400 89d1 0400
000001a0: bfe6 0380 9f75 0400 9ed2 0680 41c6 0380
000001b0: ec2b 0400 2bc4 0300 39ed 0300 188b 0480
000001c0: 9943 0400 361c 0480 4729 0880 0c23 0400
000001d0: 43dc 0580 3c9b 0400 1366 0400 cc46 0000
000001e0: b9eb 0300 ad11 0480 77a2 0780 d006 0400
000001f0: 01c5 0300 2bb3 0400 cc06 0400 58c4 0380
00000200: e573 0080 b582 0480 9fc5 0300 ab06 0480
00000210: c44e 0400 5f25 0400 1cec 0380 56be 0400
00000220: 8696 0400 01eb 0880 908b 0480 6ebf 0400
00000230: 8a89 0480 249e 0480 dcf5 0380 3b39 0400
00000240: b355 0400 1c76 0480 c33e 0480 3a3c 0400
00000250: 4782 0480 5bc6 0380 c2c4 0380 bf05 0a80
00000260: e68a 0480 cd1a 0400 6955 0400 86c4 0380
00000270: 48a2 0400 6287 0480 5ae2 0380 bac3 0380
00000280: c4c3 0380 06c0 1580 793f 0480 3467 0400
00000290: 3091 0400 687f 0400 4992 0480 aed7 0300
000002a0: e7d3 0480 69c7 0300 acd0 0300 f39a 0480
000002b0: 6a78 0480 99be 0480 84c4 0380 4d6a 0400
000002c0: 205d 0480 d5c3 0380 d2c3 0380 b563 0400
000002d0: 7454 0400 53be 0a80 e2a3 0480 d5f3 0380
000002e0: 27ab 0200 f452 0380 695d 0480 7998 0480
000002f0: 4432 0400 c7b8 0400 45a6 0400 c46d 1000
00000300: 211f 0300 69fe 0300 92c5 0380 c7c4 0300
00000310: c610 0400 25c5 0300 d76b 0480 09a0 0400
00000320: 10c7 0380 f664 0400 7a10 0480 8590 0480
00000330: 9ac4 0380 8fe4 0680 6703 0080 71c5 0380
00000340: f431 0480 fcc4 0380 10b0 0400 fa29 0480
00000350: 637a 0480 e6cf 0300 a05a 0480 259c 0400
00000360: 20d6 0400 4062 0480 59df 0300 ddc6 0380
00000370: bf5f 0080 4b1f 0400 afc4 0300 9dd6 0400
00000380: 99cf 0400 79c9 0380 05d5 0480 1a89 0480
00000390: ce40 0400 cb0e 0480 57d6 0380 a18a 0480
000003a0: 0193 0980 d121 0480 e5ad 0480 892d 0480
000003b0: 3c41 0400 f5cc 0480 fd58 0400 213a 0400
000003c0: 249b 0480 3de1 0380 07ad 0600 50c7 0300
000003d0: abc3 0300 721f 0400 dcc3 0380 3fba 0480
000003e0: 70cc 0400 929f 0480 75a1 0400 946f 0480
000003f0: 6b5a 0480 f3d6 0380 4337 0480 c4b5 0400

lstm.bias_ih_l0 f4 [512]
0.45418084 0.29325175 0.7026951 0.1659049 0.09459083 0.2526383 0.32078993 0.2352123
0.21044219 0.09891877 0.16920567 0.12553364 0.4949944 0.3328417 0.19197263 -0.15936561
0.6060493 0.33569062 0.16661555 0.20786278 0.17723393 0.25915945 0.15207902 0.23073322
0.25442722 0.34875506 0.2673608 0.24942999 0.4150381 0.030532828 0.25495335 -0.24928422
0.350251 0.11574325 -0.12430972 0.038792692 0.5086382 0.1327969 -0.034598086 0.4355665
0.19121744 0.60756534 0.17091544 0.8871644 0.07029124 0.23203143 0.12339522 0.09801923
0.23276557 0.29781845 0.107058726 -0.36684307 0.40360454 0.22107723 -0.029920239 0.0013940685
0.3873611 -0.017206503 0.3294093 0.40789673 0.23846586 0.22408375 0.17717245 -0.038795464
-0.009806987 0.31419215 0.08444569 0.22483432 0.06828303 -0.02866483 0.3739406 -0.044039816
0.25499237 0.22829194 0.37654212 0.2522814 0.22828044 -0.009438781 0.09080028 0.20286717
0.29039344 0.04899905 0.5318497 -0.19991992 0.14540266 0.44326556 0.2765086 0.25607592
-0.055259768 0.3365292 0.0064711347 0.6653051 0.24125758 0.27775687 0.20587444 0.52755994
0.27665803 0.14014459 0.22761866 0.30572817 0.29028347 0.30257168 0.3123201 0.33926466
0.1473404 0.13612808 0.18293917 0.24419424 0.048759364 0.26132098 0.21243906 0.44465128
0.12906845 0.5756458 0.22085515 0.25590283 0.030133586 0.34295544 0.57845294 -0.11821019
0.32710552 -0.0069195265 0.2745261 0.39285144 0.24456193 -0.25832304 0.18786839 0.12880652
-3.92393e-40 -3.94449e-40 4.01483e-40 -4.30846e-40 3.46087e-40 3.72839e-40 3.68155e-40 1.2675e-41
3.4668e-40 -4.32679e-40 -4.41518e-40 -3.61103e-40 -3.5775e-40 -4.05122e-40 -1.068917e-39 -4.00464e-40
3.4628e-40 -4.4011e-40 -3.58327e-40 -3.45712e-40 3.46969e-40 4.43522e-40 3.94023e-40 3.60055e-40
-3.46002e-40 -9.71892e-40 -4.06769e-40 -3.76452e-40 -3.53464e-40 -4.29602e-40 -3.80183e-40 7.47978e-40
-3.73653e-40 1.1407e-40 3.8224e-40 -3.49114e-40 3.46248e-40 -3.96617e-40 -3.46954e-40 3.63863e-40
-4.21484e-40 -4.02868e-40 -3.80855e-40 -4.21988e-40 -4.09665e-40 3.73907e-40 4.19246e-40 -3.46153e-40
3.77656e-40 -3.65204e-40 4.05163e-40 3.4576e-40 -4.43084e-40 3.45904e-40 4.30527e-40 4.18637e-40
3.71414e-40 3.84819e-40 -3.74597e-40 4.24752e-40 4.01139e-40 -3.4575e-40 -4.11909e-40 -4.37083e-40
-3.4724e-40 3.45833e-40 4.40947e-40 3.51104e-40 3.45873e-40 7.25644e-40 3.46292e-40 9.599e-40
4.3367e-40 3.45821e-40 -4.20908e-40 -2.22874e-40 -3.45874e-40 -3.74625e-40 3.46156e-40 -4.14995e-40
-3.97689e-40 -4.16053e-40 3.85885e-40 4.04646e-40 -3.73384e-40 1.597e-41 -3.46103e-40 -3.45733e-40
4.20064e-40 4.01011e-40 3.92392e-40 -3.46041e-40 -4.41664e-40 -4.02974e-40 1.865708e-39 4.15992e-40
-7.44395e-40 -4.35128e-40 -3.7347e-40 -4.1943e-40 -3.554e-40 -4.09925e-40 -4.08727e-40 2.1123e-40
4.30434e-40 -3.5479e-40 -1.384952e-39 4.1299e-40 -1.705093e-39 -4.34009e-40 -3.46856e-40 3.91533e-40
7.8901e-40 4.25904e-40 4.06615e-40 -4.16663e-40 4.39507e-40 3.47589e-40 -3.83939e-40 -3.90549e-40
-3.71832e-40 4.2915e-40 3.46369e-40 -4.1227e-40 -4.05463e-40 3.72223e-40 -4.22996e-40 -3.47075e-40
00000000: 648a e83e 1825 963e d3e3 333f f9e2 293e
00000010: d6b8 c13d cf59 813e 943e a43e 7edb 703e
00000020: 287e 573e ed95 ca3d 4044 2d3e e48b 003e
00000030: e86f fd3e 3a6a aa3e 7994 443e bd30 23be
00000040: 0c26 1b3f a4df ab3e 449d 2a3e fbd9 543e
00000050: d07c 353e 8cb0 843e 9aba 1b3e 5445 6c3e
00000060: 4944 823e 0690 b23e 84e3 883e 936a 7f3e
00000070: e07f d43e fb1f fa3c 3f89 823e 5d44 7fbe
00000080: 1954 b33e cc0a ed3d 1896 febd 16e5 1e3d
00000090: 1d36 023f e9fb 073e b9b6 0dbd 9302 df3e
000000a0: 81ce 433e 6789 1b3f 7504 2f3e 351d 633f
000000b0: dbf4 8f3d a699 6d3e a2b6 fc3d 4ebe c83d
000000c0: 195a 6e3e a97b 983e 9b41 db3d dbd2 bbbe
000000d0: 41a5 ce3e 1262 623e 4a1b f5bc 2db9 b63a
000000e0: 3254 c63e a7f4 8cbc 56a8 a83e d7d7 d03e
000000f0: 6530 743e 3676 653e b26c 353e fee7 1ebd
00000100: 7cad 20bc cbdd a03e ddf1 ac3d f83a 663e
00000110: f9d7 8b3d 81d2 eabc 2475 bf3e 1863 34bd
00000120: 5c8e 823e 5dc5 693e 21ca c03e 072b 813e
00000130: 59c2 693e 1ea5 1abc 7ff5 b93d 69bc 4f3e
00000140: 73ae 943e 3ab3 483d 4d27 083f cfb7 4cbe
00000150: 6fe4 143e b4f3 e23e 8992 8d3e 621c 833e
00000160: 1158 62bd 8e4d ac3e d00b d43b 6f51 2a3f
00000170: 3a0c 773e 2636 8e3e c0d0 523e 2b0e 073f
00000180: 1fa6 8d3e 1082 0f3e de14 693e 6788 9c3e
00000190: 09a0 943e adea 9a3e 6ce8 9f3e 19b4 ad3e
000001a0: 67e0 163e 2965 0b3e 6854 3b3e 0e0e 7a3e
000001b0: e6b7 473d ddcb 853e a089 593e 55a9 e33e
000001c0: 852a 043e 865d 133f da27 623e b205 833e
000001d0: b6da f63c db97 af3e 7e15 143f 2f18 f2bd
000001e0: 607a a73e 32bd e2bb af8e 8c3e d323 c93e
000001f0: 716e 7a3e eb42 84be 9260 403e dbe5 033e
00000200: d545 0480 904b 0480 2c5f 0400 06b1 0480
00000210: c0c4 0300 530f 0400 4402 0400 5523 0000
00000220: 67c6 0300 22b6 0480 c6ce 0480 9cee 0380
00000230: 43e5 0380 5169 0480 b5a3 0b80 555c 0480
00000240: 4ac5 0300 d9ca 0480 dfe6 0380 b4c3 0380
00000250: 35c7 0300 5cd4 0400 604a 0400 b0eb 0300
00000260: 83c4 0380 3d95 0a80 e86d 0480 6519 0480
00000270: 50d9 0380 8ead 0480 cc23 0480 0f25 0800
00000280: 9811 0480 fb3d 0100 8829 0400 30cd 0380
00000290: 33c5 0300 9b51 0480 2bc7 0380 4df6 0300
000002a0: ed96 0480 0863 0480 ab25 0480 5598 0480
000002b0: fb75 0480 4d12 0400 b090 0400 efc4 0380
000002c0: c01c 0400 0afa 0380 6e69 0400 d7c3 0300
000002d0: 23d3 0480 3dc4 0300 22b0 0400 fd8e 0400
000002e0: 5a0b 0400 b830 0400 3914 0480 09a0 0400
000002f0: 365e 0400 cfc3 0380 3c7c 0480 69c2 0480
00000300: f7c7 0380 0bc4 0300 2ecd 0400 bcd2 0300
00000310: 27c4 0300 cde6 0700 52c5 0300 d073 0a00
00000320: e5b8 0400 02c4 0300 5295 0480 486d 0280
00000330: 28c4 0380 4d14 0480 f1c4 0300 d684 0480
00000340: 9854 0480 c987 0480 b133 0400 fd67 0400
00000350: d810 0480 852c 0000 cbc4 0380 c3c3 0380
00000360: f892 0400 db5d 0400 d445 0400 9fc4 0380
00000370: 2ecf 0480 5463 0480 d650 1400 9e87 0400
00000380: 121b 0880 f6bc 0480 1511 0480 3391 0480
00000390: b6de 0380 b476 0480 5d73 0480 d34c 0200
000003a0: e0af 0400 03dd 0380 af14 0f80 407f 0400
000003b0: 1b91 1280 d7b9 0480 e5c6 0380 6f43 0400
000003c0: 7097 0800 3fa3 0400 7a6d 0400 7d89 0480
000003d0: 2bc9 0400 f0c8 0300 442e 0480 b140 0480
000003e0: 840c 0480 4cac 0400 89c5 0300 3e7d 0480
000003f0: 446a 0480 9b0d 0400 249b 0480 81c7 0380

lstm.bias_hh_l0 f4 [512]
0.4296306 0.36523703 0.6505461 0.111609034 0.12987842 0.30290896 0.23965849 0.36008146
0.1862742 0.19315809 0.16157041 0.24369489 0.50302064 0.32885987 0.11560318 -0.12236691
0.4865503 0.19731954 0.099818856 0.11693133 0.12325798 0.19568448 0.16567315 0.31813943
0.22934479 0.3149582 0.18532546 0.2101944 0.30796173 0.13822567 0.22805448 -0.15982999
0.4382305 0.07691685 -0.18582974 0.08743864 0.48358756 0.12222501 -0.055650037 0.489532
0.16676693 0.5920453 0.15964709 0.89583194 0.18739589 0.31885448 0.19703722 0.20616758
0.0941414 0.27797458 0.19103685 -0.41015065 0.38839835 0.36224455 -0.15106207 0.13234754
0.3925576 -0.022522394 0.34216458 0.38242522 0.1656487 0.26994076 0.12047055 0.10849437
-0.09117552 0.23897605 0.14374799 0.2631139 0.111060046 -0.0111646755 0.32926723 -0.08116094
0.19438238 0.29970297 0.3871104 0.28601533 0.1815537 -0.0011566622 0.06236167 0.1449103
0.30675462 0.033333715 0.5631516 -0.3481991 0.15518947 0.34139434 0.169708 0.22809133
-0.06794755 0.26158664 0.07587102 0.7122362 0.25658467 0.2931616 0.28972885 0.6631567
0.21888365 0.19007802 0.1903997 0.29175723 0.17638856 0.2344599 0.1988888 0.31622568
0.16997778 0.25078452 0.02674993 0.19703504 -0.051653564 0.22965838 0.22485802 0.50299007
0.15236789 0.5001445 0.21375881 0.11435082 0.12860519 0.26598877 0.71111465 -0.1070388
0.33053356 0.13672307 0.3364773 0.3625451 0.20212531 -0.20112771 0.17093766 0.09240111
-3.6515e-40 -4.101e-40 -2.45603e-40 -3.55738e-40 4.00456e-40 -4.05057e-40 -1.713121e-39 -3.87113e-40
-1.072554e-39 3.4591e-40 4.19154e-40 -3.50718e-40 3.67866e-40 -4.36251e-40 -2.39108e-40 4.17032e-40
3.58885e-40 -3.49672e-40 3.9267e-40 4.35044e-40 -4.04098e-40 4.36944e-40 -3.941e-40 3.59545e-40
-3.46069e-40 -3.46527e-40 3.759e-40 3.94213e-40 3.461e-40 -3.56856e-40 4.18858e-40 -4.28727e-40
3.52432e-40 -4.21148e-40 -4.32508e-40 -3.45918e-40 4.4438e-40 -4.10827e-40 -4.24076e-40 -4.06063e-40
-3.45692e-40 -8.08661e-40 4.33214e-40 -3.82805e-40 3.45947e-40 3.94886e-40 3.4627e-40 3.96888e-40
1.732968e-39 3.7531e-40 4.30506e-40 3.45824e-40 -3.88454e-40 -3.46136e-40 -3.66482e-40 -3.7705e-40
4.24551e-40 -4.27683e-40 2.7497e-40 4.1227e-40 -3.45747e-40 -3.83751e-40 -1.028468e-39 -3.74718e-40
3.72836e-40 4.33517e-40 3.70737e-40 -3.46107e-40 3.90789e-40 -3.9619e-40 4.05354e-40 4.08771e-40
4.29348e-40 3.86013e-40 3.78321e-40 4.38253e-40 4.41766e-40 4.17406e-40 -4.05888e-40 -1.708883e-39
-3.62877e-40 -4.14518e-40 3.46062e-40 4.27176e-40 -2.58786e-40 -3.45919e-40 -1.493804e-39 3.81918e-40
-4.03585e-40 -4.0095e-40 -4.28062e-40 -3.45769e-40 3.95205e-40 -3.46178e-40 4.38658e-40 4.26659e-40
8.06806e-40 3.74765e-40 -3.45982e-40 3.74773e-40 -3.68774e-40 -4.28467e-40 4.38496e-40 4.12015e-40
-4.3426e-40 7.28354e-40 4.156e-40 -4.10173e-40 8.22098e-40 3.45847e-40 -8.85186e-40 -3.45754e-40
-2.71738e-40 -4.2423e-40 3.86132e-40 -3.79465e-40 4.10454e-40 4.05257e-40 -4.26178e-40 -3.54758e-40
1.490648e-39 -4.349e-40 -3.9141e-40 -3.68949e-40 4.13656e-40 -3.75506e-40 4.16593e-40 -4.25534e-40
00000000: 8bf8 db3e 5900 bb3e 308a 263f 4793 e43d
00000010: d9fe 043e e216 9b3e 0969 753e 995c b83e
00000020: aabe 3e3e 3ccb 453e b772 253e 278b 793e
00000030: f6c5 003f 5260 a83e 5cc1 ec3d 819b fabd
00000040: 1f1d f93e 220e 4a3e d46d cc3d b179 ef3d
00000050: ae6e fc3d 8361 483e 39a6 293e 2ce3 a23e
00000060: 5cd9 6a3e 3442 a13e f5c5 3d3e 333d 573e
00000070: 29ad 9d3e 088b 0d3e 1d87 693e 79aa 23be
00000080: c05f e03e 9586 9d3d 274a 3ebe 0813 b33d
00000090: ca98 f73e 1b51 fa3d 4bf1 63bd f0a3 fa3e
000000a0: f3c4 2a3e 4890 173f 877a 233e 3e55 653f
000000b0: b5e4 3f3e e540 a33e 20c4 493e 981d 533e
000000c0: 35cd c03d af52 8e3e 2a9f 433e 44ff d1be
000000d0: 26dc c63e 1e78 b93e 04b0 1abe 1d86 073e
000000e0: 4ffd c83e e280 b8bc 3230 af3e 3dcd c33e
000000f0: d09f 293e ad35 8a3e 44b9 f63d 4c32 de3d
00000100: 3bba babd 23b6 743e ac32 133e ddb6 863e
00000110: 7373 e33d 0bec 36bc b795 a83e b537 a6bd
00000120: 2d0c 473e ab72 993e 5633 c63e 9a70 923e
00000130: 37e9 393e 259b 97ba f36e 7f3d 5e63 143e
00000140: f10e 9d3e ef88 083d b42a 103f 2747 b2be
00000150: fde9 1e3e 3dcb ae3e efc7 2d3e c690 693e
00000160: 1628 8bbd afee 853e 4462 9b3d 1d55 363f
00000170: 115f 833e 4719 963e 5757 943e a3c4 293f
00000180: 0923 603e d0a3 423e 24f8 423e 3461 953e
00000190: 349f 343e 4216 703e 81a9 4b3e 55e8 a13e
000001a0: a80e 2e3e d466 803e ab22 db3c 8ec3 493e
000001b0: b092 53bd 912b 6b3e 2e41 663e f5c3 003f
000001c0: 5406 1c3e 7809 003f 97e3 5a3e c330 ea3d
000001d0: 14b1 033e ae2f 883e 9c0b 363f 2937 dbbd
000001e0: b23b a93e 2201 0c3e c146 ac3e 839f b93e
000001f0: f0f9 4e3e 6cf4 4dbe 480a 2f3e cb3c bd3d
00000200: e4f9 0380 3177 0480 a4ac 0280 a7df 0380
00000210: 4f5c 0400 2269 0480 7ca7 1280 1d37 0480
00000220: d8ad 0b80 42c4 0300 6e90 0400 a9d1 0380
00000230: 7601 0400 17c0 0480 899a 0280 848a 0400
00000240: 6de8 0300 bece 0380 9b46 0400 babc 0400
00000250: 7666 0480 06c2 0400 974a 0480 44ea 0300
00000260: b3c4 0380 fac5 0380 db17 0400 e84a 0400
00000270: c9c4 0300 c5e2 0380 9b8f 0400 1eab 0480
00000280: 70d6 0300 fd95 0480 a8b5 0480 47c4 0380
00000290: c0d6 0400 3879 0480 279e 0480 f06b 0480
000002a0: a6c3 0380 38ce 0880 a0b7 0400 1b2b 0480
000002b0: 5cc4 0300 c84c 0400 43c5 0300 5d52 0400
000002c0: cfde 1200 3616 0400 13b0 0400 04c4 0300
000002d0: da3a 0480 e3c4 0380 9afd 0380 101b 0480
000002e0: 7a9f 0400 35a8 0480 81fe 0200 3e7d 0400
000002f0: cdc3 0380 be2d 0480 f332 0b80 9014 0480
00000300: 510f 0400 78b8 0400 7709 0400 cec4 0380
00000310: 5c41 0400 6b50 0480 f669 0400 7d73 0400
00000320: d9ac 0400 0c34 0400 9b1e 0400 acc5 0400
00000330: 77cf 0400 8f8b 0400 736b 0480 ac9b 1280
00000340: 8ef3 0380 8283 0480 aec4 0300 cba6 0400
00000350: 64d1 0280 48c4 0380 1e44 1080 a228 0400
00000360: 0865 0480 af5d 0480 43a9 0480 ddc3 0380
00000370: ac4d 0400 01c5 0380 cdc6 0400 5aa5 0400
00000380: 0cc9 0800 b114 0400 75c4 0380 b714 0400
00000390: fe03 0480 64aa 0480 59c6 0400 887c 0400
000003a0: 8aba 0480 5bee 0700 8686 0400 6577 0480
000003b0: adf3 0800 15c4 0300 8aa3 0980 d2c3 0380
000003c0: 7ff5 0280 959e 0480 6134 0400 cb21 0480
000003d0: 2e78 0400 b169 0400 03a4 0480 ecdc 0380
000003e0: 523b 1000 53bc 0480 1843 0480 7b04 0480
000003f0: 1b81 0400 c216 0480 4b89 0400 37a2 0480

fc.weight f4 [1, 128]
-0.24953407 -0.2893848 -0.50342554 0.18991444 -0.22345516 -0.5447085 0.23165987 0.22346322
-0.21712726 -0.21250938 0.20605746 -0.23713838 -0.20021525 -0.26098955 0.20048572 0.0051725176
-0.5881817 -0.2520745 0.19816813 0.22513954 0.27123272 0.2407949 -0.19999698 -0.24959506
0.2629029 -0.13607934 0.19615059 -0.20747553 0.21267894 -0.22007751 0.2239561 0.15511985
-0.463289 0.34290463 0.15709287 -0.17164482 -0.36577827 0.17610766 -0.29617152 0.24234958
0.17610236 0.31423277 0.18851167 -0.53196156 0.1593413 0.3279743 0.20552072 0.2187674
0.28565934 -0.23471715 0.17851856 -0.50761706 0.33239558 -0.25229353 0.27737692 0.2681659
0.2059827 -0.16305839 0.23270583 -0.1987762 0.18285398 -0.14725304 0.18101369 -0.22771202
0.0846639 -0.20901357 -0.16714947 -0.43307307 -0.23066975 0.24122153 0.26697597 0.08585625
-0.25240722 0.2213415 -0.21128169 -0.16238427 0.22067945 -0.17328678 -0.4909779 -0.20264104
-0.2075217 -0.1718704 0.5089972 0.10396066 -0.17802392 -0.37096822 -0.31613478 0.3168897
0.11593204 -0.380725 -0.20462324 0.4798848 0.11774284 0.18836601 0.3084053 -0.31206173
-0.21206169 -0.17805882 -0.19948623 0.20562424 0.23414293 -0.1577014 -0.17529216 0.28503886
-0.09811199 0.2114959 -0.24745673 0.19329008 -0.3309036 -0.21374129 0.18507951 0.44238272
-0.28135914 0.36828977 0.14577167 0.14781137 -1.1956092 0.21226867 -0.57454836 -0.10295172
0.32338172 0.24131653 0.25075254 -0.24135683 0.27130058 0.0035358204 0.24024011 0.23340502
00000000: dc85 7fbe 3f2a 94be 7fe0 00bf ee78 423e
00000010: 6ed1 64be 0472 0bbf 3f38 6d3e 8bd3 643e
00000020: 9c56 5ebe 0f9c 59be ba00 533e 67d4 72be
00000030: 3a05 4dbe 6ca0 85be 214c 4d3e 397e a93b
00000040: 1393 16bf e90f 81be 96ec 4a3e fb8a 663e
00000050: 04df 8a3e f092 763e 02cc 4cbe d995 7fbe
00000060: 359b 863e 6258 0bbe b3db 483e 7774 54be
00000070: 82c8 593e 005c 61be bf54 653e bdd7 1e3e
00000080: 3734 edbe 3291 af3e f4dc 203e a9c3 2fbe
00000090: 4a47 bbbe 9155 343e cba3 97be 7d2a 783e
000000a0: 2d54 343e 1ee3 a03e 3409 413e a22e 08bf
000000b0: 5e2a 233e 3fec a73e 0674 523e 9004 603e
000000c0: f141 923e b159 70be 92cd 363e 31f3 01bf
000000d0: c12f aa3e 9e2c 81be 5904 8e3e 0a4d 893e
000000e0: 21ed 523e c7f8 26be 704a 6e3e fd8b 4bbe
000000f0: 133e 3b3e 80c9 16be a75b 393e 572d 69be
00000100: 4464 ad3d a707 56be 3b29 2bbe c1bb ddbe
00000110: b134 6cbe c702 773e 13b1 883e 67d5 af3d
00000120: 853b 81be 59a7 623e 3a5a 58be 1048 26be
00000130: cbf9 613e 1772 31be 7561 fbbe 2281 4fbe
00000140: 9280 54be cbfe 2fbe a44d 023f 54e9 d43d
00000150: e74b 36be 8cef bdbe 6bdc a1be 5e3f a23e
00000160: c76d ed3d 63ee c2be c188 51be 76b3 f53e
00000170: 2823 f13d 05e3 403e 4de7 9d3e 8ec6 9fbe
00000180: b326 59be 0d55 36be 1e46 4cbe 298f 523e
00000190: 2ac3 6f3e 7a7c 21be ca7f 33be 9df0 913e
000001a0: f0ee c8bd 6292 583e 4c65 7dbe d6ed 453e
000001b0: 326c a9be ffde 5abe 7c85 3d3e fd7f e23e
000001c0: 4e0e 90be 7a90 bc3e 2b45 153e dd5b 173e
000001d0: b909 99bf f55c 593e 9a15 13bf 5ad8 d2bd
000001e0: 4a92 a53e ae1b 773e a362 803e 3f26 77be
000001f0: e9e7 8a3e 39b9 673b 8101 763e ba01 6f3e
