saved_lstm_models_cv/inference_lstm_period_33pct_pca_False.pth (torch, 287270 bytes, 5 tensors)

lstm.weight_ih_l0 f4 [512, 7]
000000 59 76 70 3f 72 5f 5f be d2 45 21 bf 39 59 a4 3e
       0.93930584 -0.21813753 -0.6299716 0.3209932
000010 d6 5a 03 be b5 6e a0 bd 4c 3f 1f bf b9 0e 84 bd
       -0.1282762 -0.07833616 -0.6220596 -0.064481206
000020 c4 ae ed bb 32 6c 9b 3c 5d b2 3f 3e 65 c9 43 3e
       -0.0072534997 0.01897249 0.18720384 0.19119795
000030 2d cb 4a 3e b1 14 88 3c 3d 18 99 3e af 5e ba bd
       0.19804068 0.016611429 0.29901305 -0.09100091
000040 49 36 68 bd 14 e8 b7 bd 64 10 3c be e2 85 b3 3e
       -0.056692395 -0.08979812 -0.18365628 0.35063082
000050 4b 85 ec 3d 88 82 00 bf c8 2a 7f bf 52 d5 82 be
       0.11548861 -0.50199175 -0.99674654 -0.25553375
000060 c7 4e b2 bd f7 49 04 be a3 a5 88 bf be 1f c6 3c
       -0.08706432 -0.1291884 -1.0675548 0.024185058
000070 4c 7f 3c 3d f2 3c 83 be e6 17 c7 3e ca 2f d5 bd
       0.046019837 -0.25632435 0.3888542 -0.10409506
000080 84 0e 59 be a5 5a 2b 3e 5b 81 37 3e ef e5 43 bd
       -0.21196944 0.16733797 0.17920439 -0.047826704
000090 a8 6e f6 be 18 9a 51 3e 32 18 15 3d 17 99 91 bd
       -0.481313 0.20468938 0.036400028 -0.07109278
0000a0 ea bc 3e bf 40 87 d7 be fb a5 d2 bc f7 69 87 be
       -0.7450701 -0.42095375 -0.025713911 -0.26448032
0000b0 4a 5b 0e be d8 2a df be 2b a9 84 3e 4f c4 31 bc
       -0.13902012 -0.43587375 0.25910315 -0.010850026
0000c0 af 9f 81 3e f1 d2 9e bc a9 18 93 3d fb 8e 3a be
       0.2531714 -0.019387694 0.07182438 -0.18218605
0000d0 70 02 a6 3e 0e c2 e4 3e d7 70 6b bd 45 a2 d1 bc
       0.32423735 0.44679302 -0.05748066 -0.025590071
0000e0 ce 3f a3 be c7 05 91 be 4d 30 2a bf eb 7a 50 3e
       -0.31884617 -0.2832472 -0.6647995 0.2035939
0000f0 00 4d 51 bd f2 cf 21 bf fb 27 11 3e aa 69 95 bb
       -0.051098824 -0.63207924 0.14175408 -0.0045597153
000100 5c c5 17 3c 44 8b ed 3e c5 fe 65 3d 13 4e 8b be
       0.009263363 0.46395314 0.05615117 -0.27208003
000110 74 ae c7 3e b7 cb 88 3e 54 c1 d5 bc a6 78 f3 bc
       0.39000285 0.26717922 -0.026093163 -0.029720616
000120 a3 32 0f 3f 47 41 4e bd ba 79 0a bf 67 f3 af 3e
       0.5593664 -0.050355222 -0.5409199 0.3436539
000130 31 9c 43 3e 12 65 7d 3e 35 ee 28 bd b6 24 89 3e
       0.19102551 0.24745587 -0.041242797 0.2678582
000140 c7 9a 18 3c 98 c4 8d be 2e 2f c1 3e 24 74 42 3e
       0.009314246 -0.27689052 0.37731308 0.18989617
000150 c0 e3 18 3f 4e 97 eb 3e 90 eb b0 3e 4d 40 2d bd
       0.5972252 0.46013874 0.3455472 -0.04229765
000160 5e e0 f7 bd 1e d6 99 be f2 6d 2d bf b5 01 06 3e
       -0.121033415 -0.3004617 -0.6774589 0.13086589
000170 f1 35 2f 3e b7 c1 3c 3e 36 22 1e bf c6 2f b3 bc
       0.17110421 0.18433271 -0.6177095 -0.021873366
000180 81 22 86 be 8e 00 e5 3d 86 c3 aa be 07 36 76 be
       -0.261982 0.111817464 -0.33352298 -0.24044047
000190 7d a1 7e be 34 7c ca 3d b9 53 c6 3e 0b a4 e2 be
       -0.2486629 0.09886971 0.3873575 -0.4426578
0001a0 30 65 3f 3f 6a a7 85 3e c7 af 70 be f6 c3 c1 3e
       0.74763775 0.2610429 -0.23504554 0.3784482
0001b0 65 09 c9 be 67 e4 f3 be a5 42 cd 3f 77 ff 7c bd
       -0.3926498 -0.47635195 1.6035963 -0.061767068
0001c0 7d b2 84 3e d6 1a 83 be 07 eb 81 3f 0f 7a cd 3e
       0.25917426 -0.25606412 1.014985 0.40132186
0001d0 f8 00 1d bf ae cc 53 3f 7b f7 9d 3e b5 7b 94 be
       -0.61329603 0.8273419 0.30852875 -0.2900063
0001e0 62 f3 82 be 66 34 82 bf 96 c0 c3 3e 97 d0 8b bd
       -0.2557631 -1.0172241 0.3823287 -0.06826895
0001f0 b5 1e ba be e2 c9 ec 3e f1 b8 96 3e 27 de 69 3e
       -0.36351553 0.46247774 0.29437974 0.2283865
000200 02 af 3a be 46 08 ab be 9d a3 07 bd 51 db 03 3f
       -0.18230823 -0.3340475 -0.03311502 0.51506525
000210 0e 62 56 3e 45 e9 18 3f ea 6f 0c 3f a0 44 a7 bf
       0.20935842 0.5973094 0.5485827 -1.3067818
000220 1d fe 09 40 0b a4 a7 3e ed e7 e8 be 7e 08 78 3f
       2.1561348 0.32742342 -0.45489445 0.9688796
000230 22 5d 5b 3f da 71 a6 be 83 1a f9 be 6f b1 1b 3e
       0.85688984 -0.32508737 -0.4865304 0.15204404
000240 b4 18 c2 3e 15 d5 71 be b3 86 e0 bf c6 15 80 bc
       0.37909472 -0.2361644 -1.7541107 -0.015635382
000250 e9 29 2d be 0b 43 9c 3f f3 a2 83 3d bc 74 71 be
       -0.16910519 1.220796 0.064275645 -0.23579687
000260 c9 89 86 3f 5a ea 95 be 18 ec 85 3e b1 b6 a4 3e
       1.0510799 -0.2928036 0.26156688 0.32170632
000270 0c 3c 42 3e e1 c3 73 bd 58 7c 20 3e 01 b0 00 bf
       0.18968219 -0.059512977 0.15672433 -0.5026856
000280 56 2f e3 3d ab b3 a0 3e 68 9f 2c 3d 9a 09 8e be
       0.11093013 0.31387076 0.04214421 -0.277417
000290 dd a5 5e 3f 1c 34 f2 3e 18 ef e7 be 60 1b a1 3e
       0.8697184 0.4730538 -0.45299602 0.31466198
0002a0 1c d9 64 3e 30 c1 8e 3e dc 12 23 3f be 1f 93 3e
       0.22348446 0.27881765 0.6370065 0.28735155
0002b0 26 98 b5 be c1 30 cf 3e f5 4c 00 3e 52 85 04 40
       -0.35467643 0.40466884 0.12529357 2.0706372
0002c0 22 13 95 3f cd 5f c8 bd c9 a9 de 3e 2e d5 00 3f
       1.1646464 -0.097838975 0.4348891 0.50325286
0002d0 5c bd f6 3e b8 18 5b be 70 24 fa 3d 31 1d 74 bd
       0.48191345 -0.21396148 0.12213981 -0.05959815
0002e0 4e 8f 18 3e eb b5 8e be 91 61 22 be 76 a6 04 3f
       0.14898416 -0.27873167 -0.15857531 0.518165
0002f0 b1 0b 04 3d e8 92 a9 3e d0 8a b7 3e 0a 05 6e bf
       0.032237712 0.33119893 0.35848093 -0.9297644
000300 2b 9b 14 3f 41 e1 15 3f 9d d3 06 bc c4 35 4b be
       0.5804927 0.58546835 -0.0082291635 -0.19844729
000310 d6 6c 23 be 03 07 95 bc 6b 09 2d be 9c 66 95 3c
       -0.15959486 -0.01819182 -0.16898124 0.018237405
000320 3a 8c 09 3f 5f e6 24 bf 52 3b ae bd e5 2f 26 bf
       0.53729594 -0.6441402 -0.08507408 -0.6491683
000330 36 7b de be d3 44 87 be 25 54 cd 3e 05 45 d2 3e
       -0.43453377 -0.26419696 0.4010326 0.41068283
000340 85 cf 35 bf 21 48 31 3f eb 7e 18 3e 47 3d 03 3e
       -0.71019775 0.69250685 0.14892165 0.12816344
000350 db 17 31 be e7 90 aa 3e 1e 0f a0 3d 97 40 8c bc
       -0.17294256 0.33313677 0.078153834 -0.017120643
000360 d8 09 79 bd c6 d9 34 3d f8 ae c9 3e 53 2f 54 bf
       -0.060800403 0.044152997 0.39391303 -0.8288471
000370 a5 bf 69 3f 9d 3d 96 3e 15 8c c2 be 5f b1 04 3e
       0.9130805 0.29343882 -0.379975 0.12958287
000380 c6 00 f2 3c 97 0a 7a be 81 78 66 3e fc 6f 8f bd
       0.029541384 -0.24418102 0.22506906 -0.07003781
000390 56 6c cc be dc 93 8b 3e f0 17 8a 3e c2 ce 16 3f
       -0.39926404 0.27261245 0.26971388 0.5890924
0003a0 c0 ee ae be a7 47 bb 3e 2e 4b 29 be 61 0c 9f be
       -0.34166527 0.36578104 -0.16532585 -0.31064132
0003b0 bb 16 36 3e 89 af a1 3c 67 e1 43 be 89 92 c1 3d
       0.17782108 0.019737022 -0.19128953 0.094517775
0003c0 ae c1 25 bb 8b 25 5f 3e 05 ff e5 3c 37 3f 10 3f
       -0.0025292444 0.21791665 0.028075704 0.5634646
0003d0 8b 22 a6 3e 46 6a 5e 3e 56 46 17 3e 5c 6e 8c 3e
       0.3244823 0.21720228 0.14772925 0.27427948
0003e0 25 f7 f3 bd 96 9c 53 be e1 a5 19 3f 44 30 98 3e
       -0.119123735 -0.20665202 0.60018736 0.29724324
0003f0 5e ad 73 3e 1b 22 af 3e 01 ab dd 3d 14 5d 8c 3e
       0.23796603 0.34205708 0.10823632 0.27414763

lstm.weight_hh_l0 f4 [512, 128]
000000 7f 2b ff 3e 60 b7 fc bd 65 5b e8 bc ee 9f 19 bf
       0.49837872 -0.123396635 -0.028363893 -0.6000966
000010 25 0c 01 be cf ac 7d 3e 25 98 a4 bd 08 12 30 3d
       -0.12602289 0.24772952 -0.08036832 0.042985946
000020 38 a8 8d be a4 4b 20 bd 3c 9e af bd 63 4a bf bd
       -0.27667403 -0.039134637 -0.08575103 -0.0934036
000030 67 71 95 bd 22 00 fb 3d 71 8b 95 be 30 fe d1 bd
       -0.072970204 0.12255885 -0.29207948 -0.102535605
000040 e0 7b ee bc f6 c6 fa be 75 ca 0a be 75 5e 93 bf
       -0.029111803 -0.4897992 -0.13553794 -1.1513201
000050 64 f5 ee be 6f 8a be 3d a3 92 32 3e 94 8c 5b 3e
       -0.46671593 0.09303748 0.1743875 0.21440345
000060 e7 b9 30 be d1 cd 54 3e 26 ed 28 3d 37 de 62 bd
       -0.17258416 0.20781638 0.041241787 -0.0553877
000070 50 6f c1 3d 16 ec 68 be f4 d0 ad 3d 3f b8 17 3d
       0.09445059 -0.2274631 0.0848712 0.037040945
000080 50 5a 46 3e 30 c0 cf bd d4 de 59 bd 31 59 54 3d
       0.19370389 -0.10144079 -0.05319102 0.051842872
000090 0f 9e 7e bd d2 f7 7e be 82 8a ec 3d 52 e0 da 3e
       -0.062162455 -0.24899223 0.11549856 0.42749268
0000a0 31 ea 88 3d 0d d8 e3 bc 99 18 84 bd 2a a6 a8 3e
       0.066852935 -0.027812982 -0.06450004 0.32939273
0000b0 64 fc 0b 3d ec c7 2d bf 1f 06 d1 3e c3 5c 41 bc
       0.034176245 -0.6788318 0.40824983 -0.011801901
0000c0 08 b0 74 be c3 b5 12 bf b5 06 9d 3e b9 7a 7b bc
       -0.23895276 -0.57308596 0.3066918 -0.015349084
0000d0 6d c1 5d 3e 5b f7 c6 3c 1f 4e bd 3d 08 79 c9 be
       0.21655817 0.02428787 0.09243416 -0.39350152
0000e0 fb 19 93 3e 79 3c 88 3e 2c c5 c5 bd b4 30 91 bd
       0.2873076 0.26608637 -0.09656748 -0.070893675
0000f0 95 9a 17 3f f8 14 5b bf 16 3f 2f be e1 63 8f be
       0.5922025 -0.8557887 -0.17113909 -0.2800589
000100 b4 b6 a1 3d 92 37 90 ba d6 0c a8 3d 4a 6c 5b bd
       0.07896176 -0.0011002889 0.08205573 -0.05357007
000110 6e 65 ce be 32 0f ad 3c 73 4e 1c be 58 7a c1 3d
       -0.4031176 0.02112541 -0.15264301 0.09447163
000120 ed e0 21 be e8 0d 94 3e 85 31 97 be e2 23 86 bd
       -0.15808459 0.2891686 -0.29529968 -0.06549813
000130 b8 3b 76 3e 88 ae 77 3e 40 18 97 3e cb 2e 0a 3e
       0.24046218 0.24187672 0.2951069 0.13494413
000140 14 d4 52 3e 7d 7c 95 bd a8 31 fc bd 5e be 31 bf
       0.20588714 -0.07299135 -0.12314159 -0.694311
000150 03 41 96 3d 53 fb 7d be 05 5a 20 3e f3 bc 11 3c
       0.07336619 -0.24802904 0.1565934 0.008895147
000160 7d 08 7a be cb 67 56 3e 9b 07 a6 bd 68 fc af bd
       -0.244173 0.20938031 -0.081069194 -0.085930645
000170 67 87 bd be 70 5c e0 3e 05 fe 99 bd 8d 15 f3 3e
       -0.37017366 0.43820524 -0.075191535 0.4747738
000180 eb d1 56 be 56 d4 e4 bd 0e 22 d1 3d 05 70 80 3e
       -0.20978515 -0.11173312 0.102115735 0.25085464
000190 56 b7 1e bc ad 22 b5 be f5 4c d3 3e b4 f1 cc be
       -0.009687265 -0.35378018 0.4126965 -0.40028155
0001a0 da 61 9a 3e 5d a4 49 be 75 1e 22 3e 4d bd 68 3f
       0.3015278 -0.19691606 0.15831931 0.9091385
0001b0 a0 99 f4 3c 1b cf 5e ba da c2 2e 3e e7 58 06 3e
       0.02985841 -0.0008499489 0.17066517 0.13119851
0001c0 6f bf 93 bd cb 5f 15 3e e8 f3 69 bd 9a 5b bf 3d
       -0.072142474 0.14587323 -0.057117373 0.093436435
0001d0 d2 3e 27 3e a5 81 1e 3e 16 fc 2e 3c ce 7f e4 bc
       0.16332558 0.15479143 0.010680219 -0.027892973
0001e0 ec 2f bd 3d bf 8b 93 bd 40 2a 51 bd 9f 8e 38 be
       0.09237656 -0.07204389 -0.051065683 -0.18023156
0001f0 ca 3f d5 3e b2 71 d6 bd 70 82 12 be a9 b0 30 3e
       0.4165023 -0.104709044 -0.1430757 0.1725489
000200 18 5d d6 be b4 50 70 3d ec 46 d5 3b db 3f 9d 3d
       -0.418679 0.058670714 0.0065086987 0.07678195
000210 af 21 33 3e ae 48 94 be a3 01 44 3d d0 70 d6 3d
       0.17493318 -0.289617 0.047853123 0.10470736
000220 9d 73 7b be aa 65 b1 3d 75 74 e6 bd 0e 09 5a be
       -0.24555822 0.08661969 -0.11252681 -0.21292517
000230 8d a1 a8 bd ff 42 37 be 65 dd 21 be 83 81 1f be
       -0.08233938 -0.1789665 -0.15807112 -0.15576749
000240 37 25 af be fb 6b 7a 3d ae 7f c1 bd a8 ef 3e bf
       -0.3420808 0.061138134 -0.09448181 -0.74584436
000250 fc 70 5b bf c0 c9 1d be d4 30 e9 bd 28 99 42 3e
       -0.85719275 -0.15408993 -0.11386266 0.19003737
000260 87 83 d8 bd b5 c5 32 bf 6a f7 e4 bd 43 42 62 bd
       -0.10571962 -0.69832927 -0.11180003 -0.055238973
000270 3a 65 e3 bd 2c f6 b6 be 99 ce 5b 3d ed 6f c1 bd
       -0.11103292 -0.3573469 0.053663824 -0.09445176
000280 59 13 a3 3e 88 e8 7c be c9 78 8c be 79 57 ac bc
       0.318507 -0.24698079 -0.27435902 -0.021037804
000290 17 31 1b be 2d 83 2f 3e fe d4 07 3e 99 1d 07 3f
       -0.15155445 0.17139883 0.13264844 0.5277954
0002a0 d1 03 3d 3e 20 1a 4d 3e ef e3 96 bd 51 59 cc 3c
       0.18458487 0.20029497 -0.07367694 0.024944933
0002b0 94 77 78 3d 62 08 32 bf 6b e9 8c 3e b8 a3 66 be
       0.060660914 -0.6954404 0.27521834 -0.22523391
0002c0 a8 e1 50 bd 1e 11 8a be 0a 88 2e 3e 6b db b3 3d
       -0.050996453 -0.26966184 0.17044082 0.08782085
0002d0 90 c4 57 be 8f 60 6e 3e 3a 41 12 3e b9 b4 2c bd
       -0.21071076 0.23279022 0.14282694 -0.042164538
0002e0 20 93 65 be 68 dc 53 bc b4 87 79 be f1 b4 38 3d
       -0.22419405 -0.012930967 -0.24368173 0.045094434
0002f0 9a c9 d3 3d 6b 12 4e bf b5 63 5a bc 83 29 dc bd
       0.10341187 -0.80496854 -0.013329436 -0.10750105
000300 bf 85 c4 3d 94 32 11 3d ca c0 84 be a8 95 d2 bd
       0.095958225 0.035448626 -0.25928336 -0.10282451
000310 84 3c a1 3c 80 e8 23 3e 56 b8 f8 be 49 4b ad 3e
       0.019682176 0.1600666 -0.48578137 0.338465
000320 a4 a7 af 3e c6 ec f9 3d 8b f2 e7 bd 2e eb b4 3d
       0.34307587 0.12203364 -0.11325558 0.088339195
000330 65 8e a2 3e 14 24 b5 bd 80 cd 03 be 11 82 26 bd
       0.31749263 -0.08844772 -0.12871361 -0.040651385
000340 df ff 03 bc 82 e2 9b 3b a3 05 97 bd 4d 27 1b bf
       -0.00805661 0.0047572264 -0.07374122 -0.60606843
000350 f1 c7 8f 3d a4 8c 11 be d8 2e 79 3e 46 52 32 bc
       0.07020558 -0.14213806 0.24334276 -0.010883873
000360 19 6f 82 3e 7b 21 8e 3d 1e 5d e3 bd 8b fe 44 be
       0.25475386 0.0693998 -0.11101745 -0.19237725
000370 c4 5e 2f 3e eb 44 e3 3e 56 a2 7b bd 78 12 8b 3c
       0.17125994 0.44388518 -0.061434112 0.01697658
000380 4a f9 0e 3e f4 bd 2c bf 4f cc fb 3d 12 7b 76 3e
       0.13962284 -0.67477345 0.12294828 0.24070385
000390 9d 51 13 3e d0 35 05 3e bf 5a f2 3d 8b 34 23 be
       0.14386602 0.13008809 0.11833715 -0.15938012
0003a0 22 9e b4 3e 9b 71 ee bb 31 9e 4e 3e 4e e6 24 be
       0.35276896 -0.0072767264 0.20177533 -0.1610348
0003b0 ae 3c 75 be d5 40 8f 3d cc d1 31 3e c9 c7 90 3d
       -0.23948929 0.069947876 0.17365187 0.07069356
0003c0 99 40 95 bd 85 dc 1a 3d 06 18 78 bd 67 28 41 be
       -0.07287712 0.03780796 -0.060569786 -0.18863069
0003d0 2d 96 10 3d 1c 9b ee 3d b2 7a 91 3d da fc 14 3e
       0.03529947 0.116506785 0.071034804 0.1454958
0003e0 5a ef 92 be 66 11 1c 3e 29 f2 87 bc f5 54 c4 bd
       -0.28698236 0.15241012 -0.016594963 -0.09586517
0003f0 e6 c9 28 3e 07 9a 6a 3e fc e4 88 be fd 11 41 3e
       0.16483268 0.2291032 -0.267372 0.18854518

lstm.bias_ih_l0 f4 [512]
000000 59 5f 0f 3e fa fa 8a bd 4d b8 eb bb 41 f8 9a 3e
       0.14001216 -0.06786151 -0.007193601 0.30267528
000010 58 93 b6 bd 98 7b 54 3e f2 03 f0 bd 25 93 a4 bd
       -0.08914822 0.20750272 -0.117195025 -0.08035878
000020 d9 f8 8e bc db 01 4f 3d 5e 92 d3 bd 1c 8f 6b bd
       -0.017452644 0.05053888 -0.10330652 -0.057509527
000030 a1 5f 74 bd 47 ae d8 bd 1b a4 3a 3d 1a 9e 26 3e
       -0.05966151 -0.10580116 0.04556666 0.16271248
000040 fb 7d 1f be fe 4f ea bc f2 0b 35 be f5 bb 30 bd
       -0.15575401 -0.028602596 -0.17680338 -0.043148
000050 ac 91 f6 3e 7a 65 e5 bd c5 f0 77 3d cc 19 4d bd
       0.48158014 -0.11200996 0.06053235 -0.05007343
000060 4f 03 95 bd ac 03 38 be e6 e6 3d bd 1c 1e b0 bd
       -0.07276022 -0.1797015 -0.04636278 -0.08599493
000070 73 48 03 be 4a 6f 1f be f5 cd 8c bd 37 9a a4 3c
       -0.12820606 -0.15569797 -0.06875221 0.020093067
000080 74 36 a3 bc fd 36 06 3e ed 77 88 3c c3 52 02 be
       -0.019923426 0.13106914 0.016658748 -0.12726884
000090 f0 8f af bd f5 21 cd bd 76 6b 3c bd 30 8b 0e 3e
       -0.08572376 -0.100162424 -0.04600092 0.13920283
0000a0 72 26 e6 3d 80 94 a4 bd 32 f1 00 3c f4 cf a2 bc
       0.112378016 -0.080361366 0.007870005 -0.01987455
0000b0 d9 d0 a1 bd 53 0a 7e 3f e5 f1 0b 3d 23 bf 3b 3c
       -0.07901163 0.99234504 0.034166235 0.011459145
0000c0 79 61 c8 bd 3e 59 1e 3c 3d c6 02 bc be 3e 8f bd
       -0.097842164 0.009664832 -0.007981834 -0.06994389
0000d0 96 65 ea 3b 69 af e8 3b d0 3d cb bd e9 03 ec 39
       0.0071532233 0.0071009886 -0.09923899 0.0004501634
0000e0 c1 91 10 be a8 05 d4 bc fc 40 c2 bd 02 36 c9 3d
       -0.141181 -0.025881603 -0.09485051 0.09824754
0000f0 ff a5 38 be 56 f3 72 3f 89 91 70 3d 12 6b ce bd
       -0.18032072 0.9490255 0.058732543 -0.10079016
000100 e0 92 22 3d 8e 90 77 be ec f7 cc bd 99 93 1e be
       0.039690852 -0.24176237 -0.10008225 -0.15485992
000110 f1 36 0f 3e 60 28 df bd ab 00 b8 3b 9d 5b 41 3e
       0.13985802 -0.10896373 0.005615314 0.18882604
000120 4d 33 28 bd 56 c0 96 3b de be 05 3e ad 56 f4 bd
       -0.04106455 0.004600565 0.13061091 -0.119305946
000130 ff 70 8d be b1 2e d4 bd 38 a8 0a be 5b 32 d9 bd
       -0.27625272 -0.10360468 -0.13540733 -0.10605308
000140 53 e1 04 3e 9a 30 c6 bd e2 b8 1f be 3b 21 aa 3d
       0.1297658 -0.09677239 -0.15597871 0.083071195
000150 bf 0b 9e bb ff d7 3b be b8 52 f2 bd c6 91 ab 3d
       -0.0048231776 -0.18344115 -0.118321836 0.083774135
000160 a3 62 06 be c6 50 94 3d 49 20 b1 3c fd a2 11 be
       -0.13123564 0.07241969 0.02162184 -0.14222331
000170 89 c6 fa bd 97 85 f0 3e 4b 59 5e bd 21 6c 34 3d
       -0.12244899 0.4697692 -0.054284375 0.044048432
000180 6f b7 4c 3d 2c bf 09 3e de 22 42 be c0 85 57 3c
       0.049979623 0.13451833 -0.18958613 0.013154447
000190 b8 3f 96 bc bd b7 da 3d 8a a0 72 be fe e4 d9 bd
       -0.01834093 0.106795765 -0.23694053 -0.1063938
0001a0 00 e3 06 bb 00 08 13 be 4f a5 8b bc 2f 7b 13 be
       -0.002058208 -0.1435852 -0.017046599 -0.1440246
0001b0 83 21 86 be 32 4a 71 bd 8a b9 e7 bc 4b fb 59 3e
       -0.26197442 -0.05890865 -0.028286714 0.21287267
0001c0 4e a7 8e 3c 51 1b 0e bd ac e2 75 3e 04 46 5a bd
       0.017413761 -0.03469402 0.2401225 -0.05328943
0001d0 e8 95 dd 3a 43 b6 2d bd 7e 0b 75 be 1a c0 d8 bd
       0.0016905637 -0.042410146 -0.23930165 -0.105835155
0001e0 a7 7a c2 bc a4 c9 09 3e 28 c6 d0 bd 19 6a 29 be
       -0.023740126 0.13455826 -0.10194045 -0.1654438
0001f0 d2 ce f1 bd d3 6e 47 bd ae e7 11 bd b3 d8 22 be
       -0.11807026 -0.048689675 -0.035621338 -0.15902977
000200 66 fd 02 bc 7c c8 21 3d 56 7d c7 bd 98 fd 03 be
       -0.007994985 0.039497837 -0.09740703 -0.12889707
000210 38 ef 55 be 0e a6 28 3b ef 08 1e be e0 55 9a 3d
       -0.20892036 0.0025733742 -0.15433095 0.075359106
000220 2e 13 f8 3d 06 e3 52 be 9f c5 1b be 7e db 08 3e
       0.12113033 -0.20594415 -0.15212105 0.1336498
000230 f2 62 c3 3c ea 75 e2 3c f0 89 ee be 57 c3 7a be
       0.023850892 0.027644116 -0.46589613 -0.24488579
000240 29 ce 58 3e 47 42 29 bd c1 74 0c 3b 18 ec 48 bf
       0.21172394 -0.041322973 0.0021431895 -0.7848525
000250 d0 73 a9 be cd 1c 94 be d2 8a 00 be aa 51 96 3d
       -0.3309617 -0.28928223 -0.12552956 0.07339795
000260 5b 5f 16 3e d0 0c 80 bd c5 65 48 be 56 97 86 be
       0.14684813 -0.06252444 -0.19570072 -0.26287335
000270 e9 10 26 be 44 1b b0 be 54 55 57 bd c4 cb 44 3d
       -0.16217388 -0.34395802 -0.05257161 0.04804589
000280 bd 20 5f be 5f eb 3e 3d af fe 20 be e6 54 3f bc
       -0.21789832 0.046611186 -0.15722154 -0.011677956
000290 54 34 60 bd c6 0d 0e be 28 91 40 be 85 3b 47 bc
       -0.054737404 -0.13872442 -0.18805373 -0.012160187
0002a0 d9 a6 bf 3c b1 86 74 bd 64 55 0e be cc 8e 79 be
       0.023394989 -0.059698764 -0.13899761 -0.24370879
0002b0 26 66 03 be bd ac c0 3e 99 bc 3d 3e 5d c5 79 bc
       -0.12831935 0.3763179 0.18528976 -0.015244809
0002c0 d2 ef c5 bd 84 a1 c7 bd c3 47 fa be 83 9d 15 be
       -0.09664883 -0.097476035 -0.48882875 -0.14610867
0002d0 59 bf 66 be fd 8d 08 be a2 db 9a bd 9e 5a 2f 3e
       -0.22533931 -0.13335414 -0.07561423 0.17124411
0002e0 bb e7 d3 bd 85 37 75 3c 8f 63 9f 3b 6c 40 26 be
       -0.103469335 0.01496685 0.004864163 -0.16235512
0002f0 c2 42 20 be 8a be bc be 1f b9 43 3e cf 00 28 bd
       -0.15650466 -0.3686412 0.19113587 -0.041016396
000300 72 72 c7 bd a2 cb 04 bf 14 77 2b be cd ff b9 3c
       -0.097386256 -0.5187322 -0.16744643 0.022704983
000310 97 d4 e9 be d4 c3 97 be c9 8d 44 3e af 3e b0 be
       -0.45670006 -0.29641593 0.19194712 -0.34422824
000320 e6 85 09 bd db 2e 4c 3e fb 5c 42 bd bf 8f 0a 3c
       -0.03357496 0.19939749 -0.047451954 0.008457123
000330 3e 8e c8 be 3c 5e 2b 3e d9 2f 40 be ac 5a 4f 3d
       -0.39171022 0.16735166 -0.18768252 0.05062358
000340 57 ec 85 bd f6 49 2f bd 00 04 c7 3c 3a 20 e2 be
       -0.06539219 -0.042795144 0.0242939 -0.44165212
000350 48 9c a0 3b a0 a9 40 be fc 19 14 3e 58 75 df bd
       0.0049014427 -0.18814707 0.14463037 -0.109110534
000360 f2 ab 13 be 22 03 10 3c 56 a0 1f 3d e2 af d0 bd
       -0.1442106 0.008789809 0.038971268 -0.10189797
000370 5f 12 2b bf 90 bc a9 3d a4 e9 1c be 6c 9c de be
       -0.6682491 0.082879186 -0.15323502 -0.43478715
000380 e3 aa 70 bd 7e cc 64 be 40 86 b6 bd f4 df ad 3d
       -0.05875672 -0.22343633 -0.08912325 0.08489981
000390 b5 2c 48 3e 58 c4 67 3d b5 08 f9 bc 52 6a f7 3d
       0.19548304 0.056583732 -0.03039966 0.12080826
0003a0 95 a7 8d bd a7 c8 bb bd ae 01 ee bd 17 9c ff bb
       -0.06916729 -0.09169131 -0.11621414 -0.00780059
0003b0 2a 80 47 be 98 f6 a3 bb ec c7 aa 3d e4 bd 5e bd
       -0.19482484 -0.0050037615 0.08338913 -0.054380313
0003c0 0e f8 57 3d d1 a8 97 be 8c 5c f8 3d d4 17 b3 3d
       0.052726798 -0.29620984 0.12127027 0.08744779
0003d0 44 1b 19 be a6 0c da bd 54 b1 cc bd e1 93 2f be
       -0.14951807 -0.10646944 -0.0999476 -0.17146255
0003e0 a5 66 41 be 42 0b 81 be b7 0c 5b bd d8 80 a1 3d
       -0.18886812 -0.25203902 -0.053478923 0.07885903
0003f0 bb 40 ed be 49 5f d3 3c 85 73 22 be 55 d9 81 be
       -0.46338448 0.025802271 -0.1586438 -0.25361124

lstm.bias_hh_l0 f4 [512]
000000 6c b6 37 3e 54 fb 26 be 7c 05 a3 bc 9a ea a5 3e
       0.17940682 -0.16306812 -0.019900076 0.3240555
000010 8b 0b 9b bd a5 20 54 3e 89 93 0c be 6b 6f c5 bd
       -0.07570561 0.20715578 -0.13728155 -0.09640392
000020 5c 3c 25 3d 3b b4 61 3d 36 47 d4 bd bb b6 fc bb
       0.040340766 0.05510352 -0.10365145 -0.007712213
000030 20 09 a1 bd 95 8c 37 bd 62 65 5b 3d e1 d6 a0 3c
       -0.078630686 -0.044811804 0.053563483 0.019633712
000040 b3 bc be bd c8 e8 cc 3d 3a bb d1 bd 07 55 be bc
       -0.09313335 0.10005337 -0.10240789 -0.023233904
000050 25 7e ef 3e 9e 4b c2 bd 6e 1d 70 bd ec 1c 6a bd
       0.46775928 -0.09487079 -0.058621816 -0.05715649
000060 5f 52 7f 3c 39 15 2f be 18 56 23 bb f8 de 28 3d
       0.015583604 -0.1709794 -0.0024923142 0.041228265
000070 12 5e c7 bd ed a7 2b be 25 76 04 be 21 74 1e 3e
       -0.09734739 -0.16763277 -0.12935694 0.15473987
000080 48 e5 e6 3b 52 bf 67 3d 31 98 aa 3d 74 f0 0d be
       0.0070463754 0.05657894 0.083298095 -0.13861257
000090 46 0d ba bd 95 c2 4b be 5c 00 a3 3c d1 ad ae 3c
       -0.09084563 -0.19898446 0.019897632 0.021323116
0000a0 72 70 f5 3d 45 c2 11 be 00 a3 6c 3d d0 1c 1e 3d
       0.11984338 -0.14234264 0.057772636 0.038601696
0000b0 9f bb e5 bd 6a 56 55 3f 0a 40 7d bd 42 4e ed bd
       -0.112174265 0.8333498 -0.06182865 -0.11587192
0000c0 73 b0 a1 bc 0f 91 a5 ba ac 12 74 bd 91 f3 b4 bd
       -0.019737458 -0.0012631732 -0.05958812 -0.08835519
0000d0 59 98 57 bd 14 60 fa 3a 6f 91 b4 bc 26 63 8c 3d
       -0.052635524 0.001910212 -0.022042004 0.068548486
0000e0 06 8d 45 be a0 58 25 3a 85 86 a6 bd dd d5 07 3e
       -0.19292077 0.00063074566 -0.08131126 0.13265176
0000f0 ea f3 23 be 10 7e 87 3f 11 74 8f 3c 0b cc 27 be
       -0.16011015 1.0585346 0.0175114 -0.1638643
000100 5e 24 b3 3d cf a5 54 be c9 57 a4 bd a4 54 ce bd
       0.08747171 -0.20766376 -0.08024556 -0.10074738
000110 2d b3 f1 3d 4b 52 11 be aa 8b 28 3d e0 42 6a 3d
       0.11801753 -0.14191549 0.04114882 0.057192683
000120 b0 d2 60 3d d7 50 23 3e 1b d8 7b 3d b4 e0 26 3b
       0.054888427 0.15948807 0.06148539 0.0025463523
000130 24 af 7e be f5 2f 11 bc 26 84 0b be 27 49 07 be
       -0.24871498 -0.0088615315 -0.1362463 -0.13211499
000140 68 ce ae 3d 2d 63 4b be 80 6c 57 bd 7d d1 2f 3d
       0.085354626 -0.19862051 -0.052593708 0.042924393
000150 89 0e fe 3c 5c b1 6b be e0 89 14 be cc 98 3e bd
       0.03101279 -0.23016876 -0.1450572 -0.046532437
000160 ac 5e b4 3c 2b f4 e4 bc d7 29 1a 3d 7d 1b a2 bc
       0.0220178 -0.02794846 0.037637558 -0.019788498
000170 78 ba f6 bd 68 63 05 3f 83 2d a0 bc d2 eb a7 3c
       -0.12047285 0.52104807 -0.019552952 0.02049819
000180 08 6e b9 3d 5d 93 8c 3e 46 b3 8c bd cc c8 c4 3d
       0.0905419 0.2745618 -0.06870131 0.096086115
000190 ae 90 ab bc d6 5b 88 3d fb 2f 87 be 3f 79 a7 bc
       -0.020943012 0.06658141 -0.26403794 -0.020443557
0001a0 d8 2d 88 bd bf 03 52 bd 88 ab 97 3d 11 c0 20 be
       -0.06649369 -0.051273104 0.07405764 -0.15698268
0001b0 d9 68 84 be 22 04 74 bd 78 0f 10 be 8a ed 63 3e
       -0.25861242 -0.059574254 -0.14068401 0.22258583
0001c0 fc a8 8c 3c 4a 33 9a bc 53 ef 09 3e 30 5e b6 3d
       0.017170422 -0.018823285 0.13470201 0.089046836
0001d0 f9 69 2d 3d 67 af f0 bd b7 5c 89 be bb 41 cd bd
       0.04233739 -0.11752205 -0.26828548 -0.10022303
0001e0 eb 88 13 bd 75 f0 09 3e 4b c2 f4 bd 73 72 bf bd
       -0.036019247 0.13470633 -0.11951121 -0.09348001
0001f0 83 0c da bd a8 90 3a bd 38 ac b7 3d 91 85 17 be
       -0.10646918 -0.04554811 0.08968395 -0.14797045
000200 c4 5c 0b be b4 a1 58 3d bf e3 a2 bd a7 60 0a be
       -0.13609606 0.052888587 -0.07953595 -0.13513432
000210 25 d0 73 be b5 d3 cb 3c f5 98 7c be ca d9 66 bc
       -0.2380987 0.024881223 -0.24667723 -0.014090011
000220 39 18 21 3e 02 23 8c be 1b 0c cc bd 99 29 15 3d
       0.15731896 -0.2737046 -0.099632464 0.036416624
000230 95 74 ab bd 08 67 98 3d 6d a7 df be b2 82 a4 be
       -0.08371846 0.07441527 -0.43682423 -0.32130963
000240 16 38 a1 3e 4d b2 b8 3d 95 26 60 3d 3a ca 37 bf
       0.31488103 0.09018383 0.054724295 -0.7179295
000250 66 ca 81 be 62 b2 cb be 48 52 47 bd 5e 7b c2 3c
       -0.2534973 -0.39784533 -0.048662454 0.023740467
000260 71 f5 3c 3e a5 ac 36 3d de 90 62 be 23 21 89 be
       0.18453003 0.04459824 -0.22125575 -0.26783094
000270 5e 2a 8a be dd 17 8b be af 5e 91 bd f1 c8 37 3d
       -0.2698545 -0.27166644 -0.070981376 0.044869367
000280 bd 35 6e be 1f 7d e9 bb 05 66 46 be c1 f6 a8 bd
       -0.23262687 -0.0071255113 -0.19374855 -0.082501896
000290 34 82 89 bd 2f 3f 0d be 4f 19 4d be 73 2d 02 bd
       -0.067142874 -0.13793634 -0.20029186 -0.031781625
0002a0 fc 89 c4 bd 5d 19 49 be 74 22 5c be 1a f7 3c be
       -0.09596631 -0.19638582 -0.21497518 -0.18453637
0002b0 8a 55 2a bd 32 b3 a9 3e 62 a9 16 3d cd 89 b6 bd
       -0.041585483 0.33144528 0.03678263 -0.08913002
0002c0 10 52 b9 3a 26 45 67 be 71 e5 a7 be 6a 66 b2 bd
       0.0014138836 -0.22584972 -0.32792237 -0.0871094
0002d0 44 3f bb bd e6 94 19 be e1 f8 43 be 22 5c 5f 3e
       -0.09142926 -0.14998206 -0.19137909 0.2181249
0002e0 c3 94 8c bc a4 f1 62 bd 81 fb 01 be a8 05 38 be
       -0.017160779 -0.055406228 -0.12693597 -0.17970908
0002f0 8b 05 28 be 1a 7b fe be da f3 26 3e 4e a1 a4 bc
       -0.16408364 -0.49703294 0.1630396 -0.020096447
000300 f4 44 bb bd 7e b0 04 bf 80 e6 4a be 64 22 8b 3c
       -0.09144011 -0.51831806 -0.19814491 0.016984172
000310 89 6a d3 be ef 52 5f be d7 19 3b 3e a4 21 59 be
       -0.41292217 -0.2180898 0.18271576 -0.21204239
000320 52 fb d1 bd 98 ed 92 3e 27 68 1d be 5e 58 82 3c
       -0.10253014 0.28696895 -0.15371762 0.015911277
000330 75 18 91 be 0a b3 7c 3d 47 34 87 be 1a 99 1c 3e
       -0.28338972 0.061694182 -0.26407072 0.15292779
000340 3f a5 a2 bd 77 6e e9 bc e6 3b 51 bd b8 e5 a3 be
       -0.079416744 -0.028495057 -0.051082514 -0.320112
000350 da d1 73 bd 97 fe f2 bd a9 2c 26 3e f4 21 c3 bd
       -0.059526302 -0.118649654 0.16227974 -0.095279604
000360 31 2f f0 bd 5b 8e 9d bc 93 6a c4 bc 7d 7b 3d be
       -0.11727751 -0.01923292 -0.0239766 -0.18504138
000370 38 51 2a bf 75 ad 29 3d 2d 24 33 be a7 ac e6 be
       -0.6653018 0.041425187 -0.17494269 -0.45053598
000380 3b 58 b3 3c 07 df 83 be 82 ea 8b 3d 7a 05 4e 3d
       0.021892658 -0.25756094 0.06831838 0.05029819
000390 30 dc 40 3e 4f ef a9 bc 99 37 14 be c9 76 50 3d
       0.18833995 -0.020743994 -0.14474334 0.050894532
0003a0 5b 87 6a be 40 d0 8b bd 9f 09 7a bd 3f b4 f9 bc
       -0.22903197 -0.0682683 -0.06104433 -0.030481456
0003b0 10 1a 47 be 90 32 af 3d ec 8b de 3d e1 5f 8a bd
       -0.19443536 0.08554566 0.10866532 -0.06756569
0003c0 98 6c e0 bd 48 a8 5f be 18 6f 00 3e 98 81 4f 3e
       -0.109582126 -0.21841538 0.12542379 0.2026428
0003d0 89 e2 3a bd 44 96 64 bd 18 a5 6f 3d 20 42 ca bd
       -0.045626197 -0.055807367 0.058507055 -0.098758936
0003e0 46 83 9b be 13 7f a2 be 99 3f 9c bd 8e 93 2d bd
       -0.3037359 -0.31737575 -0.07629318 -0.042377047
0003f0 3c af ac be be 8e 9a bd 12 22 60 be 44 8f 85 be
       -0.33727443 -0.07546757 -0.21887997 -0.26085865

fc.weight f4 [1, 128]
000000 f5 b6 0e 3e 27 32 3e 3d 9c c3 f2 3d 7d 3b ed 3d
       0.1393698 0.046434548 0.11853716 0.11583612
000010 70 42 d7 3d 49 d2 d2 bd 99 c3 73 3d d1 9e 50 3d
       0.10510719 -0.10294015 0.05951271 0.05093271
000020 2c 92 ec bd df d0 d2 3d 41 70 b8 bd 5e 04 f4 bd
       -0.115513176 0.10293745 -0.09005786 -0.119148955
000030 64 a7 be 3d 6d a5 b8 bd 7a 90 a1 3d 5c 3b bf bd
       0.09309271 -0.090159275 0.07888885 -0.09337494
000040 65 f7 c1 bd 4d 42 02 be 6c ec 17 3e ad db 60 3e
       -0.09471015 -0.12720604 0.14836282 0.219588
000050 8b 40 b6 3d 3d 37 9d 3e 22 aa 05 be b5 f5 dd 3d
       0.08899029 0.30706206 -0.13053182 0.108378805
000060 dc 3a b1 bd d3 d0 c7 bd 1d 02 78 bd 43 c5 d2 bd
       -0.08653805 -0.09756627 -0.06054889 -0.10291531
000070 9d 75 0b be 60 78 d0 bd 65 4d e3 3d ce d3 a5 bd
       -0.13619085 -0.1017921 0.11098746 -0.08097039
000080 b8 80 ac 3d 47 a5 ed bd fe 7f df bd 1f 7b a3 3d
       0.08422989 -0.1160379 -0.109130844 0.07982468
000090 5d b1 ae bd 08 8b cc 3d 08 a9 01 be 85 53 59 be
       -0.08529923 0.099874556 -0.12662137 -0.21223266
0000a0 7a b9 12 be 90 54 be 3d d4 e4 56 3e cf 2d 9c 3d
       -0.14328566 0.09293473 0.20985729 0.07625925
0000b0 10 44 02 3e d2 d0 bd bd b0 1f 95 3d d4 6c 9c bd
       0.12721276 -0.09268345 0.072814345 -0.07637945
0000c0 11 07 3f be b3 14 af 3d 18 73 11 be ab 35 83 bd
       -0.1865504 0.0854887 -0.14204061 -0.06406721
0000d0 10 f5 e9 bd e6 9e cc 3d 4b 2a aa 3d 5d 3a d0 bd
       -0.11423695 0.09991245 0.08308848 -0.10167382
0000e0 9e 1d 9a 3d dd 80 fd 3d 12 47 f9 bd c6 6f 1d be
       0.0752518 0.12378094 -0.12171759 -0.1537467
0000f0 ed 20 cd 3d 50 f2 69 3e 15 4f be bd 1b 11 3c bd
       0.10016046 0.22846341 -0.092924275 -0.04591475
000100 c4 bf 06 be be 22 d5 3d 05 26 e9 bd 76 73 97 bd
       -0.1315909 0.10407017 -0.11384205 -0.07395069
000110 07 da 16 3e 9b 4b b6 3d 61 5a b9 bd be e1 ea 3d
       0.14731608 0.08901139 -0.090504415 0.11468838
000120 25 98 12 3e 6f cf 98 3d cf 05 ca bd 39 12 14 3d
       0.14315851 0.0746144 -0.09864389 0.03615019
000130 71 be 15 3e 9a 8f a5 bd 9d 0d 14 be 5e f2 f6 bd
       0.14623429 -0.080840304 -0.14458318 -0.120579466
000140 00 e8 1d 3e 11 bb fe bd d9 e9 86 bd 66 34 2c 3e
       0.15420532 -0.12438024 -0.06587572 0.16816863
000150 af 10 2c 3e 91 e0 2c bd 64 38 0c 3e c8 a7 62 bd
       0.1680324 -0.04220635 0.13693386 -0.05533579
000160 6e 83 be bd 5e c1 01 3e c6 4b 0a be 30 68 c0 bd
       -0.09302412 0.1267142 -0.13505468 -0.09394872
000170 fa 49 7e 3e 33 cb a2 3d 53 9a ee bd 87 d5 be bd
       0.24832907 0.079489134 -0.11650529 -0.09318071
000180 96 d0 ce 3d d1 60 b8 bd 4c a0 4f 3d cb 7b ca 3d
       0.10098378 -0.09002841 0.05068998 0.09886893
000190 da 27 1a 3e 42 e9 12 be df f3 22 3e e6 cc ed 3d
       0.15054265 -0.14346793 0.15913342 0.11611347
0001a0 af 9e 3f 3d 5e 0f c7 bd 62 03 83 3d 91 b1 58 be
       0.04678219 -0.09719728 0.063971296 -0.21161486
0001b0 4f 88 39 bd fd dd 1a 3e a8 de 95 3d 11 1e ea 3d
       -0.04529601 0.15123744 0.07317859 0.11431516
0001c0 0f c7 c3 bd 0f 3d 45 3e fd 69 57 3d bd 7c f1 bd
       -0.09559452 0.19261573 0.052591313 -0.1179137
0001d0 8f ac 09 3e 62 78 0b 3e 27 20 04 3e 35 0c b0 3d
       0.13444732 0.13620141 0.1290289 0.08596078
0001e0 5d aa e7 bd d0 24 2c be fe 89 0d be a8 ac 69 bd
       -0.11311791 -0.16810918 -0.13822171 -0.057049423
0001f0 ac 1f 9d bc e2 73 ec 3d f2 8a ca bd 2a c9 38 3d
       -0.019180141 0.115455404 -0.09889783 0.04511372
