saved_tcn_models_cv/inference_tcn_period_66pct_pca_True.pth (torch, 29044 bytes, 25 tensors)

network.0.conv.weight f4 [16, 6, 3]
00000000: 205a 5cbd 72ad a03e d06a a73d dfdc 0e3e
00000010: 2210 86bd 5af8 713c fa15 8f3d adaa 613e
00000020: 63ed 55be dc7b 9bbd 18dc 713e 4e44 85bd
00000030: 6ab1 21be aaa7 89bc 7885 d9bd ca52 9dbe
00000040: d8ab 213d 4365 5b3e 54fe 8f3e 8337 8fbd
00000050: 374f 4abe 0311 a53c c7b8 8bbd 4018 333d
00000060: 0149 133d d957 d1bd e16f 72be c82d af3c
00000070: c860 a03d b9f1 cd39 c97e b5be fb5a b7be
00000080: 5847 68be 27fa eabe 6ee4 9bbe 924b 613e
00000090: f9b1 073c ccbb 183e d784 69bd 2540 723c
000000a0: bb1e 42be 938a 50be 098f eebc 84c2 d0be
000000b0: 176e cb3e 33b0 2b3d b4c6 b23d 8f98 a4bc
000000c0: 0dec 4fba c81c 8cbe 875b 88be 3837 f43d
000000d0: f99c 85be 96d8 66bc f0bf d73d 91da e43d
000000e0: c863 afbd 26c3 263e 39e4 01be 4412 4bbe
000000f0: 5561 0dbe a7d4 e43d 1d29 dc3d e8f2 613e
00000100: 911d 40bd d277 e33e e82d cbbd c098 f83d
00000110: 4eee a03e eef6 0a3f f38f 6e3d 99e6 173d
00000120: 516f a63e 9c2a 2e3c 3582 fb3d d120 26be
00000130: 1084 dc3d e9f4 e13d ee45 bf3c f1b6 1fbe
00000140: 7184 973d 372d e3bd 83b9 52bc 7289 e9be
00000150: d522 173e 8851 26be 1a0d aabe f1dd 833c
00000160: bb95 a2be 6dc6 bcbe 9e57 0a3e 65f2 bbbe
00000170: e3d2 fe3b fa02 7abe 17a4 3bbe 3a0d a93d
00000180: 3b5c fb3c adb7 70be d3f9 fabd b2b5 2fbe
00000190: 716d 9cbe 4a43 6238 5346 373e b459 22be
000001a0: a050 a6bd bba4 3bbe fb29 ff3c f363 2e3e
000001b0: 7689 2dbd a199 413d dba1 ddbd 5530 5cbe
000001c0: 30d0 a13e 3610 b0bd 82f0 8f3e 41cd 9abd
000001d0: 1105 8dbd af81 e93d 0edb 093e 1de7 0b3e
000001e0: de3c 24be 50fa 353e a85f a93e ccfb 8a3e
000001f0: f394 fe3d 5136 1cbe 58cd 9abe ef3e 8ebe
00000200: ada4 83bd 0ebf 3ebe df06 af3e a48b 91bd
00000210: dae2 7ebd 7bf0 4e3e 9f6e 9abe 744a 81be
00000220: 04e0 24be bd4b aebd 6a24 133d af34 d13d
00000230: bf81 51be b6a7 5ebe 2c30 643e 7362 89bb
00000240: 2e23 48bd f3da 9fbe 6d01 083e a9a5 e1be
00000250: ebe3 383e 5456 503e 26e6 c53e 0ef7 7b3e
00000260: f210 483d 5b62 623d c30e b43d c2c6 9d3d
00000270: a44a 1c39 ae3b d3bd 0a1a 233e 4255 243d
00000280: 6092 763c 124c 613e 28fe 9c3e 1094 b33d
00000290: f8f6 203e b01f a93d 2e7e 0a3b 90ab 723d
000002a0: 8055 913d 3b72 603d cf77 50bc 538e 85be
000002b0: bbda b23c dceb 313e 72f1 e23d a4d7 24bd
000002c0: 0d4a 2dbe 37aa b73c bbc8 4dbd 7260 053f
000002d0: eb91 373c dadf 32bb b649 173c a8fc 6b3e
000002e0: 22f7 033e 0243 f53d 698c d0bc 67f2 303e
000002f0: 0d53 bf3e a1a1 6fbe 7f52 7f3e dbff 98bd
00000300: 8a44 aa3d 4c16 b33e 3c40 acbd 6fa8 b2bb
00000310: e095 9c3e 092e 033e d89c 803d bc87 86bd
00000320: 7aeb cabc d838 1b3d ae6c 95be 48b5 73be
00000330: 2a9c 4cbe 0ca4 a1bc 0c69 0cbe 00d8 7d3e
00000340: 2269 24be d0b2 343e 9df1 2c3d b2e8 383b
00000350: 3a6b 913e d3ed 053e e761 563e f97b c4be
00000360: 8259 bcbe 7cf6 603d 087f f53d 06e4 58be
00000370: 8a29 a63d 2508 c2bd 12a6 bc3e 15fd b6bd
00000380: 1578 263e 72c4 b4bd 765e 453e 8a84 02bc
00000390: 17d1 13bd fa7c 98bc 3893 16be 3fac 25be
000003a0: 7071 e73d 0b25 663e fdc5 233e 73cf ed3d
000003b0: c258 163d 7ec3 803e dd0b 86be 55dc bc3d
000003c0: 994c 263e 6b92 073d 2e5d 7a3e eaa1 1cbe
000003d0: 14a3 98bd ee94 ab3e 0c25 7bbe 2c8f 333e
000003e0: 343f cebd 8a4a 743c ffe9 303e 794b c93e
000003f0: 3457 c3bc 5cab 973d 28ee 84be b525 58bd
-0.053796887 0.31382328 0.0817467 0.13951443 -0.06546046 0.014768684 0.069866136 0.22037764
-0.20891337 -0.07591984 0.23619115 -0.06507169 -0.15790334 -0.016803581 -0.1062116 -0.30727226
0.039470524 0.21425347 0.28123724 -0.0699301 -0.1975678 0.020149713 -0.06822353 0.0437243
0.035958294 -0.10221834 -0.23675491 0.021384135 0.078309596 0.00039280744 -0.35448292 -0.358116
-0.22683465 -0.45893976 -0.30447716 0.22001484 0.008282178 0.14915389 -0.05701145 0.014785801
-0.18957035 -0.20365362 -0.029120939 -0.40773404 0.3973243 0.041916084 0.08729306 -0.020092277
-0.00079315976 -0.27365708 -0.2663233 0.11924595 -0.26096323 -0.014089724 0.10534656 0.11174501
-0.08563954 0.1628538 -0.12684716 -0.19831187 -0.1380666 0.11173373 0.10750029 0.22065318
-0.046903197 0.44427353 -0.09920865 0.1213851 0.31431812 0.54283035 0.05824275 0.03708515
0.32506803 0.010630276 0.122806944 -0.16223456 0.107673764 0.11033041 0.023348775 -0.1559713
0.07398308 -0.110926084 -0.012861612 -0.45612675 0.14759381 -0.16242039 -0.3321312 0.01609704
-0.3175486 -0.36870137 0.13509986 -0.3670837 0.0077766045 -0.24415198 -0.18324314 0.08254476
0.030683627 -0.23507567 -0.122546814 -0.17159155 -0.30552247 5.3945267e-05 0.1789792 -0.15854532
-0.08120847 -0.18324558 0.031147948 0.17030315 -0.04236742 0.047265653 -0.10821887 -0.21502812
0.31604147 -0.08596842 0.2811318 -0.0755868 -0.06885732 0.11401688 0.13462469 0.13662381
-0.16038844 0.17771268 0.33080792 0.2714523 0.124307536 -0.15255095 -0.3023479 -0.2778239
-0.06427894 -0.18627569 0.3418493 -0.071067125 -0.06222806 0.20208924 -0.30162522 -0.25252116
-0.1610108 -0.0851054 0.0359234 0.10215127 -0.2045965 -0.21743664 0.22284001 -0.0041926443
-0.048861675 -0.31221732 0.13281794 -0.440717 0.18055694 0.20345432 0.38652152 0.24605963
0.048844285 0.05526958 0.08791878 0.07703926 0.00014905125 -0.10314117 0.15927902 0.04012037
0.015049547 0.22001675 0.30662656 0.08768475 0.15719211 0.08257997 0.0021132338 0.059245646
0.07096386 0.05479644 -0.012723877 -0.26085147 0.021832814 0.1737513 0.11081208 -0.040244713
-0.1692278 0.022420032 -0.05024026 0.5210029 0.011204223 -0.002729407 0.009233883 0.230456
0.12887242 0.11975671 -0.025457578 0.17279969 0.3736805 -0.234015 0.24933814 -0.074706756
0.08313854 0.3497795 -0.08410689 -0.0054522078 0.30583096 0.1281053 0.062799156 -0.06568858
-0.024770487 0.037896007 -0.2918448 -0.23799622 -0.19981447 -0.019731544 -0.13711947 0.24789429
-0.1605573 0.17646337 0.042222608 0.002821487 0.2840212 0.13079004 0.20935784 -0.38375834
-0.3678704 0.054922566 0.1198712 -0.21180734 0.08113392 -0.0947421 0.36845452 -0.0893499
0.16256745 -0.088265315 0.19274315 -0.00796617 -0.036088075 -0.018614281 -0.14704597 -0.16178988
0.11300933 0.22475068 0.15993495 0.116118334 0.03670574 0.2514915 -0.26180926 0.092217125
0.16240157 0.03309862 0.24449608 -0.1529614 -0.0745298 0.33512062 -0.24525851 0.17535084
-0.10070649 0.01491035 0.17276762 0.39315394 -0.023845293 0.07405731 -0.2596295 -0.052770335

network.0.conv.bias f4 [16]
00000000: 23d2 8c3d c163 613e c423 083d f223 a5bb
00000010: ae6b 723e 3b40 843d 5396 d3bc 79bb 9c3d
00000020: 2921 6c3d 382a c7bc 3a4c 3c3e eb55 ddbd
00000030: bd5b 99be acea a5be 1be6 b33e 8ba3 a2bd
0.06876018 0.2201071 0.033237234 -0.0050396854 0.23673889 0.064575635 -0.025828516 0.07652945
0.05764881 -0.024312124 0.18388453 -0.10807403 -0.29952803 -0.32405603 0.35136494 -0.079413496

network.0.norm.weight f4 [16]
00000000: 180d 6d3f e568 8b3f 3306 793f 92b2 8f3f
00000010: d1c1 7f3f 7a83 603f 5197 863f d363 923f
00000020: d197 833f e403 6e3f d72c 4e3f bff0 723f
00000030: 4a58 983f f346 7a3f a3e5 833f 7a01 813f
0.92598104 1.0891386 0.97275084 1.122637 0.99905115 0.8770062 1.0514928 1.1436714
1.0280706 0.92974687 0.8053717 0.948986 1.1901944 0.9776451 1.0304455 1.0078576

network.0.norm.bias f4 [16]
00000000: b70a d73d d2f9 503e adc4 743d a344 27be
00000010: a98d d53e 239a 06bc b2a4 ef3c 1c42 103d
00000020: a36c 42bc d384 4bbd 7a01 973e 640f 113e
00000030: 87f3 063d 7483 4abe 83fc bc3d 4255 943e
0.105000906 0.20407799 0.059757877 -0.16334777 0.4170964 -0.00821546 0.029253338 0.035219297
-0.011866721 -0.049687218 0.29493314 0.14166027 0.03294709 -0.19776708 0.0922785 0.28971297

network.0.norm.running_mean f4 [16]
00000000: ccb5 d63c 8db3 243e fb91 833d 8146 8e3e
00000010: 6c70 60bd fa09 8a3d 79c0 ca3d 5a22 99bb
00000020: a257 6f3d 29c0 64bc 1945 263e 97e6 9e3d
00000030: a110 99be 6ebb 62be 0bba b73e 90ed 28bd
0.026209734 0.16084118 0.06424328 0.27788165 -0.054794714 0.06740184 0.098999925 -0.0046732845
0.058433183 -0.01396183 0.16237296 0.07758825 -0.298955 -0.22141811 0.35884127 -0.041242182

network.0.norm.running_var f4 [16]
00000000: 4c82 0b3f 6fbb 0e3f 679b 0f3f ba19 4f3f
00000010: 2f74 2d3f e516 223f 6573 1c3f 45b2 6f3f
00000020: 7922 093f 00fd 123f c8c2 0a3f eb4c 083f
00000030: 0cd9 f63e 74c9 273f 423d 163f fe48 233f
0.5449569 0.5575475 0.560965 0.8089863 0.6775541 0.63316184 0.6111358 0.9363139
0.53568226 0.574173 0.5420346 0.5324237 0.4821247 0.6554177 0.5868722 0.6378325

network.1.conv.weight f4 [16, 16, 3]
00000000: 0893 b13d b9cf 29be 3dd6 89bb d099 2f3d
00000010: 6745 86be 4e0f 9f3d 2cd4 bbbd 559f a1bd
00000020: 44a6 0ebe a06d 61bd f9e9 a0bd 56ac 15be
00000030: 26c1 fbbd 6b12 55be 82ba 543e 5e11 ac3d
00000040: 9e94 43be 96ea 91bd 2000 a9bb 5472 e3bd
00000050: 730d 4dbd 0060 1abb 74ba a5be 6b47 98bd
00000060: f8a9 5c3d 6ac3 0cbe 0c02 513b 233b 91bd
00000070: 4334 85be c7c8 4c3e 5bb1 99bd 8b45 42be
00000080: 0a6a c5bb e1c8 96bd f647 3abe 506e 0fbe
00000090: 4516 00be 0de8 35bd 1c88 3fbd e0c9 ee3b
000000a0: 9495 50be b140 573d f098 5bbd a945 52be
000000b0: 62e1 bf3d 9004 73bc e60a 9bbe a73e db3d
000000c0: 5c9b db3d 4793 ef3d b97f 2ebe e0ef cdbc
000000d0: f262 3d3e c145 7abe 5828 953d 80bc bb3d
000000e0: 78bc eebd 9a4f d63d 8ba0 9ebc fab4 263e
000000f0: 723b d23d c563 14be 8b88 00bc f7cc b8bd
00000100: 607c 623d cef7 d93a aab9 bc3d 4515 723e
00000110: e6ed e23d d46d 973d b830 973c 1ae7 e93d
00000120: 52c6 0bbe e097 89bd d3c2 483e 3038 21bc
00000130: b657 623d ef56 79be 18b0 a73c c1a1 163e
00000140: 8c38 e7bc ad1d 93bd d014 1dbd 95d5 493d
00000150: 29d4 01be de50 72bc f92a 6e3b bc79 fd3d
00000160: f84a af3d a36b cd3c f832 c9bd fb86 233e
00000170: c1ed eebc d8d1 d2bd bd9f 1e3e 84c2 8e3b
00000180: b048 9c3d 5ac5 573e dd51 60be 86a0 08be
00000190: cdc8 603d 514c b1bd f0da 003e a463 10be
000001a0: 6a7b e2bc 78a2 073e a9b9 df3d b177 843e
000001b0: 584c a33d a724 03be caa3 21be fd24 80bd
000001c0: 5402 0abd 6d34 77bc 4056 983c 8f33 acbc
000001d0: 347a 273e 4c37 923d 55b1 fa3d 1f95 3ebe
000001e0: b821 15bd 4e47 a9bc 7988 753c b4c0 043e
000001f0: 7240 0c3e f17b b3bd d4ee b9bd 3863 75bc
00000200: a8bc b13c d88a 9f3c 97fc 1dbe 5230 b2ba
00000210: 90d5 8ebc afaf d53c 6524 a5be 66bd dbbd
00000220: 5552 393e 7cf6 a63d 38ad 3d3d 986c fabd
00000230: f96c ecbd c030 673d 5e5b cb3d 63a2 853d
00000240: ef71 ecbd 6980 4fbe 13e8 c7bd 609b ba3b
00000250: 30bc 6dbe ad26 33be 846e cc3d 7d7b e7bd
00000260: 647b 47be 0020 8eb9 1867 10be 9a4e 27be
00000270: 044e 083d 958e 73be bb4b 163d fbaa f5bd
00000280: 9510 2dbe 0592 11be 7f30 96bd 4f0f 31be
00000290: 6ada 84be 601d 9abc 8afa 40be fc83 04bc
000002a0: 4073 cf3d 6d82 7ebe ae17 0dbe f6b8 ae3d
000002b0: 1d3c 8abe 5a8a 643d 40ca 283c dc2d 20be
000002c0: b2da 4b3d f0d6 953d e9fe 97be 5d12 88bd
000002d0: 34a8 103d e379 fabc c46f bd3c 96f1 8dbd
000002e0: f850 7b3c c463 643c 98e0 cebc 2434 4abe
000002f0: 79d6 c53c 4cda 22bd cf4a ecbd 7725 b0bd
00000300: da39 d6bd c1b0 4cbc 9a90 f7bd e0b2 d4bc
00000310: 6304 fc3b fccd 8ebe d241 4fbd 1552 373e
00000320: 4ea4 9fbd dc48 963d bbea 463e 34d7 383e
00000330: 6480 ea3d c566 1c3d 9925 89be 6a6b f0bd
00000340: 6805 8abc c511 0abd 1b88 05be d902 e7bd
00000350: 7bac e33d cefd a43d 9bec cabc a8b7 313e
00000360: 2828 ba3c ef4c 69bd 69cb 853e 9e00 20bd
00000370: eb50 163e ce41 943d 4085 8d3b 964c 393e
00000380: 5f56 133d dc93 e2bc 3bd1 cc3d ece7 8e3d
00000390: 9ead 993d db06 ab3d e83e 45bc 90a0 133e
000003a0: c49d 283e 7143 123b f0c3 2f3c 5645 5c3e
000003b0: 37e3 b0bc a77a 06be b3f2 2d3e d291 9abd
000003c0: 929e 053e 2ec1 373e be78 b73c 6eb7 e8bd
000003d0: d0ec 003e 131a 40be 941b e73d d8a0 3c3d
000003e0: 3d55 55be c820 c63d 8b5e 493b 6dfc 323d
000003f0: e0e7 90bb ff30 033c c914 24be 6eb6 c13d
0.08670622 -0.16583146 -0.0042064474 0.042871296 -0.26224825 0.07766591 -0.09171328 -0.07891718
-0.13930613 -0.055036187 -0.07857127 -0.14616522 -0.122926995 -0.20807807 0.20774272 0.0840175
-0.19099662 -0.07124822 -0.0051574856 -0.11105791 -0.050061654 -0.0023555756 -0.32368815 -0.07435497
0.053873032 -0.1374642 0.003189209 -0.070913576 -0.26016435 0.19998465 -0.07504531 -0.18971841
-0.0060246037 -0.07362533 -0.18191513 -0.14006925 -0.12508495 -0.044410754 -0.046760663 0.007287249
-0.2036956 0.05255193 -0.05361265 -0.20534386 0.0936916 -0.014832631 -0.30281752 0.10705309
0.10722992 0.11698013 -0.1704091 -0.025138795 0.18494776 -0.24440672 0.072830856 0.09166813
-0.11657041 0.104644015 -0.019363662 0.16279975 0.102652445 -0.14491184 -0.007845054 -0.09023469
0.055294394 0.0016629638 0.092151 0.23640926 0.11080532 0.07393995 0.018455848 0.11421032
-0.13649872 -0.06718421 0.1960557 -0.009840056 0.05525943 -0.24349569 0.02046971 0.14710142
-0.028225206 -0.071833946 -0.038349926 0.049275953 -0.12678589 -0.014789788 0.0036341532 0.123767346
0.08559221 0.02507574 -0.09824175 0.1596946 -0.029166104 -0.10293931 0.15490623 0.004356684
0.076310515 0.21071377 -0.21906228 -0.13342485 0.054879 -0.08657134 0.12583518 -0.1410051
-0.027646739 0.1324557 0.10924084 0.25872567 0.07973546 -0.1280695 -0.15785137 -0.06257055
-0.033693627 -0.015088183 0.018595815 -0.021020679 0.1635521 0.07139453 0.12240855 -0.18611573
-0.03640911 -0.020663884 0.014986151 0.12964135 0.13696459 -0.08763874 -0.09078756 -0.014977269
0.021696404 0.019475386 -0.15428387 -0.0013594723 -0.017435819 0.026084749 -0.3225433 -0.10729484
0.18097813 0.08152482 0.046307772 -0.12227744 -0.115442224 0.056442976 0.09929536 0.065251134
-0.115451686 -0.20263828 -0.097610615 0.0056947917 -0.23216319 -0.17495222 0.09982017 -0.113028504
-0.19480664 -0.00027108192 -0.14101827 -0.16338578 0.033277526 -0.2378486 0.036693316 -0.119955026
-0.16900857 -0.14215858 -0.07333469 -0.17290996 -0.25947887 -0.018812835 -0.18845573 -0.008088108
0.10129404 -0.24854441 -0.13778564 0.08531372 -0.26998988 0.055796005 0.010302126 -0.15642494
0.04976911 0.07316387 -0.2968667 -0.066441275 0.03531666 -0.030575698 0.023124583 -0.069308445
0.015339129 0.013939802 -0.025253579 -0.19746453 0.02415012 -0.039758965 -0.11537706 -0.08600896
-0.10460253 -0.012493313 -0.120881274 -0.0259642 0.0076909526 -0.2789153 -0.05059988 0.17902406
-0.077950105 0.073381156 0.1942548 0.18050843 0.1145027 0.038183946 -0.26786497 -0.117392376
-0.016848281 -0.033708353 -0.13040201 -0.1127984 0.111168824 0.08056222 -0.024771025 0.17355216
0.022724226 -0.056958135 0.26131752 -0.03906309 0.14679305 0.07239114 0.004318863 0.18095621
0.03597104 -0.027658395 0.10000845 0.06977829 0.07503818 0.08350917 -0.012038924 0.14416718
0.16466433 0.002231803 0.0107278675 0.21510825 -0.02159272 -0.13132726 0.16987114 -0.07547344
0.13048771 0.17944786 0.022396442 -0.113631114 0.12590337 -0.18759947 0.11284557 0.04605183
-0.20833297 0.09674221 0.0030726518 0.043697763 -0.004422173 0.008007287 -0.16023554 0.09458624

network.1.conv.bias f4 [16]
00000000: c5ab 14be b295 e0bd 52f5 1ebe a1f6 1f3d
00000010: 97c8 87bd d974 87bd c49b 50bd e1e2 4e3e
00000020: 2fe6 74bd d29a d43c 8891 273c 0774 823d
00000030: 78ba a9be 52b4 a53d fddf 193e 7b44 1cbe
-0.1451865 -0.10966052 -0.1552327 0.039053563 -0.06630056 -0.06614084 -0.0509298 0.20203735
-0.059789833 0.02595273 0.010227568 0.06369787 -0.33150077 0.08091034 0.15026851 -0.15260498

network.1.norm.weight f4 [16]
00000000: 6e5a ac3f e47a 653f aa55 7f3f a3c7 9f3f
00000010: 1c14 7c3f 012a 4f3f c4e0 943f af1d 813f
00000020: 5a37 713f b077 643f 79ad 6b3f cb01 6f3f
00000030: ff5f a73f a8bb 6b3f 7fbd 4d3f 7199 893f
1.3465097 0.8964064 0.9974009 1.2482799 0.98468184 0.8092347 1.1631093 1.0087184
0.94225085 0.8924513 0.92061573 0.9336211 1.3076171 0.92083216 0.80367273 1.0749952

network.1.norm.bias f4 [16]
00000000: 9fde fd3c 6846 6c3b b58c 433d d6b9 853d
00000010: 37ba 233e 27ec 8cbd d75a 08bc c037 7a3d
00000020: b2e4 0ebe 0f33 b7bd 5327 2fbe 81c9 dbbd
00000030: 28eb e43d 880e 62be 9175 38be 98a6 de3d
0.030989943 0.0036052708 0.04774161 0.06529586 0.15989004 -0.0688098 -0.008322439 0.061088324
-0.13954428 -0.089452855 -0.17104845 -0.10731793 0.11177665 -0.22075856 -0.18013598 0.10871619

network.1.norm.running_mean f4 [16]
00000000: b80f 24bf 6cce d3bb fbd2 cfbe a509 6dbf
00000010: b39e c83d e5cf 54be 089e babd ca9a 20bd
00000020: 1a54 8fbe 2976 4dbf fb8d 19bf 7cba 88be
00000030: c623 82bf 40b9 1cbf b12c 69bd 38fc 06bf
-0.64086485 -0.0064638164 -0.40590653 -0.9259284 0.097958945 -0.2078243 -0.09112173 -0.03921012
-0.27993852 -0.80258423 -0.5998227 -0.26704776 -1.0167167 -0.6122017 -0.056927387 -0.52728605

network.1.norm.running_var f4 [16]
00000000: edf1 673f e928 e13e fb72 2a3f 4e34 303f
00000010: 8331 233f 8fa5 b83e 1858 a83e aa86 903e
00000020: 35d1 e73e 37dd c13e b726 213f 5921 153f
00000030: ebf1 733f 15cb f93e 1dcc 3a3e 939e 253f
0.90603524 0.43976524 0.66581696 0.6882981 0.63747424 0.3606381 0.3287971 0.2822774
0.452768 0.37864086 0.629497 0.5825401 0.9529101 0.48787752 0.18241926 0.6469509

network.2.conv.weight f4 [16, 16, 3]
00000000: 3c8d 2fbd b069 b83d 7423 5ebe ea76 bdbd
00000010: 2469 003e 1213 c3bd 18b2 ef3c 6c23 893d
00000020: f4df 073e d2dc 69bd c21a d0bd c872 97be
00000030: 8ed7 e8bd c0a2 273c 1d3d 253e d42e 2c3d
00000040: 8c39 da3d 9819 633d dc2c da3d 500e 6fbd
00000050: 6cbf 6bbe 70d6 6bbd 8086 93bb 6391 91bd
00000060: e6b7 e8bd 6921 dfbd 4e2a 0abc 4ef9 d63d
00000070: 2404 cc3d 448e c73c 5c35 1a3d 0b93 89bd
00000080: 38ed a83d c034 33bc 2068 ce3d 3653 fd3c
00000090: c492 403d b2a8 113e a897 b1bd c601 963d
000000a0: f8b7 a4bc c82b 373e 31a8 c0bd 000f 5cbc
000000b0: 6c5c 10be a47c 813d c862 19bd 4604 0abe
000000c0: 9629 7bbd 802d 0a3c f38d 75be 646b d1bd
000000d0: 18dc c93d dd0d 2dbb 9442 bfbd a831 063e
000000e0: 9045 043d fc59 e23d 7040 b93d 4a56 58bd
000000f0: 5ad3 90bd 8ac7 0cbe f7f1 bd3d 97e8 87bd
00000100: 90c2 983c 0e44 5ebd 1202 b63d a2a2 19bd
00000110: 57cb 813c 1a43 9f3d 6c1e 99bd 1347 923e
00000120: b040 d43d 10b1 5e3c 2dce bf3d 003f 97bc
00000130: e07d a73b a26b d63d 54c4 923d 0ae3 c7bd
00000140: 7a01 9cbd 94dc cfbd 0052 f43d 57e3 4a3e
00000150: 1ea0 90bd 64bc 603d bc2a f5bd 7a9c 16bd
00000160: e074 96bc 6e93 443e f608 f3bd 486b 6d3d
00000170: b670 86bd 54f4 18bd 2000 0f3c 4db3 51be
00000180: f055 073d 483f 323d b92c 94be 16fb 12be
00000190: 48f2 e9bc 325e eb3d 3cd8 a8bc 3eaa 92bd
000001a0: 0260 71bc 161e 093e dcd9 093e 80f3 f7bd
000001b0: 3605 47bd 2467 f73d 0aa7 d9bc 3025 eebc
000001c0: d002 dfbd 941f 583d 30a0 5d3c d033 c03d
000001d0: 65df c73d 1897 263d 969c 103e 4a1f 263e
000001e0: a831 d43d 2051 ca3d b459 593e 1292 bcbd
000001f0: b4f4 1d3d 60a7 c23d 3c14 d7bc 60f1 f4bb
00000200: a276 f83d 90b2 09bc fca5 783d 0d43 be3d
00000210: 36d7 a63d 0a6d 113e 6c04 98be 00e1 2b3d
00000220: f414 07be b57a 4cbb 7d74 09be 00c4 d43d
00000230: b4a8 93bd 8cef 00bd 6c9c 343d 6707 c3bd
00000240: f035 d6bd 1f5c 8abd 1193 91be b417 4e3d
00000250: 2887 a23d 567a c1bc 3004 843d a0db 2bbc
00000260: 6969 f63d 3827 923c 8ae4 993d 41d6 12be
00000270: 40c3 a83b a038 0fbc 2f8c 2b3e e202 aebd
00000280: a6d1 bebd 9dce 453d ae5f 02be d025 72bd
00000290: 8630 5b3e 40ec 883b 924d c63d 6fb4 913d
000002a0: 2fea 04be 30da 85bd f56c 8f3d d02d ac3c
000002b0: 70f3 85bc d66f a9bd 3cdb eabc 20a0 92bb
000002c0: 927c 5d3e fc73 9b3d b296 b13d 9c53 923d
000002d0: 80e9 2dbb 243c 2b3d 7818 09be 2c74 b8bd
000002e0: b443 d3bd 0d69 713d 2051 8abd 406d fb3c
000002f0: f5cf 273d 68bb 033e 1c81 113e c1c9 0dbe
00000300: e6dc afbd 902e 04bc f478 363e 0873 cd3d
00000310: 889c 8bbc f942 00be 4821 d03d 4ab3 91bd
00000320: 4e19 52be 9848 e33d b499 03be 0a0f 803e
00000330: 702d 0e3c bbf5 06be ed66 0dbe ce8d 0d3e
00000340: f05e 1fbc 0ec9 79be d820 8cbc 82c7 2bbd
00000350: 227f b8bd f81a c73c 0d54 99bd 9fcb eebc
00000360: 4cf4 0fbe d7dc 07be 3ea7 e9bd a77d 88bd
00000370: ca9b d2bd ae20 793e 902c bb3d 40f3 cb3b
00000380: 28cc 65be 5044 db3d 50ab 0fbc 637e f2bd
00000390: e8ec 443d 0c7f 2f3d f19b 1b3e 00f3 80bc
000003a0: d054 bdbc ec87 0cbe f12e ddbd eb01 02be
000003b0: 0fb8 04be 4c6a a1bc a03f 7d3c f638 b3be
000003c0: 81d3 12be 5c8f 363d c5f6 6dbe e9dd 81bd
000003d0: f4b5 bc3d 837c e63d f8fb afbc 842d 71bd
000003e0: 60ea 633d 78d4 6bbd 80ed 9cbb 57f5 99be
000003f0: 8c6e 2a3d 506b 073e 3745 cc3d da02 be3d
-0.0428593 0.09004533 -0.21693212 -0.09251197 0.12540108 -0.09525122 0.029259726 0.06696209
0.13269025 -0.057095356 -0.10161354 -0.2957976 -0.11369239 0.010231674 0.16136594 0.042036846
0.106555074 0.05544433 0.106530875 -0.05836326 -0.2302224 -0.05757755 -0.0045021176 -0.071078084
-0.11363201 -0.10895044 -0.008432938 0.1049677 0.09961727 0.02435983 0.037648544 -0.06717499
0.08248371 -0.01093787 0.10078454 0.030923467 0.047014967 0.14224508 -0.08671504 0.07324557
-0.020107254 0.17887795 -0.0940708 -0.013431311 -0.14097756 0.063226014 -0.03744772 -0.13478193
-0.061318956 0.0084337 -0.2397993 -0.10225561 0.09856433 -0.0026405968 -0.09338871 0.1310488
0.032292902 0.110523194 0.090454936 -0.052816667 -0.07071562 -0.13747993 0.09274667 -0.0663616
0.018647462 -0.05426412 0.08887114 -0.037508614 0.01584403 0.077764705 -0.07476506 0.2856985
0.10363901 0.01359202 0.09365497 -0.018462658 0.005111441 0.10469748 0.07166353 -0.09760101
-0.07617469 -0.10149494 0.11929703 0.19813286 -0.0706179 0.054867163 -0.119710416 -0.03677032
-0.018366277 0.19196865 -0.118669435 0.05796364 -0.06564467 -0.037342384 0.008728057 -0.20478554
0.03304094 0.04351738 -0.2894037 -0.14353594 -0.028557912 0.11492576 -0.020610921 -0.07161377
-0.014732363 0.13390383 0.13462013 -0.12106991 -0.048588954 0.120802194 -0.026568908 -0.029070467
-0.10889208 0.05276449 0.013526961 0.093848825 0.09759406 0.040671438 0.14122233 0.16222873
0.10361034 0.098787546 0.21225625 -0.09207548 0.038563445 0.095045805 -0.026254766 -0.007475063
0.121320024 -0.008404389 0.06070517 0.09290133 0.08146517 0.14201751 -0.29690874 0.041962624
-0.13191587 -0.0031201069 -0.13423343 0.103889465 -0.07209912 -0.03147845 0.044094488 -0.09522896
-0.104595065 -0.06755852 -0.28432515 0.050315574 0.07935935 -0.023617905 0.06446111 -0.010489374
0.12031824 0.017840967 0.075142935 -0.14339544 0.0051502287 -0.008741528 0.16752695 -0.084966436
-0.09317331 0.048292745 -0.12731811 -0.059118092 0.21405229 0.004178554 0.09682764 0.07114493
-0.12979959 -0.065357566 0.07003204 0.021017939 -0.016351432 -0.08273284 -0.028668992 -0.004474655
0.21629551 0.07590482 0.08671321 0.071448535 -0.0026536882 0.0418054 -0.1338824 -0.09006533
-0.10315648 0.058938075 -0.067537546 0.030691743 0.040969808 0.12864459 0.14209408 -0.13846494
-0.08587055 -0.008067742 0.17819577 0.10031706 -0.017042413 -0.12525548 0.10162598 -0.07114275
-0.20517465 0.110978305 -0.12851602 0.25011474 0.008677825 -0.13179676 -0.13808794 0.13823625
-0.009727225 -0.24393103 -0.017105505 -0.041938312 -0.09008624 0.024304852 -0.074867345 -0.029149828
-0.14058036 -0.13267837 -0.11408852 -0.06664591 -0.10283621 0.24328873 0.09139359 0.006224066
-0.2244116 0.10706389 -0.008768871 -0.118405126 0.048077494 0.04284577 0.15196206 -0.015740871
-0.02311173 -0.13723725 -0.10799969 -0.12696044 -0.12960838 -0.019704007 0.015457064 -0.35004395
-0.14338495 0.044570312 -0.23238666 -0.06341154 0.09214392 0.112542175 -0.021482453 -0.058881298
0.05564344 -0.057575673 -0.0047890544 -0.30069992 0.041609332 0.1322453 0.09974139 0.09277888

network.2.conv.bias f4 [16]
00000000: c9b9 53be 0f07 053d 6e0c 24be c52e d13c
00000010: 81b4 243d eead 363e bcbe 833e ba0b b6bc
00000020: f5d7 b1bd b4e3 463e 1a22 d0bc b961 26bd
00000030: 172e 8bbc 20ec bc3d 2a45 d33d 9050 06be
-0.2067634 0.032477435 -0.16020367 0.025534997 0.040211204 0.17839786 0.25731456 -0.022222389
-0.08683769 0.194228 -0.025406886 -0.04062054 -0.01698975 0.09224725 0.103159264 -0.1311667

network.2.norm.weight f4 [16]
00000000: 8fc1 3e3f 2dde 383f 99b3 603f 6c63 653f
00000010: 8b71 c13f 3857 5f3f 95f7 3b3f ddfd 813f
00000020: e386 593f a774 733f 6d27 923f 9152 bd3f
00000030: c677 9e3f ad93 c93f 247c a73f c60d 3d3f
0.74514097 0.72214013 0.87774044 0.8960483 1.5112776 0.8724246 0.73424655 1.0155598
0.84971446 0.9509987 1.1418282 1.4790822 1.2380302 1.5748192 1.308476 0.7384914

network.2.norm.bias f4 [16]
00000000: 6755 9abe d356 a7bd 4c63 16be 4994 043d
00000010: 0aef c33e c977 893d 0210 1fbe 482d b63e
00000020: 1c3f 9c3d 7290 e6bb edf6 023f 24d8 803e
00000030: e784 d43e 427c 963e 8d88 0a3e 913b 7fbd
-0.30143282 -0.08170857 -0.14686316 0.03236798 0.3826831 0.067123 -0.1553345 0.35581422
0.07629225 -0.007036262 0.5115803 0.25164902 0.41507646 0.29391676 0.13528652 -0.062312666

network.2.norm.running_mean f4 [16]
00000000: fe34 14bf 0e79 8abc 29f1 abbe 6b14 b1bc
00000010: da15 6ebe 3c5b 57be 683d a93c eec5 bd3d
00000020: 6483 7b3e 7007 8abe 4c5a d2be 78a3 dc3e
00000030: 7ee0 313e bda1 4a3f 646b dc3e 989e bebe
-0.5789336 -0.016903426 -0.33582428 -0.021616181 -0.23250523 -0.21030897 0.020659164 0.09266268
0.2456184 -0.269588 -0.41084516 0.43093467 0.17370793 0.79153043 0.43050683 -0.37230372

network.2.norm.running_var f4 [16]
00000000: b2e0 853e 2df4 9b3e d075 e53e b759 003f
00000010: e622 393f 707a 073f 33f9 653e 7e4c 173f
00000020: 29ff c73e 632d bd3e b14f 873f 9741 fe3e
00000030: b42f e23e 673e e93e cbdf 823e 6d7e 9f3e
0.2614799 0.3045973 0.44816446 0.50136894 0.72318876 0.529212 0.22458343 0.5910109
0.3906186 0.3694869 1.0571195 0.49659416 0.4417702 0.45555422 0.25561365 0.31151143

network.3.conv.weight f4 [16, 16, 3]
00000000: 7044 fd3c 4211 d73d 0cbf 77bc e6ce b43d
00000010: d293 65bd 2d71 41bd 08f1 f03c 5231 8c3d
00000020: 6ddf 07be 7895 e83d 7ab1 aabd fdfc 3dbe
00000030: d613 1ebd 9499 6b3d 5f60 6a3e b43b 17bd
00000040: 6032 cd3b 04d7 31be be0b b7bd 7813 aabc
00000050: 8e51 13bd 0ced f43d 94a3 103d 03cd 3cbe
00000060: 9415 e03d e0a6 c13d 17d0 cfbd 5853 0f3e
00000070: 6088 2cbd 061e 47be 80ac 8c3c d263 053e
00000080: 92e1 eabc 2838 8c3d 10b1 8fbc bece 29ba
00000090: 90f4 0b3e 208b b7bb 46bd 393e 88b0 253d
000000a0: 6296 0b3e c35b 033e 8058 f13d dc77 d9bc
000000b0: fa90 b53d ad4a 08be 52ed 113e cd06 86bd
000000c0: da73 b93d 03ea 0cbe 989e 10be 0cae 9abd
000000d0: f3cd a2bd 73b4 44be 6996 d9bd 7c01 20bd
000000e0: 3108 66be a21d ebbd f4ef ccbd f15e e3bb
000000f0: 84df f7bc 9a3c 993d 7458 fe3d f87e d93c
00000100: a08b 313d 5a53 20be 40e2 4e3b a1c0 05be
00000110: 094d 183d e892 b83d 2891 063e dba6 713d
00000120: c0c5 93bd 4806 033d 724b 03be 10e7 dc3d
00000130: b215 12be 7477 17be 3485 263d 96fa 7cbd
00000140: 2367 493e ccbc 873d 682a 53bd 9b5c a33c
00000150: c09e 703d 5e47 cb3d 2c84 92bd ce30 ca3d
00000160: 68b3 e6bd 2ad8 3e3e 78fb f63d 745c c23d
00000170: f479 a9bd 60e7 fa3d 5425 d8bd b91d 4fbd
00000180: d0f1 99bc 8694 093e 4ee1 073d afe5 92bd
00000190: d426 67bd 374c ca3c f83e 8e3d 9496 abbc
000001a0: bead 0c3c 126f abbd a40d cabd 6e76 12bd
000001b0: 6cec 223d a40a 9e3d 1d47 5ebe 9d3e 0abe
000001c0: aa1a 093e d847 253e 9a68 a5bd 24fd 8d3d
000001d0: 47a1 603d a7d3 95bd de02 a03d eac6 d1bd
000001e0: 4a9a 843d c028 6fbb bcce db3d 38b1 d73d
000001f0: 5a8a 803d cc1e 9d3c 4640 053e 2005 dc3c
00000200: 18f3 07be ad23 05be 1cee f13d 96e3 edbe
00000210: 9654 d53d e00d 5e3d 9672 c2bd 1ad0 a6bd
00000220: 5229 1abd 0dd1 d0be b4cd 603d 3469 34bd
00000230: be32 84be 8089 053d 189c bdbd 57fb 6d3d
00000240: 79e7 9abd a410 963d 60a8 2e3e a0e5 ff3b
00000250: 70b8 773d 82e6 583c 406e 07be dcc7 a3bc
00000260: 013e 1f3e fc18 083e 9a09 9e3d 5610 7d3d
00000270: 46f2 0e3e 4833 93bd d86b 17be 7e72 983d
00000280: 066e 0b3e b1cc b73c 9749 00be 6561 82bd
00000290: a747 e93d e416 b9bd 83dd 0abe fdf0 38be
000002a0: 406e bf3d 6cdc 8a3d c0e8 ab3d bdc1 00be
000002b0: 30d5 8c3d 9c70 ec3d b003 1a3c 8001 503d
000002c0: 656c 44be dd99 efbd 284c ce3c 3de8 04bf
000002d0: 16e9 11be 76fb 0ebe 75aa 5fbe a482 dabc
000002e0: 1070 a83d 0e68 a5be d02c 0bbc 94a5 d4bd
000002f0: 4b5c a3bd 84da 643d 5839 d53d d094 993d
00000300: 3ec2 0a3e 00af 1e3c a535 93bc 70c5 ff3d
00000310: 6605 07bd ccf6 d2bd feea 10be 787c ec3d
00000320: cf5b c73d b481 01be 3ca0 1cbd 471b 743e
00000330: adea ccbd 20ec 14bc e5ae a1be 6099 c7bb
00000340: 587b 933d 706c 573d bc5a 07be c620 ca3d
00000350: 0f19 053d ab77 dcbd 94d9 f83d 1e13 02bf
00000360: dae6 b7bd 770f dcbd 12fe f73d c6df 2bbd
00000370: 808d 4bbb c4fb 843b 7811 d33d 4c8a 783d
00000380: 592c aabd e258 123e 1a79 6cbd a449 d2be
00000390: 0eb1 a3bd 7c83 453d f1fb cebe 40f3 d33d
000003a0: b0e5 7f3c 3da3 44be 903d 053d 2087 fc3b
000003b0: 0e0d 70be 785b 9c3c 0cd0 0c3d f841 523d
000003c0: 541a cfbd 2ca7 e73d 4371 9ebc 00df e93d
000003d0: 5ac7 123e da84 09be 9c88 a5bc 8a8e 043e
000003e0: 2e10 8bbc 9433 b83d 50a3 133d 7221 a6bd
000003f0: 28dd 5bbd 9539 bebd c894 86bc e28a febd
0.030916423 0.105013385 -0.015121233 0.08828525 -0.056049176 -0.047227073 0.029411808 0.068453446
-0.13268824 0.11356634 -0.08334632 -0.18553539 -0.038593136 0.05751951 0.22888325 -0.03692217
0.0062621087 -0.17367178 -0.089377865 -0.020761237 -0.03596645 0.119592756 0.03531225 -0.18437581
0.10941616 0.09455657 -0.10147112 0.13996637 -0.042122245 -0.19445047 0.017172098 0.1302636
-0.028672013 0.068466485 -0.017540485 -0.00064776454 0.13667512 -0.005601302 0.18138608 0.040451556
0.13631585 0.12827973 0.11784458 -0.026546411 0.08865543 -0.13309737 0.14250687 -0.06544266
0.090553 -0.13761143 -0.14122999 -0.07552728 -0.07949438 -0.19209461 -0.106243916 -0.039063916
-0.22464062 -0.114802614 -0.10006705 -0.006938808 -0.030257948 0.07482262 0.12419215 0.026549801
0.043346047 -0.15656796 0.003156796 -0.13061763 0.03718284 0.09012395 0.1314131 0.058997016
-0.07215452 0.031988412 -0.12821749 0.10786259 -0.14266089 -0.14791662 0.040654376 -0.061762415
0.1966825 0.06627807 -0.051554114 0.019941619 0.058745146 0.099257216 -0.07154116 0.0987259
-0.11264688 0.18637148 0.120596826 0.0949029 -0.08275214 0.122511625 -0.10553995 -0.050565455
-0.018792063 0.13435563 0.03317385 -0.07172715 -0.056433514 0.024694545 0.06945604 -0.020945825
0.008586345 -0.08370794 -0.09865883 -0.035757475 0.03977625 0.07716873 -0.21706815 -0.13500448
0.13389078 0.16140687 -0.08076592 0.06933048 0.054841306 -0.0731576 0.07813047 -0.10243018
0.06474741 -0.0036492795 0.10732791 0.10531849 0.062763885 0.019179724 0.130128 0.026857913
-0.13276327 -0.1300189 0.11812994 -0.46462697 0.10416524 0.05421245 -0.09494512 -0.08145161
-0.037637062 -0.40784493 0.054883674 -0.044045642 -0.25819963 0.032601833 -0.09258288 0.058101024
-0.07563681 0.07327393 0.17056417 0.007809356 0.060478628 0.013238551 -0.13225651 -0.019992761
0.15550996 0.13290781 0.07716675 0.061783157 0.13959607 -0.071875155 -0.14787233 0.07443713
0.1361619 0.022436472 -0.12528072 -0.06366233 0.1139062 -0.09037569 -0.13561063 -0.1806068
0.093472004 0.067803234 0.08394003 -0.12573905 0.068766 0.11544916 0.009400293 0.05078268
-0.19181974 -0.11699269 0.025182799 -0.5191687 -0.14249071 -0.13963112 -0.21842368 -0.026673622
0.08224499 -0.3230595 -0.008494571 -0.10383144 -0.07976588 0.055872455 0.10411328 0.07499087
0.1355066 0.009685278 -0.017969916 0.1248883 -0.032964133 -0.10300979 -0.14152142 0.11547178
0.09734308 -0.12647134 -0.03823875 0.2383853 -0.10005698 -0.0090895 -0.31578746 -0.006091282
0.0720126 0.05259365 -0.13218206 0.09869532 0.0324946 -0.10765012 0.12150875 -0.5081042
-0.08979578 -0.10745137 0.12109007 -0.041961454 -0.0031059682 0.004058333 0.10306066 0.060678765
-0.0830924 0.14291719 -0.05773268 -0.41071808 -0.07992755 0.048221096 -0.4042659 0.10349131
0.015618727 -0.19202895 0.032529414 0.007706538 -0.2344248 0.019086584 0.034378096 0.051332444
-0.101124436 0.113111824 -0.019341117 0.11419487 0.14333859 -0.13429585 -0.020206742 0.12945
-0.016975489 0.08994213 0.03604442 -0.08111848 -0.053677708 -0.09288327 -0.016428366 -0.124288335

network.3.conv.bias f4 [16]
00000000: 966f 35bc 9a31 0bbe 32f3 b53c 5df5 00be
00000010: f873 10be 4de0 91bc c0d6 4f3e 7040 ecbc
00000020: 52df eabd 5cff 5d3d 4b97 babd 48a7 d3bc
00000030: 9d9e 7f3c a4e5 803d ba4c 0bbd e572 493c
-0.011073967 -0.1359314 0.022210691 -0.12593599 -0.14106739 -0.01780715 0.20296764 -0.02883932
-0.11468376 0.054198608 -0.09110888 -0.025836602 0.015601781 0.062938005 -0.03400872 0.012295459

network.3.norm.weight f4 [16]
00000000: 91a9 5d3f 503f 5b3f 447d a83f c368 a43f
00000010: d88e 9a3f c5b2 613f b09e a73f b2cf b43f
00000020: 62f4 583f 5e15 a03f e13e a93f aa72 a43f
00000030: 1905 a83f c20e 5d3f 827d 5e3f 4e24 613f
0.8658686 0.8564348 1.3163228 1.2844471 1.2074842 0.88163406 1.3095303 1.4125884
0.847479 1.2506521 1.3222314 1.2847493 1.3126556 0.86350644 0.8691026 0.8794602

network.3.norm.bias f4 [16]
00000000: 08e9 2cbe c2c0 2cbe f9bf da3e 7302 d03e
00000010: c720 f73e 6d15 11be f2c0 ca3e 16a6 0a3f
00000020: bb98 23be a25f ad3e 4ad3 e43e 3461 013f
00000030: b341 e13e 6c27 2bbe c174 13be 53f9 25be
-0.1688577 -0.16870406 0.4272459 0.4062687 0.48267195 -0.1416833 0.3960033 0.5415968
-0.15976231 0.33862025 0.4469245 0.50538945 0.43995437 -0.16714257 -0.14400007 -0.16208391

network.3.norm.running_mean f4 [16]
00000000: cedd 9b3c 8119 b8bd e6b6 94bf 3cb6 97bf
00000010: 8624 c8bf 4ee4 84be 6d4e a0bf 20f9 a1bf
00000020: 85bb ccbe 397a 8ebf 3e4a bfbf 58fb 4fbf
00000030: b6f7 87bf d555 443e 5f12 19be 7da2 543e
0.019026663 -0.089892395 -1.1618316 -1.1852489 -1.5636146 -0.25955433 -1.2523934 -1.2654152
-0.39986816 -1.1131049 -1.4944532 -0.81242895 -1.062247 0.19173367 -0.14948414 0.2076511

network.3.norm.running_var f4 [16]
00000000: 54a2 303f 9a22 1d3f 4528 1e40 c40e 2640
00000010: 6a14 4c40 112a c73e bd57 0940 c80f 5940
00000020: a338 053f 9136 a63f 163b 2a40 fec0 2940
00000030: 2e4b 2a40 c749 d83e 5605 dc3e b1a9 0f3f
0.68997693 0.6138092 2.4712079 2.5946512 3.188746 0.38899282 2.1459801 3.3915882
0.52039546 1.2985402 2.6598563 2.6524043 2.6608386 0.42243788 0.4297282 0.56118304

output_layer.weight f4 [1, 16]
00000000: 5867 d3bd 7b40 873b b3a5 e83e d4d9 d93e
00000010: a7fe b73e a5b9 773d a96d e73e 20a2 c73e
00000020: 4872 fc3c 269c 023f f750 d23e 9fd5 ad3e
00000030: baab c93e f82e 82bb 4c40 843d 9e96 9bbd
-0.10322446 0.0041275597 0.45438918 0.42549002 0.35936472 0.06047978 0.45200852 0.3899088
0.030816212 0.51019514 0.41077396 0.33952042 0.3938883 -0.0039728843 0.06457576 -0.07597087
