saved_tcn_models_cv/inference_tcn_period_33pct_pca_False.pth (torch, 27734 bytes, 25 tensors)

network.0.conv.weight f4 [16, 7, 3]
0	0x1a6b6bd2	4.8683958e-23
1	0xbd93411c	-0.07190153
2	0xbda343ff	-0.079719536
3	0x198398c5	1.3606786e-23
4	0xbc0a1ebf	-0.008430182
5	0xbe470182	-0.19434169
6	0x1a534ab0	4.369411e-23
7	0xbe4e8968	-0.20169604
8	0x3e4bb3af	0.19892763
9	0x19f53437	2.5353496e-23
10	0x3de00ca7	0.10939913
11	0xbf1b4586	-0.6065296
12	0x1ac13e83	7.992392e-23
13	0xbe97fd8f	-0.29685637
14	0xbd33be18	-0.04388246
15	0x1ad880bf	8.9543507e-23
16	0xbe92f520	-0.2870264
17	0x3e156ab1	0.14591481
18	0x18db3598	5.666429e-24
19	0xbd29594e	-0.041344933
20	0xbe8bcc2a	-0.27304202
21	0x99809931	-1.3296763e-23
22	0xbe70e808	-0.23526013
23	0xbef00b5a	-0.4688366
24	0x9a50bb45	-4.3164667e-23
25	0x3e0782b8	0.13233459
26	0xbe0f667a	-0.14003935
27	0x9965892c	-1.1866724e-23
28	0x3e682f5b	0.22674315
29	0xbe34f591	-0.17671801
30	0x9712f3bf	-4.7482795e-25
31	0xbddaadbd	-0.10677669
32	0xbc97b85d	-0.018520528
33	0x97d1d88c	-1.3560973e-24
34	0x3ec4944e	0.38394397
35	0x3c1975d3	0.00936647
36	0x96528a6c	-1.7007343e-25
37	0x3d8d22ed	0.06891427
38	0x3d63e8c1	0.055641893
39	0x98fdbd7e	-6.5590305e-24
40	0xbc631437	-0.0138598
41	0xbe2b6ffa	-0.16741934
42	0x99d49b18	-2.1982928e-23
43	0xbdc47964	-0.09593466
44	0x3e368f19	0.17828025
45	0x99fbf968	-2.6053526e-23
46	0x3d3acaf2	0.0456037
47	0xbc2d383c	-0.010572489
48	0x98f6a3f4	-6.375506e-24
49	0xbe565701	-0.20931627
50	0xbead61ba	-0.33863622
51	0x199f084c	1.6443566e-23
52	0x3e0c7316	0.13715777
53	0x3da83ca3	0.082146905
54	0x99d48dc9	-2.1977553e-23
55	0xbe563caa	-0.20921579
56	0xbcb54411	-0.022127183
57	0x993c39d0	-9.731047e-24
58	0x3dd79a91	0.10527528
59	0xbe9ad0c8	-0.30237412
60	0x9911049d	-7.497256e-24
61	0xbf41237a	-0.7544476
62	0xbe6f5c12	-0.23374966
63	0x98472b59	-2.5742032e-24
64	0x3dda0176	0.1064481
65	0x3c76fc16	0.01507475
66	0x9b026929	-1.0787327e-22
67	0x3e06ad4f	0.1315205
68	0x3e06954a	0.13142887
69	0x1ac94864	8.3248605e-23
70	0x3c451261	0.012028308
71	0xbe7e2eb8	-0.2482251
72	0x9800e67b	-1.6659975e-24
73	0xbe46d756	-0.19418082
74	0x3ed2bf00	0.41161346
75	0x17a981b5	1.0954112e-24
76	0xbd6f0995	-0.058358748
77	0x3e5cb024	0.21551567
78	0x990f9664	-7.423298e-24
79	0xbd40e116	-0.04708966
80	0x3e8e6874	0.27814066
81	0x9ad6f881	-8.8909805e-23
82	0xbeb98091	-0.362309
83	0x3c811936	0.015759092
84	0x1979b4c7	1.2909506e-23
85	0xbd96f587	-0.073710494
86	0x3cb47612	0.022028957
87	0x1ab306da	7.4043734e-23
88	0xbe3e001c	-0.18554729
89	0x3e326dbe	0.17424676
90	0x9904a597	-6.857681e-24
91	0xbea5afc3	-0.32360658
92	0xbe1deb97	-0.15421902
93	0x99b2196f	-1.8415041e-23
94	0x3d3d8cd1	0.04627687
95	0xbf2a58ed	-0.6654194
96	0x98e06903	-5.8008678e-24
97	0x3e2a2cc3	0.16618638
98	0xbcc02b52	-0.023458157
99	0x9a1e006a	-3.267397e-23
100	0xbde817d1	-0.113326676
101	0xbc5fe78e	-0.013666047
102	0x1ab9d2b9	7.685465e-23
103	0x3d2384bc	0.039921507
104	0xbdb3e798	-0.087844074
105	0x9ad1294d	-8.65071e-23
106	0x3d1223b7	0.03567859
107	0x3dceedd2	0.101039544
108	0x987a26c5	-3.2331316e-24
109	0x3e5ce435	0.21571429
110	0xbeeeb8fb	-0.46625504
111	0x9a8067f3	-5.31075e-23
112	0xbef23aa6	-0.4731037
113	0xbed06131	-0.4069915
114	0x9955543a	-1.1028851e-23
115	0x3e3944c9	0.18092646
116	0x3d4e6411	0.0503884
117	0x199718bf	1.5623029e-23
118	0xbe065810	-0.1311953
119	0xbd8777fe	-0.066146836
120	0x9a495b8f	-4.1639786e-23
121	0x3e1e307e	0.15448186
122	0x3b8e50bc	0.0043431204
123	0x1952576c	1.08744e-23
124	0xbe0a3046	-0.13494977
125	0x3de3d5eb	0.11124786
126	0x1aea6179	9.693761e-23
127	0x3ec1a760	0.3782301
128	0x3cf1c8f6	0.029514771
129	0x98d42d75	-5.4846615e-24
130	0xbd8ca814	-0.06867996
131	0x3dc89c43	0.097954296
132	0x195be32b	1.1367911e-23
133	0x3e85f313	0.26162013
134	0xbe8d8a6c	-0.2764467
135	0x19499228	1.04209725e-23
136	0x3e02235b	0.127088
137	0x3e1c8e6a	0.15288702
138	0x96073bea	-1.0924119e-25
139	0x3def1e1e	0.11675666
140	0x3e84478b	0.25835833
141	0x9a365975	-3.770898e-23
142	0x3c8fe1f7	0.017563803
143	0xbd491661	-0.049093608
144	0x98bb0ab9	-4.8349194e-24
145	0xbe621f6a	-0.22082296
146	0x3d4ba57f	0.049718376
147	0x9a702015	-4.9656752e-23
148	0xbe9668af	-0.29376742
149	0xbca117b4	-0.019664623
150	0x9aaba074	-7.098317e-23
151	0xbe8a8ecb	-0.27062067
152	0x3ec8c0ca	0.39209586
153	0x189a2500	3.9845427e-24
154	0x3cbc3c18	0.022977874
155	0xbe7b0a21	-0.24515583
156	0x183dfda4	2.4555733e-24
157	0xbdc43978	-0.09581274
158	0x3eb6048b	0.3555034
159	0x18bc225e	4.8631563e-24
160	0xbea81654	-0.32829535
161	0xbe2ce2d0	-0.16883397
162	0x18f399c1	6.296928e-24
163	0xbd1ed27c	-0.038774952
164	0x3e123368	0.14277422
165	0x998e80af	-1.473443e-23
166	0x3d35b546	0.04436233
167	0xbd2077c7	-0.03917673
168	0x188e22c4	3.6741244e-24
169	0x3b02ff68	0.001998866
170	0x3e514a4c	0.20438498
171	0x9aac53fa	-7.1273204e-23
172	0x3ed524f4	0.41629755
173	0x3d6a3baf	0.057185825
174	0x1a534565	4.3689834e-23
175	0xbe97f3d5	-0.29678217
176	0xbdb21e7b	-0.0869722
177	0x1a5ac203	4.5238065e-23
178	0x3e61ae0e	0.22039053
179	0x3dcc6072	0.09979333
180	0x19bd5875	1.957787e-23
181	0x3d25741b	0.04039393
182	0x3eb05ad6	0.34444302
183	0x99875b00	-1.3995427e-23
184	0xbd4a0226	-0.049318455
185	0x3c36386e	0.011121852
186	0x1ab6cdb1	7.560575e-23
187	0xbd84e8be	-0.064897045
188	0x3eb1b066	0.34704894
189	0x9a5e61c1	-4.598749e-23
190	0xbd903fdf	-0.070434324
191	0xbe220138	-0.15820777
192	0x9a24dffd	-3.409534e-23
193	0x3eb4f41b	0.35342488
194	0xbe92e34a	-0.28689033
195	0x9a98da5e	-6.321852e-23
196	0xbe81d055	-0.25354257
197	0x3e585aba	0.2112836
198	0x168a0591	2.2298615e-25
199	0xbdd3da1a	-0.10344334
200	0xbd4cfe8a	-0.050047435
201	0x9a8e1db9	-5.877784e-23
202	0x3e5fb842	0.21847633
203	0xbe9c0ee0	-0.304801
204	0x1aa6b605	6.895006e-23
205	0xbf17aaa9	-0.5924478
206	0x3c9ca53b	0.019121757
207	0x9a0c729e	-2.904391e-23
208	0xbde59226	-0.11209516
209	0xbd8eb8d8	-0.0696885
210	0x1ac516c9	8.15141e-23
211	0xbe201389	-0.15632452
212	0xbcdf7925	-0.027279446
213	0x9a3033cb	-3.6437785e-23
214	0x3e9f76f8	0.31145453
215	0xbe5a0234	-0.21289903
216	0x1a01bd03	2.6829257e-23
217	0x3e79e896	0.2440513
218	0xbe46d9c8	-0.19419014
219	0x99c863f1	-2.0719881e-23
220	0xbeb0646b	-0.34451613
221	0x3ea2107e	0.31653208
222	0x1a04cc6b	2.7462088e-23
223	0xbdc499be	-0.095996365
224	0xbe9ed341	-0.3102055
225	0x1ae8f142	9.6342724e-23
226	0xbc6011f2	-0.0136761535
227	0xbde24e4f	-0.110500924
228	0x9838fbbb	-2.3908534e-24
229	0xbc767178	-0.0150417015
230	0xbd61cf4b	-0.05512933
231	0x9aa2e44b	-6.7370457e-23
232	0xbec0d82e	-0.37664932
233	0xbc771de7	-0.015082813
234	0x9aa47a13	-6.802603e-23
235	0xbccebd66	-0.025236797
236	0x3e915fad	0.28393307
237	0x19a4f383	1.7055556e-23
238	0x3e2ae649	0.1668941
239	0xbd59b695	-0.05315264
240	0x18d1f4db	5.4272475e-24
241	0xbe46208f	-0.19348358
242	0x3ecac6b9	0.39604738
243	0x1b0ad6f0	1.1484543e-22
244	0x3dab4d68	0.083643734
245	0xbda79e82	-0.0818453
246	0x1a164eb9	3.1082865e-23
247	0xbe4fd735	-0.20296939
248	0xb8cf2aed	-9.878525e-05
249	0x1818595f	1.969066e-24
250	0x3e70370e	0.23458502
251	0xbc48ed27	-0.012263573
252	0x1acfba7c	8.5914475e-23
253	0x3d9c63d1	0.07636226
254	0xbd707c68	-0.058712393
255	0x9aea61a6	-9.693789e-23

network.0.conv.bias f4 [16]
0	0x3bfb9974	0.007678205
1	0xba8bddcd	-0.001067096
2	0xbb8f0872	-0.0043650204
3	0xbb11a594	-0.0022223936
4	0xbb9adf82	-0.0047263512
5	0xbb412b97	-0.0029475444
6	0x399fb8f7	0.00030464653
7	0xbad9d407	-0.0016618975
8	0xbb4e98dc	-0.0031524217
9	0x399b70c1	0.00029647912
10	0x3bf84087	0.0075760516
11	0x3b312dc8	0.0027035344
12	0x3b56f8de	0.0032802145
13	0xbb4ca1b2	-0.0031224308
14	0x3a8ab788	0.0010583261
15	0xbb8b8ed9	-0.004258972

network.0.norm.weight f4 [16]
0	0x3f94f424	1.1637006
1	0x3f892f4e	1.0717561
2	0x3f9fef0c	1.2494826
3	0x3f4c6379	0.79839283
4	0x3f9339d5	1.1502024
5	0x3fa52013	1.2900413
6	0x3f5f2401	0.8716431
7	0x3f950844	1.1643147
8	0x3f86e414	1.0538354
9	0x3f6f6629	0.9351526
10	0x3f9adfc4	1.2099538
11	0x3f6e0254	0.929723
12	0x3fa19cf6	1.2626026
13	0x3fb7bc0a	1.435426
14	0x3f5aa107	0.8540196
15	0x3f830a35	1.023749

network.0.norm.bias f4 [16]
0	0xbe9d3144	-0.3070165
1	0xbe392ca7	-0.1808344
2	0xbe485059	-0.195619
3	0xbd2204a7	-0.039555218
4	0xbea577e7	-0.3231804
5	0xbeafc870	-0.3433261
6	0xbe92a491	-0.2864118
7	0xbee09aa1	-0.43867972
8	0xbe421bf0	-0.1895597
9	0x3da89414	0.08231369
10	0x3ddc4dd8	0.10757035
11	0xbefa932e	-0.48940414
12	0xbef2831e	-0.4736566
13	0xbddbbba2	-0.107291475
14	0x3ee8fbd5	0.45504633
15	0xbb423618	-0.0029634293

network.0.norm.running_mean f4 [16]
0	0x3b57721e	0.0032874416
1	0xbb406fcb	-0.0029363509
2	0x3a394d85	0.0007068741
3	0x3a957bc7	0.0011404686
4	0x3b2a5421	0.0025990086
5	0xbb31818c	-0.0027085273
6	0xba0cc1f3	-0.0005369477
7	0x3adb1fd3	0.0016717858
8	0xbb1b8624	-0.0023731077
9	0xba01cdda	-0.0004951634
10	0x3bab93ca	0.0052361237
11	0xb9ad1691	-0.00033013945
12	0x3ba7eb53	0.0051244884
13	0x3bda4cd7	0.006661992
14	0xb982bd22	-0.00024936447
15	0x3a590998	0.00082793226

network.0.norm.running_var f4 [16]
0	0x3f6fe83c	0.93713737
1	0x3f00ce17	0.5031447
2	0x3f304d0c	0.68867564
3	0x3efdb479	0.49551752
4	0x3f28c9cf	0.65932935
5	0x3ef0751b	0.46964344
6	0x3ee5ee5d	0.4490842
7	0x3ec1ce82	0.37852865
8	0x3f22710a	0.63453734
9	0x3f14b07c	0.58081794
10	0x3eda3a9c	0.4262284
11	0x3e7a70f4	0.2445715
12	0x3f193bd5	0.5985692
13	0x3f646cd1	0.8922854
14	0x3e816399	0.252713
15	0x3f42c016	0.7607435

network.1.conv.weight f4 [16, 16, 3]
0	0x19c6a437	2.0539046e-23
1	0x3d58468a	0.052801646
2	0x3da10df7	0.07863992
3	0x19accf87	1.7868203e-23
4	0xbd32944e	-0.043598466
5	0x3e6b7ff3	0.22998028
6	0x994744ed	-1.0301978e-23
7	0xbefb4e83	-0.49083337
8	0x3b64d8bc	0.0034919223
9	0x9726d43c	-5.390537e-25
10	0xbd78971d	-0.060690988
11	0xbd448430	-0.047977626
12	0x98ebddbe	-6.096998e-24
13	0x3e2539e9	0.16135372
14	0xbd16a6ea	-0.036780275
15	0x1995cffd	1.5490245e-23
16	0xbe57a79c	-0.21060032
17	0xbe33d395	-0.17561181
18	0x97d8e4bf	-1.4016416e-24
19	0xbd971cd4	-0.073785454
20	0xbdc42ba4	-0.09578636
21	0x15929391	5.920175e-26
22	0xbead423b	-0.33839592
23	0xbeca90c1	-0.39563563
24	0x9a855889	-5.515055e-23
25	0x3d137c90	0.036007464
26	0xbe5fd333	-0.2185791
27	0x19149b3f	7.682772e-24
28	0xbdaa8e18	-0.083278835
29	0xbccb549c	-0.024820618
30	0x1a68f5f2	4.817515e-23
31	0xbede7f9e	-0.4345674
32	0x3dca9bae	0.09892975
33	0x98baec71	-4.8318618e-24
34	0x3e5e5f78	0.21716106
35	0x3d7312e4	0.059344187
36	0x95429508	-3.9295553e-26
37	0x3ee2cf60	0.4429884
38	0x3c451bd3	0.01203056
39	0x99e0ff2d	-2.3264122e-23
40	0x3e15b6fd	0.14620586
41	0xbe941fde	-0.28930563
42	0x19cd6ab0	2.1239594e-23
43	0xbd8c4b7b	-0.06850334
44	0xbcc97f14	-0.024596728
45	0x198a29f6	1.4285813e-23
46	0xbe2e84bb	-0.1704282
47	0xbe729035	-0.23687823
48	0x1a718afb	4.99499e-23
49	0xbe596fe1	-0.21234085
50	0xbceb391f	-0.02871376
51	0x9a5e7551	-4.600329e-23
52	0xbdb12363	-0.086493276
53	0x3ca208c8	0.019779578
54	0x9a4d4c5b	-4.2454686e-23
55	0xbe820704	-0.25395977
56	0xbd0b952e	-0.034077816
57	0x1689411f	2.217464e-25
58	0xbe81c9ee	-0.25349373
59	0x3d89322c	0.06699023
60	0x17893983	8.867935e-25
61	0xbd96054b	-0.07325228
62	0xbe817a6a	-0.25288707
63	0x990194fe	-6.6992324e-24
64	0xbe7e271f	-0.24819611
65	0xbca773ca	-0.020440955
66	0x98217d29	-2.0871952e-24
67	0xbe061038	-0.13092124
68	0xbe00f3f0	-0.12593055
69	0x19c29263	2.0118255e-23
70	0xbe85c108	-0.26123834
71	0x3ddb0543	0.10694363
72	0x1726e428	5.3925467e-25
73	0xbe837aaf	-0.25679538
74	0xbda36478	-0.07978147
75	0x996b6612	-1.2169828e-23
76	0xbdeb7cb3	-0.11498394
77	0x3cc6b192	0.024254594
78	0x98a1cc06	-4.1823536e-24
79	0xbed3a6e3	-0.41338262
80	0xbd848caa	-0.06472142
81	0x183ac0ad	2.4137213e-24
82	0xbe86211d	-0.26197138
83	0x3b273d8c	0.0025518863
84	0x96469c7b	-1.6043689e-25
85	0x3d2ee791	0.042701308
86	0xbd9b36b2	-0.07578792
87	0x18acd831	4.4679255e-24
88	0xbce83d55	-0.028349558
89	0xbea054fb	-0.31314835
90	0x98341bbb	-2.3278455e-24
91	0xbf093540	-0.5359688
92	0xbdcbc117	-0.09948938
93	0x98dd1317	-5.7146437e-24
94	0xbe35eef5	-0.17766936
95	0xbda2fe80	-0.07958698
96	0x9a043af6	-2.734459e-23
97	0x3e3a7335	0.1820801
98	0xbe75da0c	-0.2400896
99	0x1a9683d3	6.225152e-23
100	0xbed61e25	-0.41819873
101	0xbde5d1dc	-0.11221668
102	0x19b24ab7	1.8434946e-23
103	0xbe9e46b5	-0.3091332
104	0xbc54dbd3	-0.012991863
105	0x99062061	-6.9341765e-24
106	0x3d30219d	0.043000806
107	0xbd3e535c	-0.046466216
108	0x978013f6	-8.276845e-25
109	0xbe27c7ef	-0.16384862
110	0xbe773829	-0.24142517
111	0x9a2322af	-3.3735627e-23
112	0xbf00107f	-0.5002517
113	0xbccf31c9	-0.025292294
114	0x97c59bfb	-1.2770202e-24
115	0x3ca3d7ac	0.020000301
116	0xbbca4f58	-0.0061740093
117	0x1a400af9	3.9713533e-23
118	0xbb9f7091	-0.004865714
119	0x3d191c0f	0.037380274
120	0x9aa4e5ee	-6.820028e-23
121	0xbed78ed8	-0.4210117
122	0x3d767b45	0.060176153
123	0x998e05f4	-1.468486e-23
124	0x3da0d8bb	0.07853838
125	0xba10cb4f	-0.00055234594
126	0x19141ea8	7.657612e-24
127	0xbea9a493	-0.33133373
128	0xbd2159b1	-0.039392177
129	0x19d57f54	2.2075111e-23
130	0xbd849db2	-0.064753905
131	0xbd20e083	-0.03927661
132	0x1a0f895c	2.9682665e-23
133	0xbdffd439	-0.1249165
134	0xbe5ffdb5	-0.21874125
135	0x9993a547	-1.5266199e-23
136	0xbe470071	-0.19433762
137	0xbed879f9	-0.42280558
138	0x19185dfc	7.877196e-24
139	0xbe74a534	-0.23891145
140	0x3ddb2e9e	0.10702251
141	0x98837974	-3.3985343e-24
142	0x3c139677	0.009008042
143	0xbd9851b4	-0.07437459
144	0x17b1e384	1.149579e-24
145	0x3e456f4f	0.19280742
146	0x3e0e93c1	0.13923551
147	0x1a13f2b3	3.0594938e-23
148	0x3e760d3a	0.24028483
149	0x3e5d980a	0.2164003
150	0x19d37b92	2.1866798e-23
151	0x3d4745ec	0.048650667
152	0xbd049145	-0.032365102
153	0x168ce1c8	2.2760708e-25
154	0x3d1fcb27	0.0390121
155	0x3d910963	0.070818685
156	0x1a778737	5.118763e-23
157	0x3e2c0652	0.16799286
158	0x3dd25a02	0.10271074
159	0x1a029449	2.7003154e-23
160	0x3e6db2e1	0.23212768
161	0xbcbcd8f1	-0.023052664
162	0x1a3f4f10	3.956174e-23
163	0x3e55ef0b	0.20891969
164	0x3d66a645	0.05631091
165	0x191b1e43	8.0194235e-24
166	0x3e3f7960	0.18698645
167	0x3e4c178f	0.19930862
168	0x9a166ab6	-3.1105473e-23
169	0xbc257025	-0.010097538
170	0xbd36b03b	-0.04460166
171	0x18dc6f3e	5.6980993e-24
172	0x3def4167	0.116823964
173	0x3e4ba0f8	0.19885623
174	0x9a283f54	-3.4792742e-23
175	0x3cb3fc00	0.021970749
176	0xbdf34a15	-0.118793644
177	0x9a18c0c7	-3.1588588e-23
178	0x3dc91ce2	0.09819962
179	0x3e356a14	0.17716247
180	0x9a0b718c	-2.883625e-23
181	0x3e9537b4	0.2914406
182	0x3dd58c75	0.10427181
183	0x99057069	-6.89864e-24
184	0x3ea3f18a	0.32020217
185	0x3de75479	0.11295409
186	0x99b554c0	-1.8749192e-23
187	0x3d265c14	0.040615156
188	0xbe2839ee	-0.16428348
189	0x1792055c	9.436382e-25
190	0xbdc7283b	-0.0972447
191	0x3d9dcb32	0.07704772
192	0x1a96665b	6.220391e-23
193	0xbe873bcb	-0.26412806
194	0x3e340664	0.17580563
195	0x980e4187	-1.8386153e-24
196	0x3db9aebf	0.09066533
197	0x3db162c7	0.086614184
198	0x99d33814	-2.1839538e-23
199	0x3e61db21	0.22056247
200	0x3e1756f5	0.14779265
201	0x99e52c81	-2.369602e-23
202	0xbd961b10	-0.073293805
203	0xbdf4c6b1	-0.1195196
204	0x99892c8f	-1.4183465e-23
205	0xbdf85265	-0.121250905
206	0x3e740fc4	0.23834139
207	0x98b3daf2	-4.6491494e-24
208	0x3d0407cc	0.032234
209	0xbefac491	-0.48978093
210	0x19eb39a3	2.432171e-23
211	0xbe559737	-0.20858465
212	0xbdde5491	-0.108559735
213	0x9a968d5f	-6.2266943e-23
214	0xbe8ef9c4	-0.2792493
215	0x3d770e4f	0.06031638
216	0x1a96cbc8	6.236777e-23
217	0xbe77774d	-0.24166603
218	0xbe329853	-0.1744092
219	0x17a6ba2f	1.0774498e-24
220	0xbdfccad5	-0.12343375
221	0xbdf1d38d	-0.11807928
222	0x19285e6e	8.704466e-24
223	0xbe484047	-0.1955577
224	0xbf076399	-0.5288635
225	0x18d3446d	5.4611314e-24
226	0xbe516bed	-0.20451327
227	0x3e030a0b	0.127968
228	0x1a0c0097	2.8951798e-23
229	0x3e2a83c0	0.16651821
230	0x3e15915f	0.14606236
231	0x983404d7	-2.3266898e-24
232	0xbeecdae1	-0.4626074
233	0xbd06d79f	-0.032920476
234	0x993df2f6	-9.8201366e-24
235	0xbdccbd40	-0.09997034
236	0x3d62e7bb	0.055396777
237	0x98bd4748	-4.892733e-24
238	0xbdd3ad61	-0.10335804
239	0x3e0a6d03	0.13518147
240	0x1a92c024	6.0694605e-23
241	0xbe311768	-0.17294085
242	0x3e44e518	0.19228017
243	0x9a2a7044	-3.5245863e-23
244	0x3bab1c42	0.0052218745
245	0xbed26e51	-0.4109979
246	0x1a1bd51d	3.22254e-23
247	0xbdc3ceef	-0.09560954
248	0x3c01daf7	0.00792574
249	0x99086753	-7.051901e-24
250	0xbd011baa	-0.031520523
251	0x3b31dc5d	0.0027139403
252	0x1882dd87	3.3827898e-24
253	0x3e560397	0.20899807
254	0x3da462cf	0.08026659
255	0x9907c425	-7.0189475e-24

network.1.conv.bias f4 [16]
0	0x3b17c7cf	0.0023159867
1	0x3ac6c993	0.0015166275
2	0xbc14d3ef	-0.009083732
3	0x3bcbbebc	0.0062178057
4	0xbb474ad1	-0.0030409584
5	0x3bb8eb10	0.005643256
6	0x3a1ab7e9	0.00059020385
7	0xbaf35417	-0.001856449
8	0xba8f158b	-0.0010916454
9	0x3be5a23f	0.0070078666
10	0xb907bc76	-0.0001294481
11	0x3b78ecf5	0.0037983034
12	0x3b28a4a8	0.0025732908
13	0xbc2328c2	-0.009958448
14	0x3b4e9567	0.0031522156
15	0x3a2af9c2	0.0006522202

network.1.norm.weight f4 [16]
0	0x3fae2f2c	1.3608146
1	0x3f718b02	0.94352734
2	0x3f8c13f1	1.0943586
3	0x3f6387f0	0.888793
4	0x3f8b1b8d	1.0867783
5	0x3f968844	1.1760335
6	0x3f813f3f	1.0097426
7	0x3f8436ff	1.0329283
8	0x3f8b5fc5	1.0888602
9	0x3f96d7f2	1.1784651
10	0x3f83641f	1.026493
11	0x3f776c64	0.96649766
12	0x3f7432b2	0.95389855
13	0x3f89eb12	1.0774863
14	0x3f8ac673	1.0841812
15	0x3f65412e	0.8955258

network.1.norm.bias f4 [16]
0	0x3de219a5	0.110400476
1	0x3e035eb3	0.12829094
2	0x3e8b9dbf	0.27268788
3	0xbe89f438	-0.26944137
4	0x3e04814c	0.12939948
5	0xbda1a38b	-0.078925215
6	0x3e1186c4	0.14211565
7	0xbc81c5dc	-0.015841417
8	0xbe052b87	-0.13004886
9	0x3e578390	0.21046281
10	0x3e479b88	0.19492924
11	0xbe81ff59	-0.25390127
12	0xbeda0a4c	-0.4258598
13	0xbe29c034	-0.16577226
14	0x3e0d9f10	0.13830209
15	0x3ea9160a	0.33024627

network.1.norm.running_mean f4 [16]
0	0xbeb9f105	-0.36316696
1	0xbf16f99d	-0.5897463
2	0xbf0b02e0	-0.5430126
3	0x3e967b8d	0.29391137
4	0xbeda7b5a	-0.42672235
5	0xbeb8b02f	-0.36071917
6	0xbf0c7ee4	-0.5488112
7	0x3e9cc3c3	0.30618104
8	0x3e3cb7e6	0.18429527
9	0xbe779a5d	-0.24179979
10	0xbeea7d73	-0.45798835
11	0xbe18224b	-0.14856832
12	0x3d8d5a6e	0.06902014
13	0xbe867b6b	-0.26266035
14	0x3e90c768	0.28277135
15	0xbf0a5ac4	-0.5404475

network.1.norm.running_var f4 [16]
0	0x3ee7aa84	0.4524728
1	0x3f12ee47	0.5739483
2	0x3f12009a	0.5703217
3	0x3e905a2b	0.28193793
4	0x3edae4e4	0.42752755
5	0x3ea2d9ea	0.3180688
6	0x3ec1bcbe	0.3783931
7	0x3eb038dd	0.34418383
8	0x3ecc18e7	0.3986275
9	0x3eb92d85	0.3616754
10	0x3ec01f1f	0.37523744
11	0x3e586fe7	0.21136437
12	0x3e5b4e8a	0.21416679
13	0x3e89be82	0.26903158
14	0x3f2b91e2	0.67019475
15	0x3ef3eb3c	0.47640407

network.2.conv.weight f4 [16, 16, 3]
0	0x1604f341	1.0739632e-25
1	0xbd467e38	-0.048460215
2	0xbeea3f81	-0.45751575
3	0x99224cde	-8.390727e-24
4	0xbd73be4a	-0.059507646
5	0xbd738404	-0.05945207
6	0x99fa8834	-2.5904406e-23
7	0xbe2551e3	-0.16144519
8	0xbddbdf15	-0.10735909
9	0x1a046b2e	2.738354e-23
10	0xbe54a3d4	-0.2076562
11	0xbe89bd8d	-0.26902428
12	0x9a77df90	-5.1258995e-23
13	0xbe4bd0dc	-0.19903892
14	0xbd6d8d88	-0.057996303
15	0x1a809f59	5.3197e-23
16	0xbc7e0dfb	-0.015506263
17	0x3dc07eb7	0.09399169
18	0x99c9af9a	-2.0853838e-23
19	0xbd55ccc8	-0.052197248
20	0x3e5dffd4	0.21679622
21	0x966c4e62	-1.9088661e-25
22	0xbe18c55f	-0.14919041
23	0xbf1a3f01	-0.60252386
24	0x988c1751	-3.6212695e-24
25	0xbebe2535	-0.37137762
26	0xbd89b69f	-0.06724285
27	0x185082ba	2.694937e-24
28	0x3e00c890	0.12576509
29	0xbebf3b4d	-0.3734993
30	0x9862022b	-2.921091e-24
31	0x3d81eebd	0.06344364
32	0xbe49d287	-0.19709216
33	0x1a7ddce2	5.24976e-23
34	0xbd4f4880	-0.05060625
35	0x3e5e9353	0.21735887
36	0x9a0b621c	-2.8823778e-23
37	0xbdd89cb8	-0.10576767
38	0xbe5c4bf6	-0.21513352
39	0x98b6b9a2	-4.723334e-24
40	0x3d7beaae	0.061503105
41	0x3d41dbec	0.047328874
42	0x19510f7e	1.0808175e-23
43	0xbdd9fd0b	-0.10643967
44	0xbd98cbb8	-0.07460731
45	0x1a997f79	6.348526e-23
46	0x3ca9a29e	0.020707425
47	0x3be7a1fe	0.0070688715
48	0x18afbb85	4.5425786e-24
49	0xbe828f19	-0.254998
50	0xbd95a540	-0.073069096
51	0x19e32a7c	2.3488409e-23
52	0xbeadc21c	-0.33937156
53	0x3dceb0f6	0.10092346
54	0x18ce851d	5.3384162e-24
55	0xbea72460	-0.3264494
56	0x3d33b2e7	0.043871786
57	0x9a0ac34e	-2.8695497e-23
58	0x3ebf7616	0.3739478
59	0xbe66e5f0	-0.22548652
60	0x98af212e	-4.5269943e-24
61	0xbdabd501	-0.08390237
62	0xbd84adfa	-0.06478496
63	0x9909a268	-7.115532e-24
64	0xbb686113	-0.0035458251
65	0x39175062	0.00014430427
66	0x99ecd683	-2.4488469e-23
67	0xbeb6e2d9	-0.35719946
68	0x3d3383c5	0.043826837
69	0x998032a2	-1.325534e-23
70	0x3e4dccd1	0.20097663
71	0xbdd1e43d	-0.10248611
72	0x174637ce	6.4047686e-25
73	0xbc287cb6	-0.01028364
74	0xbed5683f	-0.41681096
75	0x19e0f84b	2.3261342e-23
76	0xbe90efd1	-0.28307965
77	0xbd17d01a	-0.037063695
78	0x9a6f83c6	-4.9530487e-23
79	0xbe635d34	-0.22203523
80	0xbc534604	-0.012895111
81	0x9a0cd2f1	-2.912172e-23
82	0x3d293ccd	0.04131775
83	0x3dafbc8b	0.085808836
84	0x1a003de9	2.651979e-23
85	0x3e29e632	0.16591719
86	0xbe0267dd	-0.12734933
87	0x98c12ef6	-4.993675e-24
88	0xbe0c1f5f	-0.13683842
89	0xbd92cadb	-0.07167598
90	0x19ee355a	2.4630172e-23
91	0x3e5851d0	0.21124959
92	0xbdd08b0e	-0.101827726
93	0x18926009	3.7837086e-24
94	0xbe90ce0f	-0.2828221
95	0x3d72c837	0.05927297
96	0x96a089e2	-2.593641e-25
97	0x3e70e521	0.23524906
98	0xbe672906	-0.22574243
99	0x19e2f09e	2.3465037e-23
100	0x3e0bb705	0.13644035
101	0x3ddc8654	0.107678086
102	0x998d47c0	-1.4608038e-23
103	0x3e7bd9d4	0.24594814
104	0xbc2d7434	-0.010586787
105	0x9a54564d	-4.3910286e-23
106	0xbe0cea8a	-0.13761345
107	0x3e23f81f	0.1601262
108	0x9a11b757	-3.0133398e-23
109	0x3e27c1c8	0.16382515
110	0xbebd3c44	-0.36960042
111	0x187fe5c6	3.3073983e-24
112	0x3df39ce9	0.118951626
113	0xbe486fe5	-0.19573934
114	0x9a6b70f5	-4.8688107e-23
115	0x3dbd7eb4	0.09252682
116	0xbd83fd92	-0.06444849
117	0x195c66fd	1.1394532e-23
118	0xbe1c3f75	-0.15258582
119	0x3e0e26b2	0.13881949
120	0x9a4616dd	-4.096391e-23
121	0xbe4abfb8	-0.19799697
122	0xbe07c328	-0.1325804
123	0x9aa00484	-6.6181744e-23
124	0xbce5fdfb	-0.028075209
125	0x3e21a2ee	0.15784809
126	0x98d03c26	-5.3827474e-24
127	0xbdfc3f79	-0.12316794
128	0x3e0e4b9a	0.13896027
129	0x17764c09	7.9582857e-25
130	0x3d4fb987	0.050714042
131	0xbe50cc8d	-0.2039053
132	0x9975c433	-1.2705825e-23
133	0xbe6a9229	-0.22907318
134	0x3e8fb161	0.28065017
135	0x1a725c56	5.0119015e-23
136	0xbd08dd55	-0.033414204
137	0x3e8eef83	0.27917108
138	0x99c1d196	-2.0040383e-23
139	0xbdc18650	-0.09449446
140	0xbe62378e	-0.22091505
141	0x1818945b	1.972044e-24
142	0x3d806b54	0.06270471
143	0x3e0772eb	0.13227431
144	0x19c5838d	2.0422456e-23
145	0xbe8535f8	-0.26017737
146	0x3dd5d1fa	0.104404405
147	0x19d1818b	2.1662415e-23
148	0xbea9b45e	-0.33145422
149	0x3cc77ac2	0.024350528
150	0x18171434	1.9526493e-24
151	0xbe313f39	-0.17309274
152	0x3d828c10	0.06374371
153	0x1a3616d2	3.7655152e-23
154	0x3e91cad7	0.28475067
155	0xbe7837dd	-0.2424006
156	0x1982a7a9	1.3509402e-23
157	0xbdd1f275	-0.10251323
158	0x3ca8404f	0.020538477
159	0x1990d5a4	1.497554e-23
160	0xbe19dd05	-0.15025719
161	0x3b7e6486	0.003881724
162	0x9909f685	-7.132518e-24
163	0xbea8969a	-0.329274
164	0x3d933f0f	0.07189762
165	0x9a0cefeb	-2.9145126e-23
166	0x3decb7fd	0.115585305
167	0xbdb1fa6f	-0.086903445
168	0x98545689	-2.7444047e-24
169	0x3d9009a4	0.07033089
170	0xbe806548	-0.2507727
171	0x98c201d8	-5.0149686e-24
172	0xbeb5f336	-0.35537118
173	0xbe2dce7c	-0.16973299
174	0x19c4c2cf	2.0344608e-23
175	0xbe8eb9e8	-0.2787621
176	0x3bbbfc6c	0.005736878
177	0x9aa80bc5	-6.9502186e-23
178	0xbd912f87	-0.07089143
179	0xbd2fc84a	-0.04291562
180	0x9900df47	-6.6625354e-24
181	0x3ed0b417	0.40762398
182	0xbd46bef4	-0.04852195
183	0x18e3565b	5.876532e-24
184	0xbeaf7901	-0.34272006
185	0xbd136750	-0.0359872
186	0x18f50d85	6.3344667e-24
187	0xbe5c3716	-0.21505389
188	0xbdb81eb3	-0.089902304
189	0x1a690568	4.8187638e-23
190	0xbea514b8	-0.3224237
191	0xbce8a9c8	-0.02840127
192	0x97ba0453	-1.202106e-24
193	0xbe92c452	-0.28665406
194	0xbd6f253a	-0.05838511
195	0x9a17c863	-3.138794e-23
196	0xbee38ad7	-0.44441864
197	0x3db0eb69	0.08638651
198	0x997a7820	-1.2948956e-23
199	0xbea839e5	-0.3285667
200	0x3ddc666e	0.107617244
201	0x993a2fbb	-9.625614e-24
202	0x3e9fc72f	0.31206653
203	0xbe30f6d1	-0.17281653
204	0x97f01f3a	-1.5517519e-24
205	0xbea51a24	-0.32246506
206	0x3d370ddf	0.044690963
207	0x92f76b0d	-1.5614282e-27
208	0xbe4060a5	-0.18786867
209	0x3d3fe939	0.046853278
210	0x99d2bc1b	-2.1789466e-23
211	0xbeddbcee	-0.43308204
212	0x3e1716a4	0.1475473
213	0x1975ad93	1.2701256e-23
214	0x3e637f4d	0.2221653
215	0xbe03a85c	-0.12857193
216	0x19b48fcf	1.8669648e-23
217	0x3e05a3eb	0.13050811
218	0xbe6c2a55	-0.23063023
219	0x9a1ff48b	-3.307797e-23
220	0xbeb4b4e1	-0.3529425
221	0xbde397c6	-0.11112933
222	0x1a11d232	3.0155092e-23
223	0xbea08dd9	-0.3135822
224	0x3e15efdc	0.1464228
225	0x1a16a846	3.1155203e-23
226	0xbecb6e66	-0.39732665
227	0x3d80041c	0.06250784
228	0x168f91a5	2.319481e-25
229	0x3efc7fd4	0.49316275
230	0xbda2c555	-0.07947794
231	0x19950e02	1.5411897e-23
232	0xbe750128	-0.23926222
233	0xbd85a532	-0.06525649
234	0x9929c511	-8.7768925e-24
235	0xbe76bc5a	-0.24095288
236	0xbde602bc	-0.1123099
237	0x963af179	-1.5101156e-25
238	0xbedbc2c1	-0.42922023
239	0x3defa477	0.11701291
240	0x178dae79	9.155955e-25
241	0xbed75089	-0.4205363
242	0x3ca360cb	0.019943615
243	0x18b1202b	4.578591e-24
244	0xbe577a4b	-0.21042745
245	0x3e0ccba4	0.13749558
246	0x1a064c7f	2.7772344e-23
247	0xbe827bd2	-0.25485092
248	0x3c8ddefd	0.017318243
249	0x984c7f00	-2.64305e-24
250	0x3e389821	0.18026783
251	0xbeb057e0	-0.34442043
252	0x1a9f909e	6.59945e-23
253	0xbe654d11	-0.2239268
254	0x3a0688b9	0.00051320676
255	0x18cc33a9	5.2784927e-24

network.2.conv.bias f4 [16]
0	0x3b12007b	0.0022278118
1	0x3b28e28f	0.0025769805
2	0x3b2f8b7d	0.0026786022
3	0xbb432ac8	-0.0029780138
4	0xbc0f8692	-0.008760111
5	0xbaadb963	-0.0013254102
6	0xbb339214	-0.0027400302
7	0xbbfc25de	-0.007694944
8	0x38a7351b	7.973072e-05
9	0x3b166e7d	0.002295404
10	0xbb46a92c	-0.0030313237
11	0x3a2eef99	0.0006673276
12	0x3b646e97	0.0034855956
13	0xbc1d6328	-0.00960616
14	0x38df9fd3	0.00010663238
15	0xba3f33cf	-0.0007293792

network.2.norm.weight f4 [16]
0	0x3f71a8fc	0.94398475
1	0x3fb676a3	1.4254955
2	0x3f46d1ef	0.77664083
3	0x3fc0bc71	1.5057508
4	0x400e86e3	2.2269828
5	0x3fd0b48c	1.6305099
6	0x3f42764e	0.7596177
7	0x3fa477ba	1.2849038
8	0x3f2ec46c	0.68268466
9	0x3f6826ae	0.9068402
10	0x3f469d44	0.7758372
11	0x3f527173	0.8220436
12	0x3f5fd66d	0.8743656
13	0x3fdafd9a	1.7108643
14	0x3f9a01b9	1.2031776
15	0x3f919ae7	1.1375397

network.2.norm.bias f4 [16]
0	0xbe88f7ff	-0.26751706
1	0xbe2dfc7d	-0.16990848
2	0xbe80d32b	-0.25161108
3	0xbe3a8e2c	-0.18218297
4	0xbe0e00c6	-0.13867483
5	0xbe40f4a1	-0.18843319
6	0xbe6fdd56	-0.23424277
7	0xbf047762	-0.51744664
8	0xbe20f490	-0.15718293
9	0xbe39181e	-0.18075606
10	0xbea46a9c	-0.32112586
11	0xbed44391	-0.414578
12	0xbe24713a	-0.16058818
13	0xbe192eb7	-0.14959227
14	0x3ec47df1	0.38377336
15	0x3d18286c	0.037147924

network.2.norm.running_mean f4 [16]
0	0xbf2b062b	-0.66806287
1	0xbf3c69aa	-0.7359873
2	0x3e1d2a26	0.1534811
3	0xbf4dea38	-0.80435514
4	0xbf642455	-0.8911794
5	0xbf1dece5	-0.616896
6	0xbe4dae26	-0.20085964
7	0xbf7a4c00	-0.97772217
8	0x3d9243c5	0.07141832
9	0xbe0bc77b	-0.13650315
10	0x3dc321fc	0.095279664
11	0x3dc7fa84	0.09764579
12	0xbe2f5712	-0.17123058
13	0xbf53571b	-0.8255479
14	0xbd6784e5	-0.056523222
15	0xbf606320	-0.8765125

network.2.norm.running_var f4 [16]
0	0x3f2d27da	0.67638934
1	0x3f6622dc	0.8989694
2	0x3f296ff0	0.6618643
3	0x3f6749d8	0.9034705
4	0x3fd1710b	1.6362623
5	0x3f974869	1.1818973
6	0x3ed5e0a6	0.41772956
7	0x3f1ee3c0	0.6206627
8	0x3ed1d3c5	0.4098188
9	0x3e892615	0.26786867
10	0x3ede7d9b	0.43455204
11	0x3edb35c3	0.42814454
12	0x3ee1aa93	0.4407545
13	0x3f8c442a	1.0958302
14	0x3f8ce9e7	1.1008881
15	0x3faf9539	1.3717414

network.3.conv.weight f4 [16, 16, 3]
0	0x98355a11	-2.3439174e-24
1	0x3e652a56	0.22379431
2	0x3e82c7b1	0.25542977
3	0x999cf69b	-1.6229625e-23
4	0xbd9a688c	-0.07539472
5	0xbeb4f8fb	-0.35346207
6	0x176ba2aa	7.6137906e-25
7	0x3d8e4ddf	0.069484465
8	0x3e0eeb80	0.13957024
9	0x199e388c	1.6359656e-23
10	0xbd9473a2	-0.07248618
11	0xbf05f7de	-0.5233134
12	0x99cfc9f3	-2.1484865e-23
13	0x3d0777ad	0.033073116
14	0xbebb9298	-0.3663528
15	0x9a02cc65	-2.704848e-23
16	0x3d305a87	0.043055084
17	0xbef624f7	-0.48075077
18	0x1962bbb4	1.17218325e-23
19	0xbdd08819	-0.101822086
20	0x3e53daad	0.20688887
21	0x17970427	9.759194e-25
22	0x3dcea4b0	0.100900054
23	0xbe5132d3	-0.20429544
24	0x1a63eb25	4.7132448e-23
25	0xbe06ff22	-0.13183263
26	0x3e378da0	0.1792512
27	0x1999a8a4	1.5887943e-23
28	0xbe269821	-0.1626897
29	0x3e0afd54	0.135732
30	0x1908b534	7.067629e-24
31	0xbdbf0a87	-0.0932818
32	0x3e15a7f9	0.14614858
33	0x15954042	6.0282e-26
34	0xbe2f8224	-0.17139488
35	0x3dd21f7b	0.10259911
36	0x1a2471c1	3.4006295e-23
37	0xbc8fbe99	-0.017546939
38	0x3c1122d4	0.008858401
39	0x9a90c621	-5.98771e-23
40	0x3c0813a4	0.008305464
41	0xbeb4aaee	-0.3528666
42	0x197187b1	1.2486811e-23
43	0xbba2794a	-0.0049583064
44	0xbe984bda	-0.2974537
45	0x1905d912	6.919776e-24
46	0xbdf91575	-0.12162296
47	0xbdfbc05b	-0.12292548
48	0x172c1187	5.559832e-25
49	0xbd6f7a77	-0.0584664
50	0xbd84be1f	-0.06481575
51	0x173b9edb	6.0623463e-25
52	0xbe011d18	-0.12608755
53	0x3e15a96a	0.14615408
54	0x19742ef7	1.2623989e-23
55	0x3e5a3b8e	0.21311781
56	0x3d84730e	0.064672574
57	0x9a5ac243	-4.5238267e-23
58	0xbdee77c0	-0.11643934
59	0x3cee3961	0.029080095
60	0x1a1cd979	3.2435717e-23
61	0xbd887876	-0.06663601
62	0x3efae764	0.49004662
63	0x9799070f	-9.889175e-25
64	0xbd872f51	-0.06600822
65	0x3e80f267	0.25184938
66	0x197de19e	1.31253565e-23
67	0xbd77f0d8	-0.06053242
68	0xbcd6ca25	-0.026219437
69	0x9911e6f8	-7.542968e-24
70	0x3bfd3cce	0.0077281957
71	0xbd5278e8	-0.051384836
72	0x18ead8ab	6.070636e-24
73	0xbd011e93	-0.0315233
74	0xbdb801eb	-0.08984741
75	0x99a72513	-1.728237e-23
76	0x3e17a4ce	0.14808962
77	0x3b1ba29c	0.0023748046
78	0x199f54c3	1.647445e-23
79	0xbce3ecb2	-0.027822826
80	0xbdd195a6	-0.10233621
81	0x1a05a586	2.7637464e-23
82	0xb9a54a7d	-0.0003152675
83	0x3d5a6da1	0.053327207
84	0x97d4c6cc	-1.3750362e-24
85	0xbdd1df3f	-0.10247659
86	0xbc88db3d	-0.016706103
87	0x1a4b4001	4.2031118e-23
88	0xbdb73606	-0.08945851
89	0x3e4dcea7	0.20098363
90	0x97caac21	-1.3097395e-24
91	0xbcab3409	-0.020898836
92	0xbd0c0a23	-0.034189355
93	0x9a60a544	-4.6455615e-23
94	0xbe2b495f	-0.16727208
95	0x3d2b5408	0.041828185
96	0x9a53306c	-4.3672892e-23
97	0xbd0fbb24	-0.03509058
98	0x3df681f7	0.120365076
99	0x98d2a3f3	-5.4449274e-24
100	0x3e065e2f	0.13121866
101	0xbe6cd99f	-0.23129891
102	0x17ec37f8	1.5265271e-24
103	0x3c4b7945	0.01241905
104	0x3e13914d	0.14410897
105	0x1a22c2b2	3.365809e-23
106	0x3dc230be	0.09481953
107	0xbda75203	-0.08169939
108	0x1943bde7	1.0119614e-23
109	0x3d2cef47	0.04222038
110	0xbf095d81	-0.536583
111	0x99a7ca4e	-1.7349105e-23
112	0xbce2bfce	-0.02767935
113	0xbea75253	-0.32679996
114	0x17af35a2	1.1322649e-24
115	0x3b41f9b8	0.0029598307
116	0x3dd6f320	0.10495591
117	0x19a94b00	1.7504483e-23
118	0x3e1d908b	0.1538717
119	0xbe3aaacf	-0.18229221
120	0x97203d8d	-5.1776476e-25
121	0xbd9b60d1	-0.07586826
122	0x3da28ffd	0.0793762
123	0x9a728ed0	-5.015979e-23
124	0x3c7da281	0.0154806385
125	0x3de969a2	0.11397101
126	0x98cb056b	-5.247974e-24
127	0xbd3f1817	-0.046653833
128	0x3d495d3a	0.049161173
129	0x9a421ec8	-4.0143125e-23
130	0xbe8d3bc6	-0.27584666
131	0xba311009	-0.00067544036
132	0x9883d919	-3.408192e-24
133	0x3cff0a61	0.031132879
134	0x3e2c81b0	0.16846347
135	0x18209186	2.0752986e-24
136	0x3d31ba0c	0.04339032
137	0xbe8aa2cb	-0.27077326
138	0x990108da	-6.670931e-24
139	0x3d9ee0c3	0.07757714
140	0xbe5140fb	-0.20434944
141	0x197a8e4d	1.29534345e-23
142	0x3c671cd5	0.014105995
143	0xbeedb4d1	-0.46427014
144	0x19fe6519	2.6303817e-23
145	0x3d86cf1b	0.06582471
146	0x3e8656d2	0.26238114
147	0x19917408	1.5039513e-23
148	0x3d990887	0.074723296
149	0xbe06cbe1	-0.13163711
150	0x179d99d7	1.0184722e-24
151	0xbccdb6e1	-0.025111618
152	0x3dd88664	0.10572508
153	0x97ae2b57	-1.1255427e-24
154	0xbc89eba1	-0.01683599
155	0xbe7c77fe	-0.24655148
156	0x199fdb45	1.6528777e-23
157	0xbda3fe6b	-0.08007511
158	0xbf21c675	-0.63193446
159	0x1a2b77b7	3.5458676e-23
160	0xbd887c80	-0.066643715
161	0xbede5526	-0.43424338
162	0x18bcfc24	4.8851458e-24
163	0xba0ae375	-0.0005298176
164	0x3e21ac0e	0.1578829
165	0x1980561e	1.3269672e-23
166	0x3b3357cb	0.002736556
167	0xbe8c99b8	-0.27461028
168	0x9a4046ce	-3.9761865e-23
169	0x3d36b0d0	0.044602215
170	0x3da047aa	0.07826169
171	0x9a019f76	-2.6805386e-23
172	0xbb2c961e	-0.0026334594
173	0x3d3c482c	0.045967266
174	0x18d04663	5.3837812e-24
175	0xbdbfc316	-0.093633816
176	0x3d624524	0.05524172
177	0x1a53749a	4.3727967e-23
178	0x3d03892d	0.032113243
179	0x3d6aa0af	0.057282146
180	0x97e354cb	-1.4690936e-24
181	0x3dc7d4d7	0.09757393
182	0xbbb05f78	-0.0053824745
183	0x9990f1f7	-1.498698e-23
184	0xbd8dcc4b	-0.069237314
185	0xbeb258bf	-0.34833333
186	0x98df2a5e	-5.768693e-24
187	0x3d2ed85b	0.0426868
188	0xbe90af81	-0.282589
189	0x96940cdb	-2.3918803e-25
190	0x3de0a165	0.109682836
191	0xbdc0351d	-0.093851306
192	0x986474ad	-2.9527216e-24
193	0x3b847847	0.0040426585
194	0x3e99469d	0.29936686
195	0x998b672d	-1.4413936e-23
196	0x3db05ad6	0.086110756
197	0xbea38cb8	-0.31943297
198	0x17e95129	1.507776e-24
199	0xbe10fba8	-0.14158499
200	0x3bd4bbca	0.0064921128
201	0x197a6aff	1.2946305e-23
202	0xbc13de59	-0.00902518
203	0xbe477c08	-0.19480908
204	0x9a8195f3	-5.3595406e-23
205	0xbd474628	-0.04865089
206	0xbea9dacb	-0.33174738
207	0x9a655be9	-4.7430335e-23
208	0x3ce8bdfd	0.028410906
209	0xbe4b84f5	-0.19874938
210	0x99c6cb65	-2.055487e-23
211	0x3e019e03	0.12657933
212	0x3db01fc5	0.085998096
213	0x194776b7	1.0312033e-23
214	0x3e4b4a89	0.19852652
215	0xbebbb1c2	-0.36659056
216	0x999dcae9	-1.6315374e-23
217	0xbc5e047d	-0.013550875
218	0x3d7c33a9	0.061572704
219	0x98070c72	-1.7454624e-24
220	0xbcdc44a6	-0.026888203
221	0x3d8be046	0.06829886
222	0x19843e47	1.3673634e-23
223	0xbcdf1691	-0.02723244
224	0x3e5350a6	0.20636234
225	0x9a30c684	-3.6556307e-23
226	0xbe0cbf6a	-0.13744894
227	0x3d5c5e69	0.053800974
228	0x19b63b11	1.8842216e-23
229	0x3e22c4ef	0.15895437
230	0x3d84a09a	0.06475945
231	0x9a856ab8	-5.5179924e-23
232	0x3dd42f28	0.10360557
233	0xbeae7930	-0.34076834
234	0x9a91498b	-6.008941e-23
235	0x3cb31586	0.02186085
236	0xbe74af68	-0.23895037
237	0x9a006afc	-2.65562e-23
238	0x3e01502b	0.12628238
239	0xbe02e674	-0.12783223
240	0x17594e2f	7.0215163e-25
241	0x3e25e5fb	0.16201012
242	0x3e3da987	0.18521701
243	0x191ec12b	8.2074185e-24
244	0x3dc68b08	0.09694487
245	0xbe2d3c5d	-0.16917558
246	0x197a5fce	1.2944045e-23
247	0xbd2c1fce	-0.04202252
248	0x3de17a1f	0.11009621
249	0x9a2ab41e	-3.5300674e-23
250	0x3e2b5f78	0.16735637
251	0xbe14c3f6	-0.14527878
252	0x98266794	-2.150729e-24
253	0xbca8abeb	-0.02058979
254	0xbed7247b	-0.4202002
255	0x19bfb734	1.9822932e-23

network.3.conv.bias f4 [16]
0	0x3ad6f40c	0.0016399636
1	0x38539823	5.044801e-05
2	0x39caeb64	0.00038703822
3	0xbad33042	-0.0016112404
4	0x3b0cc07a	0.002147703
5	0x3b25a20f	0.0025273596
6	0xbb106ed0	-0.0022038706
7	0x3999401a	0.00029230193
8	0x3aff1797	0.0019461986
9	0xba889de1	-0.0010423028
10	0xbaf20edd	-0.0018467564
11	0x3b9e450e	0.0048300093
12	0x396a205d	0.00022328035
13	0x3a146824	0.000566127
14	0x3b84d6c8	0.004053924
15	0x3b5f503f	0.003407493

network.3.norm.weight f4 [16]
0	0x3fa647ee	1.2990701
1	0x3f302bfc	0.68817115
2	0x3f9c6208	1.2217417
3	0x3f9c5b3d	1.2215344
4	0x3f9f8e43	1.246529
5	0x3fa1b82d	1.2634331
6	0x3fa45370	1.2837963
7	0x3f36b1d2	0.7136508
8	0x3faa24f2	1.3292525
9	0x3f9e34f5	1.2359911
10	0x3f9872c7	1.1910027
11	0x3fa349a5	1.275685
12	0x3f407891	0.7518397
13	0x3f3c09ab	0.7345225
14	0x3f9993a7	1.1998185
15	0x3fa2bbad	1.2713524

network.3.norm.bias f4 [16]
0	0x3ee6fb11	0.45113423
1	0xbddbb371	-0.10727585
2	0x3eac75ab	0.33683524
3	0x3ea3d8b1	0.3200126
4	0x3ec51420	0.38491917
5	0x3ecc54f7	0.39908573
6	0x3ed877a9	0.42278793
7	0xbdc37b45	-0.09544996
8	0x3eecf78a	0.46282607
9	0x3eae473e	0.34038728
10	0x3e932e0d	0.2874607
11	0x3ec4defa	0.38451368
12	0xbd6672d5	-0.056261856
13	0xbda22c3a	-0.07918592
14	0x3e99bdf9	0.3002775
15	0x3ed54261	0.41652206

network.3.norm.running_mean f4 [16]
0	0xbfae8cbd	-1.36367
1	0x3ec2931e	0.38002867
2	0xbf7b1b7a	-0.980888
3	0xbfbb1f49	-1.4618922
4	0xbf5677d9	-0.83776623
5	0xbf778985	-0.96694213
6	0xbfaa7f4a	-1.3320096
7	0xbdcec554	-0.10096231
8	0xc00b6cc6	-2.178514
9	0xbfa77849	-1.3083583
10	0xbf849f11	-1.0361043
11	0xbf97dfd5	-1.1865183
12	0x3d30308e	0.043015055
13	0xbe2e6ded	-0.17034121
14	0xbf7a41e6	-0.97756803
15	0xbf87cfbf	-1.0610274

network.3.norm.running_var f4 [16]
0	0x40709d15	3.7595875
1	0x3fd9b840	1.7009354
2	0x4070ec1d	3.7644112
3	0x404ab414	3.167241
4	0x4026bd29	2.6052954
5	0x4047e63d	3.1234276
6	0x4056870d	3.3519928
7	0x3ffa36ab	1.9547933
8	0x4085f9e8	4.186756
9	0x403e0012	2.9687543
10	0x403bc6d9	2.9340117
11	0x40531c89	3.2986166
12	0x3fd60aed	1.6722084
13	0x3fa7977b	1.3093103
14	0x40121ec7	2.2831285
15	0x4054930d	3.3214753

output_layer.weight f4 [1, 16]
0	0x3e9b0d44	0.30283558
1	0xbef18621	-0.47172645
2	0x3eb6cb38	0.3570192
3	0x3eb4e81e	0.3533334
4	0x3eafca5b	0.34334072
5	0x3eaac5e8	0.33354115
6	0x3ea18847	0.31549284
7	0xbf051df1	-0.5199881
8	0x3ea16cdb	0.31528363
9	0x3eb3e72a	0.35137302
10	0x3ec32076	0.38110703
11	0x3eb620be	0.35571855
12	0xbf149606	-0.5804142
13	0xbec68126	-0.38770407
14	0x3ed314ed	0.41226903
15	0x3ea4e895	0.32208696
