saved_tcn_models_cv/inference_tcn_period_33pct_pca_True.pth (torch, 19717 bytes, 19 tensors)

network.0.conv.weight f4 [16, 6, 2]
000000 c9 74 cc bd 1f 63 98 bc 71 45 58 3c 41 d5 1c be
       -0.099832125 -0.018601952 0.01320015 -0.15315725
000010 4f 6d db bc ec de 99 3d 32 20 d8 3e 0e c7 ae 3d
       -0.02678552 0.07513222 0.42212063 0.085340604
000020 b2 44 83 3e 1c eb 60 3e 00 b1 94 3e 5d b2 ba 3d
       0.25638348 0.21964687 0.2904129 0.09116051
000030 08 b5 2b bd f1 20 59 be 71 f6 9e 3e 97 02 86 bc
       -0.04192069 -0.21203972 0.31047395 -0.016358657
000040 a2 e1 56 be d3 d4 ce be eb 88 17 3e 88 eb cc 3d
       -0.2098451 -0.40396747 0.14798324 0.100058615
000050 0a 33 14 3e 36 68 92 3d 0f ee 49 3b da 4e cb bd
       0.14472595 0.07148783 0.003081206 -0.09927149
000060 b9 24 04 be df da 8d 3e 53 ba 01 3d a8 d7 a8 3c
       -0.12904634 0.27706048 0.031671833 0.020610645
000070 ee 4a 02 3e 29 f8 95 bd af cb 0c 3e 76 06 97 be
       0.12723896 -0.073227234 0.13749574 -0.29497117
000080 d2 72 a9 bd 34 9e 63 be 71 1b db bd b4 8c c1 3d
       -0.08273853 -0.22228318 -0.106985934 0.09450665
000090 7d 4b 36 3d aa 00 9a be d3 ee 9b 3e ae a2 d2 bd
       0.044505585 -0.30078632 0.30455646 -0.10284935
0000a0 a7 14 b0 3e 96 ce 67 bd ec e6 92 3d 13 64 bd be
       0.34390756 -0.0565935 0.07172951 -0.36990413
0000b0 92 6a cd bd 91 33 d5 bd 3d f2 57 3e 9b 1a 5d bc
       -0.10030092 -0.10410226 0.210885 -0.013495113
0000c0 ac a3 72 be 94 3b c7 bd ec cc 8d be 38 6f 4c 3e
       -0.23695248 -0.097281605 -0.27695405 0.19964302
0000d0 81 d1 6f 3e a0 bb 63 3e b9 aa 0a 3c 2d 07 e6 bd
       0.23419763 0.22239542 0.008463555 -0.112318374
0000e0 73 2c 05 bf 69 b0 f4 bd 66 9d 98 3e 1b 8b a0 3d
       -0.5202095 -0.1194771 0.29807585 0.07839032
0000f0 15 2b 69 bd 0c 94 a0 bd 7c 50 ad bc 7e 50 3c 3e
       -0.05692585 -0.07840738 -0.021156542 0.1839008
000100 b4 78 9c 3e 7d 30 0f be 10 80 7c 3d 91 b3 f1 3d
       0.3056084 -0.1398334 0.061645567 0.11801828
000110 5b 78 28 be 3d ff cd 3e ae 66 00 3f 69 d1 0e be
       -0.16452162 0.40233794 0.50156677 -0.13947071
000120 17 6e 6f 3e 6c 37 8c bc b4 94 0b bd c5 85 a3 3d
       0.2338184 -0.017116271 -0.03407736 0.07984499
000130 7c 2c f9 be 0f 8e 9b bd 5c 19 ea bd ab 17 52 be
       -0.4866675 -0.07595455 -0.11430618 -0.20516841
000140 8a d0 a7 3e 69 4a 87 be 71 ef bf be ad 46 90 bd
       0.3277629 -0.26423958 -0.37487367 -0.0704473
000150 c7 a1 04 be be d1 b9 be 18 62 ec be 51 a6 36 bd
       -0.12952338 -0.36292833 -0.4616859 -0.044592205
000160 39 3d 84 3e f2 fc 2f be dd 3c 1b 3c f2 19 a9 3d
       0.2582796 -0.17186335 0.00947496 0.08256902
000170 fb 3a cd bd d2 e8 88 3e a1 24 b3 3e e9 09 97 be
       -0.10021015 0.26740128 0.34988883 -0.29499748
000180 e1 f6 d4 3c 8a 1a 24 be 05 bf 9c 3e 06 3f 02 bf
       0.025996627 -0.16025749 0.30614486 -0.50877416
000190 62 0d 82 be 5c 6b 71 3d 02 47 1b be e1 93 6e be
       -0.25400835 0.058940277 -0.15163806 -0.23298599
0001a0 7a 87 a7 be bd dc 87 3e ed 0f 99 3e 27 05 46 3e
       -0.32720548 0.26535597 0.29894963 0.19337903
0001b0 ee 97 81 be 34 b2 c3 3e f9 6a 5e be 84 0e 92 3d
       -0.25311226 0.38221896 -0.21720494 0.07131675
0001c0 82 b2 4a be 62 1b ae 3d 9f 28 b3 bc 61 32 f1 bd
       -0.19794658 0.085013166 -0.021869956 -0.11777187
0001d0 ed e8 cd 3d c4 6e 95 3e ca 08 bf 3d 25 08 c2 3d
       0.10054193 0.2918607 0.09327848 0.0947421
0001e0 f2 44 bb bd 36 9e 8b be df 8d a6 be e5 f4 c6 3e
       -0.0914401 -0.27269143 -0.32530114 0.38858715
0001f0 c0 ea 81 3e 85 ec 2a 3e b2 71 61 3d a8 84 27 be
       0.25374413 0.16691788 0.05504007 -0.16359198
000200 d1 7d 04 be fc 70 1c 3d 41 a2 de bd da 0b 72 bd
       -0.1293862 0.038193688 -0.10870791 -0.059093334
000210 87 76 9e bc 5c 6a 84 3c c5 d5 50 bd 5b 74 38 be
       -0.019343628 0.016163997 -0.050985117 -0.18013136
000220 b4 85 fa 3b 3f 83 27 bd 1f 94 9a 3e 36 1d df 3d
       0.007645333 -0.04089665 0.30191132 0.108942434
000230 66 11 92 3e 57 c3 1b be 91 3a bc be 07 3e 89 be
       0.285289 -0.15211235 -0.36763433 -0.26805136
000240 29 01 0c be 7d bf cf 3d db a5 97 3c d7 d8 db bd
       -0.13672318 0.10143945 0.018511703 -0.10734718
000250 70 b9 a4 be d3 88 e9 3d b4 74 4e bc 1a 3e 05 3d
       -0.32172728 0.1140305 -0.012601066 0.032529928
000260 11 69 36 be b8 6a 9f be 83 9a 40 3e 51 6a c7 3e
       -0.17813517 -0.31136107 0.18808942 0.389483
000270 d7 9d 30 be 89 02 23 3e be d1 18 be 7e 55 80 bd
       -0.17247711 0.15918936 -0.1492376 -0.06266306
000280 c6 33 d8 be e6 7e 2d be eb 05 40 3c 6a b9 b2 3e
       -0.42227 -0.16942939 0.011720161 0.34907085
000290 b7 25 7a bd 1f de 9d bd 5d 7b b0 3e f6 5a 1a be
       -0.061071124 -0.07708382 0.3446912 -0.15073761
0002a0 fb bd 9c be a5 51 cd bd f2 ea 4b 3e cd 25 a3 be
       -0.30613694 -0.10025338 0.19913843 -0.31864777
0002b0 32 65 71 bc 85 79 a6 3d 03 35 3e be 45 24 86 3c
       -0.0147335995 0.08128647 -0.1857491 0.016374717
0002c0 a7 9f d8 be b2 0d fe bd 7c cf 78 bd e8 7e c0 3d
       -0.42309305 -0.12404956 -0.060744748 0.093992054
0002d0 5b 21 99 be 82 b5 30 3e 65 42 2d be c0 e0 c8 3e
       -0.2990826 0.1725674 -0.16919859 0.3923397
0002e0 4a 8d 82 3d 7e 5e be 3c 4c a8 0e be ad 72 01 be
       0.06374605 0.023238417 -0.13931388 -0.12641402
0002f0 74 85 13 bb 0d 66 a6 bc 6d 7f 11 3e ff bd 3f be
       -0.0022509964 -0.020312333 0.14208765 -0.18724822

network.0.conv.bias f4 [16]
000000 9a c3 32 be 25 0a df 3d 8f 33 53 be 04 02 a3 be
       -0.17457429 0.10890607 -0.20625137 -0.31837475
000010 d7 d6 61 3e e4 e8 b0 be c9 22 11 be f0 42 62 be
       0.22054611 -0.3455268 -0.14173426 -0.22095847
000020 81 38 20 be 0d ee be 3d b4 18 27 be e1 f1 7a bd
       -0.15646555 0.09322748 -0.16318017 -0.06126583
000030 9c ea 61 be d4 11 05 be d4 85 96 3e a8 ef 99 3e
       -0.22062153 -0.12995082 0.29398978 0.30065656

network.0.norm.weight f4 [16]
000000 bc ba 62 3f 91 bc 8a 3f df 91 5c 3f 53 1b 6d 3f
       0.88566184 1.0838796 0.8616008 0.9261982
000010 37 b5 7a 3f 4c 30 87 3f 37 2c 89 3f 87 31 8f 3f
       0.9793276 1.0561614 1.0716618 1.118699
000020 95 ef a1 3f d8 a0 75 3f 0e e0 81 3f fa 40 60 3f
       1.265124 0.95948553 1.0146501 0.87599146
000030 ea 88 6d 3f 9a 1d 62 3f 91 59 79 3f 0d 02 a0 3f
       0.9278704 0.8832642 0.9740229 1.2500626

network.0.norm.bias f4 [16]
000000 ac 8d c6 3e b8 08 a6 3d c7 08 48 3e 5f 08 1e 3e
       0.38779962 0.08107132 0.19534598 0.15432881
000010 1b 83 ec 3d 82 5c c0 3d 6d 65 63 3d d0 6d bf bd
       0.11548444 0.093926445 0.05551665 -0.09347117
000020 ca 07 91 3d 4b 52 62 bc 69 13 4e bd 55 e0 ee 3d
       0.07081564 -0.0138135655 -0.05031148 0.11663882
000030 d3 76 5f 3e 0a e3 82 bc 8d 58 9a 3e 97 d3 7f be
       0.21822672 -0.015977401 0.30145684 -0.24983059

network.0.norm.running_mean f4 [16]
000000 01 01 97 be f3 d5 f9 3c 97 15 6f be ea 45 ad be
       -0.29492953 0.030497527 -0.2334808 -0.33842403
000010 85 bf 24 3e 8d 3f c6 be 57 44 2d bd c6 5d 87 be
       0.16088684 -0.3872036 -0.042301502 -0.2643873
000020 9d 84 57 be df 88 7e 3d 39 87 1e be 89 88 98 bd
       -0.21046682 0.06214225 -0.15481271 -0.07447917
000030 a6 c8 99 be ca ef 5c be a2 b4 64 3e fe 99 9b 3e
       -0.30035895 -0.21575847 0.22334531 0.30390924

network.0.norm.running_var f4 [16]
000000 05 b9 96 3e c3 c2 b0 3e 61 e9 77 3e 01 56 37 3f
       0.29438034 0.3452359 0.2421012 0.71615607
000010 7a d9 20 3f 36 d8 f4 3e 4f f6 f7 3e d1 2a 19 3f
       0.6283184 0.47821206 0.48430106 0.5983096
000020 92 69 e2 3e 26 45 21 3f 71 26 05 3f 1b 19 a8 3e
       0.4422117 0.6299614 0.5201178 0.32831654
000030 ee fc 97 3e a6 a3 f2 3e 80 9f 09 3f 4f 5f f8 3e
       0.29685158 0.4739048 0.53759 0.48510215

network.1.conv.weight f4 [16, 16, 2]
000000 b9 8d 0f be 8b 7b 17 be 34 3b 66 be 6b 18 32 3d
       -0.14018907 -0.14793222 -0.22483522 0.043480318
000010 d0 d5 d4 be bf 2d c6 bd f1 dd 7f be 18 cf 53 3c
       -0.41569376 -0.09676694 -0.24987008 0.012927793
000020 f0 1f aa bc 35 3e ce bd 14 89 b2 bd 30 09 07 bd
       -0.020767182 -0.10070459 -0.08717552 -0.032967746
000030 52 a1 b3 be 36 42 9b be d2 f3 71 be 2b 3b 33 be
       -0.35084015 -0.30323952 -0.23628166 -0.1750304
000040 4c f9 9a be 9b a1 b1 3c ef a2 16 be 8e 2a 34 3d
       -0.30268323 0.021683505 -0.14710592 0.043985896
000050 f1 03 3a 3c ee 59 f7 3d 33 28 31 bd c6 a3 06 be
       0.011353479 0.120776996 -0.043251228 -0.13148412
000060 24 60 b1 be ba 68 8a 3d 56 f5 6d be fd 75 71 3d
       -0.34643662 0.06758256 -0.2323812 0.058950413
000070 af cf 72 be 4b 19 15 be 92 aa 0a be 83 f5 a0 3d
       -0.23712038 -0.1456043 -0.1354163 0.07859328
000080 48 f1 42 3d b2 22 ac bd 0c ea 82 be d9 b7 06 be
       0.047593385 -0.08405055 -0.2556919 -0.1315607
000090 de 7f fa bb 6b e7 e7 bd 5e da db 3d 72 79 12 be
       -0.0076446375 -0.11323436 0.107350096 -0.1430414
0000a0 57 e8 25 be 4c ce 57 bc 10 f6 03 3e 75 6a af be
       -0.16201912 -0.013171744 0.12886834 -0.34260908
0000b0 5a 67 d7 bd 63 07 27 be 0e e6 2e be ec 8f 96 be
       -0.105177596 -0.16311412 -0.17079946 -0.2940668
0000c0 d1 54 7c 3e 43 38 66 bd aa e4 ab 3d 09 74 91 3c
       0.2464173 -0.056206 0.083932236 0.017755525
0000d0 41 ac 53 3b 28 7f cd bd 8a 0a 47 3c 18 f9 3f 3d
       0.0032298716 -0.10034019 0.012148509 0.046868414
0000e0 f2 64 29 3c 38 00 05 bd 59 72 36 3e f5 b6 bf be
       0.010339009 -0.03247091 0.17817058 -0.37444273
0000f0 6b 17 7b 3e 71 ff 3a be 1e 91 09 3e df 3d aa be
       0.24520652 -0.18261506 0.13434264 -0.3325033
000100 de 11 c4 bd 06 83 09 3c 95 70 77 3e 66 25 54 3e
       -0.095737204 0.008393055 0.2416404 0.20717391
000110 2c c7 0d be e8 da 86 be f2 13 76 3c a8 5b e3 bd
       -0.1384551 -0.26338887 0.015019404 -0.111014664
000120 06 38 a5 bd 84 2e cf bd 33 c1 d3 3d a7 1f 4c bd
       -0.08067326 -0.10116294 0.10339584 -0.049834874
000130 50 b0 aa be 42 41 f2 3d 75 74 ce 3c 6e 25 8d 3e
       -0.3333764 0.11828853 0.025202015 0.2756762
000140 e3 7b fb bc da 98 60 be ae 8c b4 3d 2b 0e 21 3d
       -0.030698722 -0.21933308 0.08815895 0.039320152
000150 57 9f 0a bd 4d 82 a1 3d de 2e 73 3e c3 93 70 bd
       -0.033843365 0.07886181 0.23748347 -0.058734667
000160 1f 5e 81 3c 50 9d 89 be d0 4a 1e bc ff 8c 17 3e
       0.01579195 -0.26877832 -0.009661391 0.1479988
000170 4c 2a 1b 3e 26 7e 3b bd e1 c3 37 3e e3 80 11 be
       0.15152854 -0.0457746 0.17945816 -0.14209323
000180 b8 83 38 3e 9e c2 f3 3a c6 92 5e 3e 36 b4 ff 3d
       0.18018997 0.0018597429 0.21735677 0.124855444
000190 98 6a 36 3e a0 90 23 bd ed ae 24 3e 4e b8 57 be
       0.178141 -0.039932847 0.16082354 -0.210664
0001a0 5f 70 fc 3d df 45 db bb 33 39 27 3e 96 cf 71 3e
       0.123261206 -0.006691679 0.16330414 0.23614344
0001b0 4d 7c e9 bd de 25 86 3d b9 09 68 3d df b0 b3 bd
       -0.114006616 0.06550191 0.056649897 -0.0877397
0001c0 69 0b 33 3e a7 1a 8c be e6 ab df 3c 3a 27 38 be
       0.17484821 -0.27364084 0.027303647 -0.17983714
0001d0 53 1d 40 be b5 46 56 3d 8a 06 60 3e 83 63 5b be
       -0.18761186 0.052313525 0.21877494 -0.2142468
0001e0 45 08 e5 bc 57 5d 1d bd af 00 4e 3e 96 50 8c 3d
       -0.027958045 -0.038419094 0.20117448 0.06851308
0001f0 a9 94 1a 3e 88 2b 3f bc dd 7f 6a 3d 46 1a 38 be
       0.15095772 -0.0116680935 0.057250846 -0.17978773
000200 cd a0 cd be 77 a5 6d bd d7 a8 1d be df ad ab bd
       -0.40161744 -0.058019128 -0.15396439 -0.08382773
000210 4a f3 27 be 77 13 c1 3d e0 6d 8b be 64 80 65 bd
       -0.16401401 0.09427541 -0.27232265 -0.056030646
000220 fe 86 b8 be 6d ab 49 bd 6a d4 76 be c2 66 3d 3b
       -0.3604049 -0.04923575 -0.24104467 0.002890036
000230 eb d4 64 bd 1c 4c 0d be 09 52 83 be 15 42 40 3d
       -0.055867117 -0.13798565 -0.25648525 0.04693802
000240 88 77 6a be aa 75 89 3e 8c 3e 9c be f8 a9 8c 3d
       -0.2289716 0.26847583 -0.3051647 0.068683565
000250 fd 75 c2 bd b1 15 e4 3c 3b 78 92 bd 38 c5 e8 bd
       -0.09495161 0.027842375 -0.071518384 -0.113657415
000260 97 8f 81 be 8e 04 e3 3d 2c 9e 6b be 6c 97 4b bd
       -0.25304863 0.11084853 -0.23009557 -0.049704954
000270 ce 93 69 be 26 e1 db 3d 05 f8 73 be f8 c9 41 bc
       -0.2281029 0.10736303 -0.2382508 -0.011827938
000280 69 f1 7c bd ce 2e 5c be 66 44 60 be 13 1f 36 bc
       -0.061753664 -0.2150223 -0.21901092 -0.011115807
000290 82 78 ea ba 55 e5 a8 bd b1 58 29 3e 8f 2e 8b 3e
       -0.0017888697 -0.082468666 0.1653774 0.2718396
0002a0 37 39 bb bd 35 dd 35 3e ff d6 33 bc 61 2d 8f bd
       -0.09141772 0.17760165 -0.010976552 -0.06991077
0002b0 60 ae 22 3e b7 aa d0 3d e4 c6 04 be 3d fa 7c 3e
       0.15886831 0.10188811 -0.12966496 0.24704833
0002c0 a0 68 8b 3e ac 8b 85 3e 5e 19 fb bc 18 cd 50 be
       0.2722826 0.26083124 -0.030651744 -0.20390737
0002d0 45 5e 34 3e d5 5f 1b 3e c7 94 a8 3d 98 a6 fe 3c
       0.17614086 0.15173276 0.08231502 0.031085297
0002e0 79 14 a4 3e 6b 96 d0 bb 30 e6 88 bd 72 52 1b 3e
       0.3204687 -0.0063655875 -0.0668453 0.15168169
0002f0 16 e1 69 3e 30 0d 47 3e 57 2f 88 3e d6 78 62 3b
       0.2283977 0.19438624 0.26598617 0.0034556887
000300 48 23 78 bc 9d c4 37 bd ec ce 85 3c e6 af 9a 3d
       -0.01514513 -0.04486524 0.01633402 0.07553081
000310 47 35 c4 3b 16 94 1e be 81 24 46 3d 28 31 13 be
       0.0059877965 -0.15486178 0.048374657 -0.1437422
000320 29 f4 00 be 88 e5 00 3e 9e 91 0d 3e a0 a2 1f bf
       -0.1259314 0.12587559 0.1382508 -0.6235752
000330 94 46 12 be 50 b8 97 3d d5 90 f3 ba bd 03 11 ba
       -0.14284736 0.07408202 -0.0018582592 -0.0005531868
000340 45 45 0b 3e 50 c8 82 be 28 c6 94 3d 03 e4 89 be
       0.13600643 -0.2554345 0.07264358 -0.26931772
000350 b6 38 95 bd cb 07 16 3e 49 a0 fe 3d 3b bb f5 3d
       -0.072862074 0.1465141 0.12432916 0.11998602
000360 d4 29 a4 3d 8b 5a 05 be bf 76 80 bc 5f 53 54 be
       0.080157906 -0.1302282 -0.015681623 -0.20734929
000370 f2 00 9f 3e c0 4b 48 3c 69 83 92 3c c8 1a 12 be
       0.3105541 0.012225091 0.017884927 -0.14268029
000380 aa 0d 59 3e 1b 64 9b be a3 89 28 3d 8a 2d dc 3d
       0.21196619 -0.30349812 0.041146886 0.107508734
000390 64 3a a2 3d 1d 59 23 be e9 30 23 bd 98 1f c9 3c
       0.079212934 -0.15951963 -0.039841566 0.024551198
0003a0 f4 1a 08 3e 72 6b ab 3e 68 05 73 3d 39 b1 b9 3c
       0.13291532 0.33480412 0.059331328 0.022667514
0003b0 f1 c4 ae bd 84 1e 91 bd 07 6b 73 3e dc 7e 5d 3e
       -0.08533657 -0.070858985 0.23771296 0.21630424
0003c0 05 8b ca 3b 1c 93 a1 bc ea cf 59 3d ce 90 40 3e
       0.006181123 -0.019723468 0.053176798 0.18805239
0003d0 97 35 fa bd 17 61 ba 3e 05 2b 31 bc 48 1b 10 be
       -0.12217253 0.364022 -0.010813479 -0.14072907
0003e0 9d 7d 30 3e c8 01 d0 bd eb 1b 9d be 8e 20 8a be
       0.17235418 -0.1015659 -0.30685362 -0.26977962
0003f0 d7 66 bc bc 12 22 d6 3d df 29 ed 3d a4 e1 ac 3d
       -0.022998257 0.10455717 0.11580252 0.08441475

network.1.conv.bias f4 [16]
000000 37 dd b6 bc f8 b5 ff 3c 22 43 20 bc aa 50 19 3e
       -0.02232228 0.0312147 -0.009781631 0.14972177
000010 41 34 fc bd e1 fe 0c 3e ee c0 35 3c 8b 18 68 bd
       -0.12314654 0.13769104 0.011093361 -0.05666403
000020 55 16 1a be 1a 46 61 3e ff e3 69 3d 21 18 ec 3d
       -0.15047581 0.21999398 0.0571022 0.1152804
000030 32 33 e0 3d 98 af ac 3d d9 42 e1 bd 80 55 95 bd
       0.10947265 0.08431929 -0.10999078 -0.072916985

network.1.norm.weight f4 [16]
000000 81 61 9d 3f 5c 48 46 3f 19 45 4b 3f ed 94 5c 3f
       1.2295381 0.7745416 0.7940231 0.8616474
000010 fc 62 c0 3f 6b 3e 2d 3f ca 7f 44 3f c2 83 36 3f
       1.5030208 0.6767337 0.7675749 0.71294796
000020 4a 71 bb 3f 99 18 42 3f f9 5f 4e 3f 4e be 50 3f
       1.4643948 0.75818783 0.8061519 0.8154038
000030 95 2c 76 3f 1f 50 8a 3f f9 bc 45 3f 23 99 4e 3f
       0.96161777 1.0805701 0.77241474 0.8070242

network.1.norm.bias f4 [16]
000000 cf 4c bf bd bb a5 5c be df 50 b2 bd ca 12 df 3c
       -0.09340822 -0.21547596 -0.08706831 0.027230639
000010 fd a3 30 be bf b2 d6 be fc a9 35 3b 5e 80 e3 be
       -0.17250057 -0.41933247 0.0027719727 -0.44433874
000020 78 5a a9 bd f5 72 92 be 7e ba 24 be 18 eb d0 bd
       -0.08269209 -0.2860333 -0.16086766 -0.102010906
000030 f5 b2 8d be 3a ad 79 be 36 2c 90 bd 28 a3 68 be
       -0.27675596 -0.24382487 -0.070396826 -0.22718489

network.1.norm.running_mean f4 [16]
000000 b5 dc 8f bf 8d b6 3c bf 02 f9 63 be d2 e5 57 3e
       -1.123923 -0.7371605 -0.22262958 0.21083763
000010 76 30 55 bf ac 5e 5b 3f d6 bc e8 be b4 5b 4f 3e
       -0.8327707 0.8569133 -0.4545657 0.20249826
000020 4b 96 6b bf c8 c6 27 bf 31 c5 d2 be 6c 0c 49 bf
       -0.92026204 -0.6553769 -0.4116607 -0.7853458
000030 ef 90 38 bf aa 8b 42 bf ee 03 6a bf fa bc 2c bf
       -0.7209615 -0.7599436 -0.91412246 -0.67475855

network.1.norm.running_var f4 [16]
000000 09 2c 81 3f 88 14 b1 3e a7 15 d2 3e da 3d c4 3e
       1.0091563 0.34585977 0.41032144 0.3832844
000010 d2 bd 8e 3f 9d 08 25 3f db c2 fd 3e 59 b4 e4 3e
       1.1151679 0.6446627 0.49562725 0.44668844
000020 73 b5 86 3f 28 bc b3 3e 13 f8 12 3f 2d cb da 3e
       1.0524124 0.3510449 0.5740978 0.42733136
000030 78 2c 50 3f 8f 8c 66 3f a7 cf ce 3e f7 1d f7 3e
       0.81317854 0.90058225 0.403928 0.4826505

network.2.conv.weight f4 [16, 16, 2]
000000 45 b5 94 3d 1a fe ab be ec 06 85 3e 5d a9 ed ba
       0.07261137 -0.33592302 0.25981843 -0.0018132139
000010 40 18 fb 3d 75 b0 cb 3d 42 a8 40 3e ef 16 e2 3c
       0.12260485 0.09945766 0.18814185 0.027598826
000020 3a 0d 90 3d 94 e4 90 be dc 3d e0 bc 0e 01 84 bc
       0.07033773 -0.2829939 -0.027373247 -0.016113784
000030 cc 80 dd 3d 64 e1 ea 3d d7 be 2c bd c4 a0 09 3d
       0.10815582 0.11468771 -0.042174187 0.033600584
000040 c0 6f 66 3e e9 eb c9 be 2b 45 59 3e 0c b4 ed bd
       0.22503567 -0.39437798 0.21217792 -0.11606607
000050 4b cd aa bd fe 33 b0 3c f7 40 1b 3c f9 61 f0 3d
       -0.08339938 0.021509167 0.009475938 0.11737437
000060 bc 50 73 3d 52 15 96 be 31 b4 c8 3d f0 d3 eb bd
       0.059403166 -0.2931314 0.09799994 -0.11515033
000070 81 61 6d ba 75 10 c8 3d c1 7c 23 3d 2a 2b 28 3e
       -0.0009055362 0.09768764 0.039913896 0.16422716
000080 cc 7b aa bd d6 2c ed be e3 f7 6f 3e f9 f3 3b 3c
       -0.08324394 -0.4632327 0.23434405 0.011471742
000090 6d c3 90 3a 3d 2b 2c bd cf d5 e1 3d 73 43 cc 3d
       0.001104457 -0.042033423 0.11027109 0.099738024
0000a0 eb 5a 8c 3b 9a ff ac be 90 8a c1 3c 2d 4d c3 bd
       0.004283299 -0.3378876 0.023625642 -0.095362045
0000b0 54 de 7d bc e8 c5 26 3e 2a bb 10 3e 61 2c 2b bc
       -0.015494902 0.16286433 0.14133897 -0.0104475925
0000c0 b7 15 2d bd dd ab a2 be ab da 7b 3e 91 30 c6 bd
       -0.042257037 -0.31771746 0.24595134 -0.09677232
0000d0 27 82 6a 3e 8f 11 1b 3e e6 79 6e 3d ad ac 34 3e
       0.22901212 0.15143417 0.05822172 0.17643996
0000e0 30 4e 85 3d 1f bc 63 be 97 53 75 3c 02 02 63 be
       0.06509054 -0.22239731 0.014973543 -0.22168735
0000f0 0a 31 62 3d e3 15 e3 3c 06 91 2b bd de 77 1f 3e
       0.05522255 0.027720397 -0.041886352 0.1557307
000100 66 43 bf bd 0c d5 3b 3e 01 1c f8 bd b6 ec 45 bd
       -0.09339027 0.1834299 -0.12114716 -0.04832145
000110 c9 8d c8 bd 04 85 b4 bc 21 f9 6d be ab 95 9c bd
       -0.09792668 -0.022036083 -0.23239566 -0.076457344
000120 2c 4e 5b bd d9 8d 6d bd 56 84 ca 3d 6d 3e ea 3c
       -0.053541347 -0.057996605 0.09888522 0.02859422
000130 df 4e 80 3d b3 d5 ab 3c 42 34 6e be 69 99 e7 bd
       0.062650435 0.020975923 -0.23262122 -0.113085575
000140 fd 3f 4b be 21 18 4e 3d 47 c1 59 3d ba 16 09 bd
       -0.19848628 0.05031598 0.05316284 -0.03346894
000150 35 a2 2c be 97 e6 3d be ba 4e 03 be 6c 9a f4 3c
       -0.16858752 -0.18544994 -0.12823 0.02985879
000160 e1 e6 e6 bd 20 ea 15 3e c3 fd 1d bd 40 ef 10 3e
       -0.112745054 0.14640093 -0.038572084 0.14153767
000170 7e 9e 16 3d 20 97 07 3d c5 e5 90 3d a4 9e 33 be
       0.036772244 0.03310311 0.07075075 -0.17540985
000180 b3 23 c5 3d bd 96 e2 be cb 7b 4d 3d 82 78 fc 3d
       0.0962595 -0.4425563 0.050166886 0.123276725
000190 71 d3 80 bd 1a e4 41 3d 4d 76 59 3c 35 ee c8 3c
       -0.06290329 0.047336675 0.013272834 0.024527648
0001a0 69 a2 3d bd 68 89 d4 be 51 70 51 bd 65 ee a5 bd
       -0.046297465 -0.41511083 -0.051132504 -0.08102111
0001b0 de a4 f6 3d 9e 8a 8b bc 29 2d 5c bd 20 bc bd 3c
       0.12043165 -0.017033871 -0.053754006 0.023160994
0001c0 a8 3b a8 3d 3b f0 e7 be ee f9 8f bd 8a d4 bc 3c
       0.082145035 -0.4530047 -0.07030092 0.023050565
0001d0 05 d9 95 3d b6 36 41 3d 80 ce 9d bd 19 50 86 3d
       0.07316784 0.047171317 -0.077054024 0.06558246
0001e0 9f f7 82 bc ba a3 09 be bb 9a af 3d d3 1c 98 be
       -0.015987216 -0.13441363 0.08574434 -0.2970949
0001f0 97 fd ba 3d e3 32 d7 3c ff be 2c 3e 6b 26 9d 3d
       0.091304 0.026269382 0.16869734 0.07673343
000200 78 28 45 bc 4a ec d8 3d d1 2b 62 3d 6f 7e b4 bc
       -0.012033574 0.105919436 0.055217568 -0.022032944
000210 48 45 b7 3c 16 b4 57 bd 6f 48 4c 3d e5 d0 39 be
       0.022371903 -0.052661978 0.049873766 -0.18146093
000220 d4 ad 65 be ec 38 03 3e 56 f0 b3 bd 3d 62 93 bd
       -0.22429591 0.12814683 -0.08786075 -0.07196472
000230 46 8a 22 3d 9f 0f 2c be 03 d8 7c 3d b6 8a 0e 3d
       0.03968265 -0.16802834 0.061729442 0.034800254
000240 fa be 43 be 7a 87 9d 3d 22 15 75 be 19 d3 02 be
       -0.1911582 0.07691856 -0.23933843 -0.1277584
000250 8c 24 e5 bd 68 83 6c be 27 bf 6e 3d 80 2e 1f be
       -0.111886114 -0.23097003 0.058287766 -0.15545082
000260 7e 5b 22 bd 50 c8 5e 3e b6 09 47 3c 0b 09 41 bd
       -0.039638035 0.217561 0.012148311 -0.047127765
000270 ed f0 38 3a 90 9a 3e 3e 4b 87 74 3d e7 f2 ea 3b
       0.00070549437 0.18613648 0.059699338 0.0071700695
000280 af 12 d0 bc 8f e0 7c be db 04 b6 3e 37 21 1a 3e
       -0.025399534 -0.24695037 0.3555058 0.15051733
000290 0e c1 76 3d af 34 25 3e 1b 99 5f 3e 95 ca dc 3d
       0.060242705 0.16133378 0.21835749 0.10780827
0002a0 6d c2 10 bd 5b f1 9d be da 38 6c be 5a df 4c bc
       -0.03534167 -0.30848202 -0.23068562 -0.012504423
0002b0 ac 21 12 3e c3 da ea 3d 63 e3 df 3d 50 19 e5 bd
       0.14270657 0.11467507 0.109320424 -0.111864686
0002c0 a7 14 2a bc f7 4a be be 81 88 40 3c 2f 05 da 3d
       -0.0103809 -0.3716657 0.011751295 0.1064552
0002d0 13 a5 78 3d 9d 22 29 3d 60 08 97 3d 6c 44 50 3e
       0.060704302 0.041292775 0.07374644 0.20338601
0002e0 b6 f7 59 bc 7a 7a 4b be 51 0c 42 3d ee e8 0d bf
       -0.013303688 -0.1987094 0.047375027 -0.5543355
0002f0 93 b4 b8 3d 96 8a 01 3e df 50 ff 3c 19 69 ed 3d
       0.09018817 0.12650523 0.031166492 0.115923114
000300 50 64 75 3b 81 d6 74 be bb a4 5f 3e 5f 95 56 3d
       0.0037443824 -0.23909952 0.21840183 0.052388545
000310 81 0c a6 3d 4b eb ce 3d d8 0f 48 3e 7b 23 74 3c
       0.08107854 0.10103472 0.19537294 0.014901037
000320 30 d4 2e bc 27 72 13 bf 8c 97 8c be e8 bd b0 bd
       -0.010670707 -0.5759606 -0.2745937 -0.08629972
000330 97 3a 58 3e 67 f9 d5 3c 22 7e 3c 3e 63 50 30 be
       0.211161 0.0261199 0.18407491 -0.17218165
000340 a1 5d 01 be 1e 50 1a bf 68 4f 92 3d c9 62 ac bd
       -0.12633373 -0.602785 0.07144052 -0.08417279
000350 26 97 88 bd 53 69 9a 3d d5 22 dd ba c3 08 92 3d
       -0.06669454 0.0753962 -0.0016871343 0.071305774
000360 10 8f 03 3d 46 7c 8b be e1 0d 31 3d d7 b0 e6 be
       0.032118857 -0.2724325 0.043226127 -0.45056793
000370 02 ba e7 3d 5d ab 0f 3d a9 f5 45 3e 23 07 9f 3c
       0.11314775 0.035075534 0.19331993 0.019412583
000380 d3 59 eb bd 9a c6 fe be ca 60 1b bd 85 6c 6c 3d
       -0.11491742 -0.49760896 -0.037934102 0.05772068
000390 7f 9b 38 3b e5 91 31 bc 47 c5 da bc 1a ef 8b 3b
       0.0028168855 -0.010838007 -0.026705397 0.0042704465
0003a0 94 c9 b8 bb 6d 17 e2 be 95 05 80 be f8 bf 16 be
       -0.0056392644 -0.44158497 -0.2500426 -0.14721668
0003b0 4c 2c 74 3b 4d 7c fe 3d 86 87 83 3d 39 c4 2b be
       0.0037257848 0.12426052 0.064223334 -0.16774072
0003c0 92 25 37 bd 37 92 1e bf 04 d6 4f bc a8 b1 3f 3d
       -0.044713564 -0.61941856 -0.012685303 0.046800286
0003d0 a7 a4 22 bd d8 6c 4c bc 1e 00 0e 3c 88 81 cd 3d
       -0.039707806 -0.012477122 0.00866702 0.10034472
0003e0 9c e8 6b 3c d3 e8 65 be 4b 70 a8 bd 83 d3 00 bf
       0.01439872 -0.22452097 -0.08224543 -0.5032274
0003f0 f1 4b 85 bd 8b 60 c0 3d db de c5 bc f8 99 2d 3e
       -0.06508625 0.09393414 -0.024154117 0.16953266

network.2.conv.bias f4 [16]
000000 e6 6e 4c be 2a f4 5e bd 69 97 bb 3c b2 bc 49 be
       -0.1996418 -0.05443207 0.022899346 -0.19700888
000010 3c 15 b6 bb d5 dd 6f 3d 1a d4 00 bc 71 b3 08 bd
       -0.0055567306 0.058561165 -0.007863069 -0.033374254
000020 35 56 2b bc ef 0f d8 3c 7c 1a 86 3b 52 17 28 be
       -0.010457565 0.026374785 0.0040925127 -0.16415146
000030 81 01 95 3e 4d 28 29 3b 4e e4 40 be c8 58 0b 3c
       0.2910271 0.0025811375 -0.18837091 0.008505054

network.2.norm.weight f4 [16]
000000 00 91 9c 3f 2d b0 9c 3f 80 c7 69 3f 13 bc 99 3f
       1.223175 1.2241265 0.9132004 1.2010521
000010 27 87 66 3f 70 db a2 3f f8 d9 a3 3f d4 56 af 3f
       0.90049976 1.2723217 1.2800894 1.3698373
000020 14 19 a3 3f ce 25 ad 3f 51 64 6f 3f 63 a1 69 3f
       1.2742028 1.3527162 0.93512446 0.9126188
000030 9a 92 a0 3f 21 57 9c 3f 69 bf 9d 3f 96 d5 9f 3f
       1.2544739 1.221409 1.2324039 1.2487056

network.2.norm.bias f4 [16]
000000 ba b8 c6 3e 53 ec ba 3e f5 37 f2 bd d1 52 9c 3e
       0.3881281 0.36508426 -0.11827079 0.30531934
000010 a5 20 04 be d9 21 db 3e 37 f8 c8 3e fe cd fc 3e
       -0.12903078 0.4279926 0.39251873 0.4937591
000020 2b c2 c1 3e f5 09 f7 3e 4c 06 ac bd a8 73 f2 bd
       0.3784345 0.48249784 -0.083996385 -0.11838466
000030 97 c3 c5 3e b5 6c b4 3e 35 db b7 3e 5a 50 b6 3e
       0.38625786 0.35239187 0.3590943 0.35608178

network.2.norm.running_mean f4 [16]
000000 ba cc dc be cf 5f 24 bf eb 28 3f be d2 85 6e bf
       -0.43124944 -0.6420869 -0.18667953 -0.93172944
000010 3f 29 93 be ff 99 ee be 9b bd 89 bf 81 12 9c bf
       -0.28742406 -0.46601865 -1.0760988 -1.2193147
000020 6f 30 4e bf 3e 22 94 bf 88 bb 8e be 44 de f4 be
       -0.80542654 -1.157295 -0.2787745 -0.47825825
000030 51 50 08 bf 39 b1 ba be 6c f3 4f bf e4 df 61 bf
       -0.53247553 -0.36463335 -0.8123081 -0.88232255

network.2.norm.running_var f4 [16]
000000 ba a3 b1 3f ac e8 70 3f 0d 0c a8 3e 0b f3 96 3f
       1.387809 0.9410503 0.32821694 1.1792921
000010 2d ed db 3e a6 91 87 3f 5c 31 b7 3f 70 3a a7 3f
       0.42954388 1.0591323 1.4311938 1.3064709
000020 90 65 7e 3f 99 3b b1 3f c6 cb fd 3e d0 64 e1 3e
       0.9937372 1.3846313 0.4956953 0.44022226
000030 64 8b b4 3f b4 bf 90 3f 3b 0d 81 3f 20 6c c6 3f
       1.4105039 1.1308503 1.0082163 1.5501747

output_layer.weight f4 [1, 16]
000000 9d b6 a5 3e 41 d8 ba 3e 74 c5 fe bd da d8 d1 3e
       0.32365885 0.36493114 -0.12440005 0.40985757
000010 8d 2b 09 be 4d 34 9d 3e ac ea a5 3e 61 77 a9 3e
       -0.1339552 0.30703965 0.32405603 0.3309889
000020 74 bc c1 3e ba c7 a2 3e c7 e9 0c be 35 ae be bd
       0.3783909 0.31793004 -0.13761054 -0.09310571
000030 f6 f4 ad 3e 1f 90 b9 3e 67 b2 b4 3e bd 07 ad 3e
       0.33975953 0.36242768 0.3529236 0.33794966
