saved_tcn_models_cv/inference_tcn_period_50pct_pca_True.pth (torch, 30115 bytes, 31 tensors)

network.0.conv.weight f4 [16, 6, 2]
-0.15470368 0.23419636 0.005594236 -0.009019274 0.36174238 0.1968764 0.27604854 0.15545738
-0.29828677 -0.26386273 0.21856897 -0.19264953 -0.24598037 -0.104184374 -0.098677605 -0.34529155
0.045501787 0.201597 -0.14268912 -0.15658507 0.22191903 0.099830404 0.15573801 -0.025479754
0.15496606 0.01505211 -0.17156188 -0.059430636 0.032291405 -0.045789845 -0.051615804 -0.020601012
0.33213854 0.2954951 -0.17039925 -0.25231522 0.0075381952 0.09019009 0.030720847 0.060088012
0.17655505 -0.21193792 -0.24247445 0.21920866 -0.13518389 0.036040783 -0.29483247 0.296214
-0.03169907 -0.12452745 0.388514 0.007445359 -0.07963709 0.051828492 0.05844153 0.25670624
-0.37597933 0.21155567 0.14056376 0.027982987 0.12720191 0.10037862 0.07216183 0.008970197
-0.24699752 -0.030998228 0.29010767 -0.11146624 -0.0715769 0.08548063 0.3414275 -0.3784501
-0.20450369 -0.13930026 0.04376412 0.23312423 0.00982619 0.07908706 0.1829994 0.13001032
0.2293551 -0.10195312 -0.27999744 -0.03783669 -0.09138865 -0.005124338 -0.07578713 -0.07646999
0.09302975 0.09777843 0.26867956 -0.19977255 -0.17453454 0.20539486 0.20540015 0.24050458
0.1596302 -0.12548088 0.1236187 0.07978573 -0.15924042 -0.0984658 0.04373486 -0.05998991
-0.04171171 -0.17178214 0.1726683 0.19950816 -0.22738746 -0.074008465 -0.20658849 0.08396443
-0.16279511 -0.13337834 -0.16088106 0.041837532 0.14325473 -0.19194655 0.32916328 -0.20257695
-0.06222778 0.1908993 -0.013786696 0.119427755 0.3081888 -0.16535728 -0.11503507 -0.0787332
-0.26119697 0.16886312 0.16788471 -0.17771201 -0.19422813 -0.01420675 -0.11558738 0.111272104
0.20322408 0.23174481 0.029748065 0.07277773 -0.20415977 -0.28968948 0.28193086 0.24802838
-0.23384038 -0.13713259 0.0068127266 -0.06730473 -0.21783505 0.21010526 -0.22759333 -0.092336565
0.2873518 0.32029 -0.2540936 -0.052680846 -0.05759616 0.044528205 0.19710353 0.13845684
0.119546555 0.1162298 -0.021421405 -0.10335048 0.40210226 0.14048515 -0.34456214 -0.10540002
-0.14546189 -0.098025985 -0.1036138 -0.2005619 -0.03680088 -0.16996536 -0.33618805 -0.20862718
0.03899227 0.02422503 -0.43435073 0.20907494 0.03817595 0.24085529 0.023056155 0.2460381
0.30177492 0.31724483 0.096201696 0.088159434 0.082833946 0.07666686 0.17262855 -0.16464992
00000000: a46a 1ebe 2cd1 6f3e da4f b73b 94c5 13bc
00000010: 4c36 b93e f899 493e 3c56 8d3e 3830 1f3e
00000020: 0bb9 98be 0419 87be 8bd0 5f3e eb45 45be
00000030: 47e2 7bbe 9e5e d5bd 7c17 cabd 0eca b0be
00000040: 1560 3a3d 726f 4e3e 191d 12be d657 20be
00000050: be3e 633e e273 cc3d c979 1f3e ebba d0bc
00000060: 6caf 1e3e 209d 763c ebad 2fbe 8a6d 73bd
00000070: fe43 043d 228e 3bbd 186b 53bd 74c3 a8bc
00000080: 100e aa3e 224b 973e 247d 2ebe 762f 81be
00000090: f702 f73b 95b5 b83d 49aa fb3c d91e 763d
000000a0: d9ca 343e 4106 59be 394b 78be 3c78 603e
000000b0: a56d 0abe 809f 133d 48f4 96be 5da9 973e
000000c0: e2d6 01bd 3f08 ffbd 4feb c63e 33f8 f33b
000000d0: c518 a3bd 1d4a 543d 6360 6f3d 006f 833e
000000e0: 5d80 c0be 0da2 583e f2ef 0f3e 943c e53c
000000f0: 3841 023e 4e93 cd3d 95c9 933d bcf7 123c
00000100: ebec 7cbe ffef fdbc fe88 943e 6948 e4bd
00000110: e996 92bd 7810 af3d 96cf ae3e 36c4 c1be
00000120: 6a69 51be baa4 0ebe 0242 333d 1eb8 6e3e
00000130: 07fe 203c 66f8 a13d 3264 3b3e 6d21 053e
00000140: 10dc 6a3e cccc d0bd d35b 8fbe a5fa 1abd
00000150: f929 bbbd 10ea a7bb 4836 9bbd 4c9c 9cbd
00000160: 6286 be3d 0f40 c83d 5e90 893e 2d91 4cbe
00000170: 2fb9 32be 0853 523e 6b54 523e d546 763e
00000180: 1976 233e 0f7e 00be cd2b fd3d b366 a33d
00000190: ec0f 23be 70a8 c9bd 5323 333d fbb7 75bd
000001a0: e6d9 2abd a8e7 2fbe f5cf 303e de4b 4c3e
000001b0: 42d8 68be c091 97bd ef8b 53be 8bf5 ab3d
000001c0: c3b3 26be 5594 08be 01be 24be d55d 2b3d
000001d0: 5eb1 123e a38d 44be 1788 a83e 5570 4fbe
000001e0: 8fe2 7ebd 1b7b 433e 98e1 61bc 8a96 f43d
000001f0: ecca 9d3e 6b53 29be 8297 ebbd df3e a1bd
00000200: 9cbb 85be 74ea 2c3e f8e9 2b3e 23fa 35be
00000210: bde3 46be 6ec3 68bc 14b9 ecbd a1e2 e33d
00000220: f919 503e 834e 6d3e 37b2 f33c 7e0c 953d
00000230: 420f 51be 2e52 94be 3e59 903e 27fb 7d3e
00000240: da73 6fbe 7c6c 0cbe 4b3d df3b 10d7 89bd
00000250: 2710 5fbe d525 573e 3a0e 69be f41a bdbd
00000260: c61f 933e 0dfd a33e 8e18 82be dfc7 57bd
00000270: f3e9 6bbd 3563 363d 82d5 493e a1c7 0d3e
00000280: d3d4 f43d e409 ee3d f17b afbc 6ba9 d3bd
00000290: 59e0 cd3e 57db 0f3e 736a b0be f7db d7bd
000002a0: f6f3 14be d9c1 c8bd 7933 d4bd 1960 4dbe
000002b0: 85bc 16bd 660b 2ebe d720 acbe 5da2 55be
000002c0: 5cb6 1f3d 9273 c63c 3863 debe be17 563e
000002d0: 635e 1c3d c5a2 763e 43e0 bc3c 69f1 7b3e
000002e0: 3e82 9a3e ea6d a23e 6505 c53d ef8c b43d
000002f0: d8a4 a93d 8403 9d3d 8ac5 303e fd99 28be

network.0.conv.bias f4 [16]
-0.05773108 -0.12610385 -0.11102622 0.005855406 -0.118817426 0.10880126 0.24884887 0.121592596
-0.35607138 0.1479182 -0.28036484 0.06976148 -0.0082937805 -0.14356796 0.10650253 -0.23508944
00000000: 6d77 6cbd 5e21 01be b761 e3bd b5de bf3b
00000010: 8d56 f3bd 32d3 de3d 3dd2 7e3e 8a05 f93d
00000020: fd4e b6be de77 173e fb8b 8fbe 1bdf 8e3d
00000030: a3e2 07bc 7b03 13be 001e da3d 49bb 70be

network.0.norm.weight f4 [16]
0.9961184 0.97802496 1.1187692 0.9014607 1.0066718 0.9418511 0.9068448 0.92532164
1.0093722 0.89910805 0.99537575 1.0097209 0.9821434 1.0205847 1.111216 0.9664612
00000000: 9e01 7f3f d85f 7a3f d433 8f3f 21c6 663f
00000010: 9fda 803f 271d 713f fb26 683f e1e1 6c3f
00000020: 1c33 813f f22b 663f f2d0 7e3f 893e 813f
00000030: c06d 7b3f 85a2 823f 533c 8e3f 006a 773f

network.0.norm.bias f4 [16]
0.2818679 0.06093169 -0.1752545 0.2087761 0.015454683 0.1485762 0.22467864 0.10148369
0.1416 0.19482942 0.16031462 0.1840841 0.15219578 -0.1584779 0.24793549 0.023287917
00000000: fd50 903e 8293 793d ea75 33be 67c9 553e
00000010: a435 7d3c 5c24 183e 2812 663e aed6 cf3d
00000020: 97ff 103e 5d81 473e 8429 243e 8b80 3c3e
00000030: 36d9 1b3e 0848 22be cde2 7d3e 4dc6 be3c

network.0.norm.running_mean f4 [16]
-0.30530295 -0.20763047 0.09686608 -0.017318591 -0.091023065 0.21018708 0.37244347 -0.020739136
-0.4132015 0.13162836 -0.3144171 -0.23903431 0.19082107 0.08385659 0.114468955 -0.23958157
00000000: ab50 9cbe 159d 54be b961 c63d b8df 8dbc
00000010: 4d6a babd 483b 573e e9b0 be3e 1fe5 a9bc
00000020: 268f d3be 96c9 063e 47fb a0be 69c5 74be
00000030: 9966 433e 01bd ab3d b36e ea3d df54 75be

network.0.norm.running_var f4 [16]
0.44668832 0.3218811 0.43591896 0.29651624 0.42097756 0.35419276 0.27518854 0.2678966
0.23109506 0.4124005 0.37165695 0.27462357 0.44072413 0.37485367 0.30932525 0.59116405
00000000: 55b4 e43e 99cd a43e c530 df3e fad0 973e
00000010: 5f8a d73e c158 b53e 83e5 8c3e be29 893e
00000020: 2fa4 6c3e 2926 d33e d249 be3e 769b 8c3e
00000030: 98a6 e13e d2ec bf3e e15f 9e3e 8756 173f

network.1.conv.weight f4 [16, 16, 2]
0.09539321 0.019596081 0.054976333 0.09004117 -0.1898144 0.25960824 0.019489573 0.075829916
0.022537954 0.023653246 0.096114464 0.0016669306 -0.19819164 0.121913716 0.039309807 -0.18771592
-0.05831906 -0.11410626 0.047706537 -0.088901915 -0.038746115 -0.058809683 -0.010441194 -0.15037458
0.17853408 0.062986754 -0.0519804 0.26475152 -0.11230179 0.10120039 0.17007816 0.0074794446
0.108747706 0.08613398 -0.001711033 0.06956085 0.002559059 -0.1926029 -0.09452699 -0.25158435
-0.20989485 0.033369843 0.005700726 -0.0404591 0.025842104 0.021232182 0.07875647 0.10485168
0.041438166 0.17743021 0.06592488 0.1542188 -0.05077412 -0.1258791 0.054501332 0.1315559
-0.14418393 -0.0021505351 -0.21132204 -0.12274846 0.09416963 0.044145048 -0.15905567 0.08697906
-0.20032123 -0.008325024 -0.19706763 -0.027531136 -0.12377696 -0.0016570125 -0.32917282 0.044130053
0.06562339 -0.045605756 -0.27648875 -0.02814152 -0.30408457 -0.02423064 0.022103133 -0.11578345
-0.108088724 -0.09190083 -0.15765974 -0.008675406 -0.2366939 0.0037282642 -0.1913183 -0.08860226
-0.08958929 -0.10460149 -0.010035402 0.10460491 -0.34034836 -0.00678198 0.105108805 0.1319998
0.18736625 0.23570277 0.023038791 -0.025449496 -0.061455555 -0.041032247 0.023685446 0.05012464
0.13574089 0.121759154 -0.05100381 0.07118754 0.014027683 -0.10176851 0.08381225 0.11756173
0.22048496 0.2613529 -0.015756197 -0.09988988 -0.08626229 0.07733479 0.16577843 0.12518354
0.12562442 -0.07423191 -0.055438545 -0.07865349 0.2404728 -0.18072946 0.06340235 -0.06556248
0.013339592 -0.02512925 0.007716362 0.06353497 -0.101159096 -0.14466639 0.09179461 -0.020238098
0.0012199283 0.15433575 0.051886465 -0.00035997792 0.035346854 -0.08808384 -0.039485134 0.107573226
0.14159709 0.17773314 0.08728704 0.02636486 -0.13267685 -0.05083123 -0.09684759 0.16839449
-0.08268874 -0.03563111 0.08475791 -0.30849218 0.08190218 -0.07235887 -0.100590006 -0.24393743
-0.3066009 0.08985868 -0.017899988 0.05934136 0.03352047 0.11621568 -0.2906749 0.14712775
-0.32346925 0.025061417 -0.05536394 0.080385044 -0.057942886 -0.021225678 -0.20799361 -0.0028477188
-0.24714063 0.07713909 -0.36770198 0.0035029228 -0.27593988 -0.014229656 -0.16378042 -0.047728077
-0.20309612 0.0962347 -0.00051512854 -0.025351683 -0.23700075 0.06622604 -0.1331948 0.06742687
-0.23194975 0.08750142 -0.22876486 -0.08445413 -0.09082594 0.09746781 -0.31720847 -0.022393176
-0.21187074 -0.06262498 -0.21094373 0.08378823 -0.13822706 0.045641866 -0.06915688 0.099060565
-0.15948892 -0.012478962 -0.18107013 -0.030414132 -0.28062493 -0.007637051 -0.24232163 0.08523288
-0.1571991 -0.011839694 -0.016671237 0.018013306 -0.3040158 0.11441137 -0.23621385 -0.041861467
-0.17999506 -0.04168808 -0.10831614 0.013503079 -0.003227796 0.17429933 -0.037079822 0.05786408
-0.20047623 0.06694756 -0.22166777 0.03391666 -0.10247627 -0.011312575 -0.031059265 -0.082849085
-0.26654768 0.12860584 -0.38720402 0.03595355 -0.06983222 0.1502604 -0.13683566 -0.019962093
-0.10074585 0.106937505 -0.06154979 -0.0035695783 -0.06026195 0.016451832 -0.14595559 -0.012051267
00000000: 845d c33d f687 a03c dd2e 613d 8167 b83d
00000010: b55e 42be 5feb 843e 99a8 9f3c b74c 9b3d
00000020: 84a1 b83c 74c4 c13c a9d7 c43d e97c da3a
00000030: c0f2 4abe e6ad f93d 5203 213d 9a38 40be
00000040: f7df 6ebd 8bb0 e9bd ee67 433d 3512 b6bd
00000050: 3fb4 1ebd 6ce2 70bd 8b11 2bbc cbfb 19be
00000060: a3d1 363e 33ff 803d 66e9 54bd 838d 873e
00000070: 7bfe e5bd 2642 cf3d f828 2e3e 2116 f53b
00000080: 1eb7 de3d 0367 b03d be44 e0ba eb75 8e3d
00000090: e3b5 273b b239 45be 5e97 c1bd aacf 80be
000000a0: adee 56be d1ae 083d 28cd ba3b 71b8 25bd
000000b0: d2b2 d33c 1def ad3c 124b a13d 7abc d63d
000000c0: 11bb 293d 44b0 353e a003 873d 88eb 1d3e
000000d0: 86f8 4fbd 73e6 00be ca3c 5f3d 97b6 063e
000000e0: f4a4 13be feef 0cbb ce64 58be 8b63 fbbd
000000f0: 02dc c03d 70d1 343d 7ddf 22be 1422 b23d
00000100: 0221 4dbe ae65 08bc 19cc 49be fa88 e1bc
00000110: c67e fdbd 1d30 d9ba 5789 a8be b7c1 343d
00000120: 8e65 863d 1acd 3abd ef8f 8dbe 0c89 e6bc
00000130: f9b0 9bbe 567f c6bc a111 b53c e01f edbd
00000140: 9f5d ddbd 8136 bcbd 8e71 21be 4a23 0ebc
00000150: e35f 72be e555 743b f2e8 43be 1a75 b5bd
00000160: 977a b7bd 4e39 d6bd 876b 24bc 193b d63d
00000170: 2442 aebe 5f3b debb 4943 d73d f52a 073e
00000180: f0dc 3f3e 115c 713e d9bb bc3c 767b d0bc
00000190: d2b8 7bbd 6e11 28bd fb07 c23c 7f4f 4d3d
000001a0: a9ff 0a3e dd5c f93d 5fe9 50bd c6ca 913d
000001b0: 5ed4 653c 026c d0bd c2a5 ab3d 34c4 f03d
000001c0: cfc6 613e 0cd0 853e 2413 81bc 1193 ccbd
000001d0: 49aa b0bd b461 9e3d d2c1 293e 1d30 003e
000001e0: b0a3 003e e606 98bd 8713 63bd 1515 a1bd
000001f0: 803e 763e 2511 39be 17d9 813d 9f45 86bd
00000200: 4e8e 5a3c dbdb cdbc 89d9 fc3b 9f1e 823d
00000210: 802c cfbd 6d23 14be d0fe bb3d 5eca a5bc
00000220: 00e6 9f3a 310a 1e3e e786 543d 6bbb bcb9
00000230: ddc7 103d 4d65 b4bd 2abb 21bd 5a4f dc3d
00000240: d4fe 103e adff 353e 8cc3 b23d 1efb d73c
00000250: 71dc 07be 6834 50bd 0758 c6bd 9b6f 2c3e
00000260: b758 a9bd edf1 11bd 8e95 ad3d b0f2 9dbe
00000270: 55bc a73d e330 94bd 2202 cebd bcca 79be
00000280: cbfa 9cbe d407 b83d ffa2 92bc ed0f 733d
00000290: c34c 093d 7d02 ee3d 57d3 94be a8a8 163e
000002a0: c39d a5be 9a4d cd3c 4cc5 62bd eaa0 a43d
000002b0: 8555 6dbd 79e1 adbc 47fc 54be cba0 3abb
000002c0: 6f12 7dbe 19fb 9d3d 6f43 bcbe 4b91 653b
000002d0: fe47 8dbe 8123 69bc 0eb6 27be 847e 43bd
000002e0: 6ef8 4fbe b316 c53d b109 07ba 55ae cfbc
000002f0: 53b0 72be 85a1 873d 3864 08be 1917 8a3d
00000300: 3c84 6dbe f233 b33d 5641 6abe 49f6 acbd
00000310: f302 babd 349d c73d 2669 a2be e571 b7bc
00000320: a5f4 58be 8741 80bd a201 58be 2a99 ab3d
00000330: 658b 0dbe f7f2 3a3d 1fa2 8dbd 44e0 ca3d
00000340: 1051 23be 8f74 4cbc 736a 39be 0f27 f9bc
00000350: 12ae 8fbe 3a40 fabb 2923 78be 948e ae3d
00000360: cdf8 20be 47fb 41bc 1e92 88bc a490 933c
00000370: f5a7 9bbe 8250 ea3d 0be2 71be ee76 2bbd
00000380: a050 38be 1fc1 2abd dad4 ddbd 053c 5d3c
00000390: 6e89 53bb 867b 323e 03e1 17bd e302 6d3d
000003a0: a449 4dbe cd1b 893d e0fc 62be 32ec 0a3d
000003b0: 14df d1bd 6158 39bc 0070 febc c8ac a9bd
000003c0: f078 88be 40b1 033e 9b3f c6be 0844 133d
000003d0: 3204 8fbd dddd 193e a61e 0cbe 8b87 a3bc
000003e0: d753 cebd 0d02 db3d a21b 7cbd 96ef 69bb
000003f0: 3cd5 76bd fec5 863c 6275 15be ad72 45bc

network.1.conv.bias f4 [16]
0.13447075 -0.12994489 -0.11325594 0.05626971 -0.0062620738 -0.04667212 -0.22067024 -0.18761279
0.13863133 0.18171841 0.047829904 -0.18093137 0.10155312 -0.14631744 0.19457932 -0.07417181
00000000: b3b2 093e 4610 05be bbf2 e7bd 117b 663d
00000010: 1532 cdbb 442b 3fbd 61f7 61be 911d 40be
00000020: 5ff5 0d3e 6414 3a3e 4ae9 433d 1346 39be
00000030: 15fb cf3d 3dd4 15be cd3f 473e 64e7 97bd

network.1.norm.weight f4 [16]
1.0061431 0.89694697 0.9945103 1.0551596 0.9903162 1.2009218 1.1608168 1.0008563
0.85101295 1.038779 0.83052766 0.96292216 0.9242434 0.85888594 1.0145326 1.0564331
00000000: 4cc9 803f 519e 653f 3a98 7e3f 780f 873f
00000010: 5d85 7d3f ceb7 993f a595 943f 0f1c 803f
00000020: fcdb 593f b6f6 843f 769d 543f 1182 763f
00000030: 379b 6c3f f3df 5b3f 34dc 813f 3339 873f

network.1.norm.bias f4 [16]
0.053495437 -0.039571103 -0.0005951815 0.07665772 0.1613395 0.12891267 0.09630773 0.017234547
-0.15130986 -0.028329827 -0.14867505 -0.0028974586 -0.073764056 -0.045088846 0.09099092 -0.15830424
00000000: 081e 5b3d 4f15 22bd f405 1cba b9fe 9c3d
00000010: 2f36 253e af01 043e fd3c c53d 772f 8d3c
00000020: f9f0 1abe f413 e8bc 463e 18be 4ae3 3dbb
00000030: 9c11 97bd 15af 38bd 7359 ba3d 821a 22be

network.1.norm.running_mean f4 [16]
0.32912332 -0.017568843 -0.6284234 0.43302462 -0.09594934 -0.19619755 -0.52388257 -0.23215473
-0.013675314 0.43730843 -0.2121339 -0.14144567 -0.19648778 -0.6612567 0.47234368 0.10109701
00000000: da82 a83e 89ec 8fbc 5be0 20bf 67b5 dd3e
00000010: 1681 c4bd 03e8 48be 2b1d 06bf f8b9 6dbe
00000020: 6d0e 60bc e4e6 df3e a139 59be 22d7 10be
00000030: 1834 49be 1e48 29bf 08d7 f13e f30b cf3d

network.1.norm.running_var f4 [16]
0.3050791 0.1845647 0.3537139 0.22177653 0.30230394 0.55875725 0.57226956 0.33175153
0.27830487 0.23442389 0.23672228 0.28968608 0.30844006 0.43613452 0.46582943 0.34752077
00000000: 5433 9c3e 87fe 3c3e fd19 b53e 6319 633e
00000010: 95c7 9a3e b70a 0f3f 4280 123f 56db a93e
00000020: fa7d 8e3e d10c 703e 5367 723e bc51 943e
00000030: dbeb 9d3e 064d df3e 3281 ee3e 3eee b13e

network.2.conv.weight f4 [16, 16, 2]
0.11949031 0.1253458 -0.17170602 -0.032431 0.037775442 -0.037673924 -0.029846966 -0.13303499
0.08549555 -0.27144724 0.1699727 -0.091569275 -0.1473236 0.08459208 0.08974342 0.10922449
-0.044581696 -0.07136055 -0.06887979 -0.13211949 0.069499716 0.0839911 -0.085692234 0.17014326
-0.039992258 -0.043188855 0.07667859 -0.08159482 -0.06852671 0.095387585 -0.17527367 0.101148054
-0.023934692 -0.22950014 -0.02125232 0.05504754 -0.14840324 -0.10172126 0.110617235 0.07884126
0.09060113 0.049512338 0.09242968 -0.036959976 -0.0149629265 0.11183372 -0.094079874 0.07726088
0.13588299 -0.054031003 -0.124126196 0.05246893 -0.070871 0.12608074 -0.02262944 -0.07019672
0.075141534 -0.1690349 0.044928536 0.12718286 -0.09717828 -0.21233891 0.070871964 -0.2855254
-0.17387897 -0.0339388 0.14748313 0.09042366 -0.055501185 -0.19561003 -0.09602114 -0.044928093
0.122400776 0.038625497 0.014559865 -0.10464549 -0.09550046 -0.22048137 -0.13738593 -0.28227818
-0.17314804 -0.07190305 0.0020117909 0.11209159 0.11641182 0.07238796 -0.1177966 -0.008210462
-0.035964176 -0.11563324 0.14085688 -0.1518949 0.07368554 -0.08822694 0.14085914 -0.118457384
0.12736307 -0.19776435 0.13463016 -0.0050838133 -0.15550187 -0.12429767 -0.041554645 0.032010876
-0.050366998 0.09219758 -0.018569529 0.043454137 0.0849324 -7.966434e-05 0.16865279 0.035186443
0.058505937 0.08614786 0.13238327 -0.19864558 -0.16184042 0.18074976 -0.040318817 -0.2203298
-0.12379136 0.081801884 0.041310757 0.2141555 0.14789377 -0.15919623 0.015549719 -0.07602656
-0.1197757 -0.21552286 0.17217197 0.109576344 0.043856785 0.1433363 -0.13549845 -0.0010778899
0.043852612 -0.13222915 0.0770991 0.20341901 -0.03514166 0.101659596 0.15858804 0.070660934
0.0034095496 0.031242348 0.018388435 0.0086987205 0.0777394 0.19150674 0.12976535 -0.12814116
0.013394147 -0.008715024 0.08338399 0.19211473 0.050899014 0.04976889 -0.08030544 -0.08391512
0.065767705 0.050312854 -0.08222184 -0.11951986 -0.09220301 0.03481545 0.051047966 -0.18261498
-0.105554946 -0.25060883 -0.022571847 -0.09336765 0.08256434 -0.17585978 0.07129869 -0.022645291
0.07170047 -0.049452703 0.0029976517 -0.060570925 0.094527826 -0.0965182 0.15758629 0.16590206
-0.10380149 0.103228286 -0.026116416 -0.054502476 0.101699546 -0.13035184 0.119085595 0.10297189
0.022075966 0.061029606 0.13453437 0.0084864665 -0.030912057 0.03736312 0.15173261 -0.011704852
0.11260803 -0.25177178 0.09985198 -0.013058689 -0.15673572 -0.24947119 0.17015554 -0.18307735
-0.120440856 -0.24453649 -0.091854505 -0.2038742 -0.0010987967 -0.11673906 0.014870167 0.07672059
-0.041280627 -0.016259095 -0.044003874 0.09794623 -0.026504338 0.08221987 0.13984497 0.14565799
0.1725669 0.07509669 0.17493497 -0.10303776 0.09243347 -0.2102859 -0.1678224 0.029993631
0.16484134 -0.11115828 0.09275751 -0.1460645 0.051381618 -0.049284473 -0.099301405 -0.1738759
-0.1408844 0.020279923 0.16959895 0.10489185 -0.10790187 0.020445473 -0.09577302 0.10692758
-0.071492836 0.014995237 -0.09251092 -0.004981798 0.07151155 0.13649788 0.06703694 -0.054322954
00000000: 56b7 f43d a65a 003e b4d3 2fbe 5ed6 04bd
00000010: 6cba 1a3d f94f 1abd a081 f4bc 533a 08be
00000020: 4a18 af3d 22fb 8abe 530d 2e3e ac88 bbbd
00000030: ffdb 16be 9d3e ad3d 66cb b73d 17b1 df3d
00000040: 4c9b 36bd 7b25 92bd d910 8dbd 554a 07be
00000050: de55 8e3d 8703 ac3d 697f afbd 093a 2e3e
00000060: ecce 23bd cce6 30bd aa09 9d3d 2f1b a7bd
00000070: bb57 8cbd 915a c33d f17a 33be b626 cf3d
00000080: b012 c4bc 1602 6bbe 5819 aebc 8879 613d
00000090: 05f7 17be 3c53 d0bd 4a8b e23d 8777 a13d
000000a0: 168d b93d 73cd 4a3d c64b bd3d 5863 17bd
000000b0: 1027 75bc 1409 e53d f3ac c0bd f43a 9e3d
000000c0: e924 0b3e 9d4f 5dbd e035 febd a9e9 563d
000000d0: d124 91bd 4f1b 013e 6061 b9bc 4cc3 8fbd
000000e0: cee3 993d 7c17 2dbe fc06 383d 393c 023e
000000f0: 6805 c7bd 5f6f 59be 5225 913d 6330 92be
00000100: 540d 32be 6903 0bbd d105 173e 0a30 b93d
00000110: 3655 63bd ff4d 48be bba6 c4bd 8506 38bd
00000120: 42ad fa3d c535 1e3d 808c 6e3c 6050 d6bd
00000130: bf95 c3bd dec5 61be e6ae 0cbe c486 90be
00000140: b84d 31be e841 93bd 40d8 033b 4790 e53d
00000150: 5269 ee3d 2440 943d 583f f1bd 2c85 06bc
00000160: 2c4f 13bd 1fd1 ecbd c93c 103e 568a 1bbe
00000170: 72e8 963d 53b0 b4bd 613d 103e c999 f2bd
00000180: 776b 023e bd82 4abe 7ddc 093e 1e96 a6bb
00000190: e23b 1fbe c78f febd 3435 2abd d61d 033d
000001a0: a04d 4ebd 16d2 bc3d 201f 98bc f7fc 313d
000001b0: 0af1 ad3d 7811 a7b8 51b3 2c3e a91f 103d
000001c0: eca3 6f3d 4a6e b03d 7b8f 073e bf69 4bbe
000001d0: 7fb9 25be 7716 393e 5825 25bd 239e 61be
000001e0: 5386 fdbd bf87 a73d 7835 293d 944b 5b3e
000001f0: 7771 173e 5604 23be 40c4 7e3c d0b3 9bbd
00000200: f64c f5bd 06b2 5cbe d94d 303e 9069 e03d
00000210: 2ca3 333d c0c6 123e 1bc0 0abe fc47 8dba
00000220: cc9e 333d 1467 07be 22e6 9d3d 134d 503e
00000230: b4f0 0fbd e832 d03d e764 223e aeb6 903d
00000240: c072 5f3b f4ef ff3c 58a3 963c 1485 0e3c
00000250: d635 9f3d 581a 443e 35e1 043e 7037 03be
00000260: 2073 5b3c 76c9 0ebc 3ac5 aa3d b9b9 443e
00000270: 7c7b 503d 77da 4b3d 2e77 a4bd b1db abbd
00000280: 38b1 863d da14 4e3d ed63 a8bd d4c6 f4bd
00000290: efd4 bcbd a59a 0e3d ac17 513d 6cff 3abe
000002a0: 312d d8bd cd4f 80be 98e8 b8bc 8a37 bfbd
000002b0: 7e17 a93d 9614 34be 0c05 923d 9e82 b9bc
000002c0: b2d7 923d eb8e 4abd 4074 443b 3819 78bd
000002d0: ce97 c13d 56ab c5bd 4d5e 213e 3be2 293e
000002e0: e095 d4bd 5a69 d33d 18f2 d5bc fd3d 5fbd
000002f0: da47 d03d f47a 05be 26e3 f33d ede2 d23d
00000300: a8d8 b43c 2efa 793d 61c3 093e d20a 0b3c
00000310: 483b fdbc 120a 193d cb5f 1b3e b5c5 3fbc
00000320: 0a9f e63d 3be8 80be 327f cc3d 1df4 55bc
00000330: 547f 20be 6075 7fbe 413d 2e3e a178 3bbe
00000340: b2a9 f6bd c667 7abe 371e bcbd 66c4 50be
00000350: 8005 90ba e314 efbd 00a2 733c af1f 9d3d
00000360: e015 29bd cb31 85bc 683d 34bd 0898 c83d
00000370: a01f d9bc e462 a83d 8533 0f3e 5e27 153e
00000380: 61b5 303e 4bcc 993d 2722 333e 7605 d3bd
00000390: c24d bd3d 3055 57be a3d9 2bbe 34b5 f53c
000003a0: 2bcc 283e f4a6 e3bd a6f7 bd3d ef91 15be
000003b0: 8875 523d 84de 49bd 895e cbbd 860c 32be
000003c0: 0044 10be 1522 a63c 59ab 2d3e 8ad1 d63d
000003d0: a8fb dcbd 447d a73c a524 c4bd d9fc da3d
000003e0: d66a 92bd 95ae 753c 5d76 bdbd 5a3e a3bb
000003f0: a674 923d 1ac6 0b3e aa4a 893d bf81 5ebd

network.2.conv.bias f4 [16]
0.06425668 -0.14883618 -0.04031433 -0.14953598 0.015567294 0.16386475 -0.109890275 -0.099601135
0.11277276 -0.035098873 -0.036518384 0.14890926 -0.14889415 -0.018798023 -0.01198696 0.015318872
00000000: 0299 833d 8368 18be a420 25bd f61f 19be
00000010: f70d 7f3c 29cc 273e 270e e1bd aefb cbbd
00000020: 68f5 e63d d6c3 0fbd 4d94 15bd ab7b 183e
00000030: b577 18be 50fe 99bc f464 44bc 02fc 7a3c

network.2.norm.weight f4 [16]
0.8707762 1.1067944 0.99740773 1.1455957 1.057116 0.9018327 0.9068509 0.8925495
1.044256 0.76567996 1.1119322 1.0654356 1.069891 0.94531924 0.8984496 1.0728962
00000000: 30eb 5e3f 70ab 8d3f 1d56 7f3f e1a2 923f
00000010: 944f 873f 82de 663f 6127 683f 207e 643f
00000020: 2eaa 853f 9a03 443f cb53 8e3f 3260 883f
00000030: 30f2 883f 7100 723f cb00 663f aa54 893f

network.2.norm.bias f4 [16]
0.03238335 0.30650192 -0.069046676 0.15818751 0.122503705 -0.24663395 -0.060178746 0.058878105
0.13922021 -0.19461419 0.18461959 -0.007538157 0.14784053 -0.22112887 -0.118190326 -0.003370664
00000000: 67a4 043d d2ed 9c3e 5868 8dbd e8fb 213e
00000010: 39e3 fa3d 9c8d 7cbe fd7d 76bd 2b2a 713d
00000020: be8f 0e3e f148 47be eb0c 3d3e a502 f7bb
00000030: 8263 173e 9b6f 62be c50d f2bd 5ce6 5cbb

network.2.norm.running_mean f4 [16]
-0.004332938 -0.35074523 -0.5538227 -0.25954705 0.23434012 -0.1882539 -0.43559045 -0.2883878
-0.2501514 -0.34494573 -0.011225677 0.20577066 0.08195269 -0.4462125 -0.38605154 -0.30949783
00000000: 52fb 8dbb e194 b3be 53c7 0dbf 5ae3 84be
00000010: dbf6 6f3e a1c5 40be b605 dfbe 91a7 93be
00000020: d813 80be ba9c b0be e7eb 37bc 8bb5 523e
00000030: d0d6 a73d f775 e4be 8ca8 c5be 8076 9ebe

network.2.norm.running_var f4 [16]
0.25216153 0.3224724 0.14503682 0.3045302 0.18954608 0.1567031 0.22136761 0.15215622
0.26802555 0.07136819 0.27884424 0.17328732 0.17791247 0.09492409 0.1800367 0.26902476
00000000: 511b 813e 1a1b a53e 8884 143e 62eb 9b3e
00000010: 5e18 423e c776 203e 31ae 623e d7ce 1b3e
00000020: a53a 893e 7c29 923d acc4 8e3e 3b72 313e
00000030: b02e 363e 9067 c23d 8a5b 383e 9dbd 893e

network.3.conv.weight f4 [16, 16, 2]
-0.14105682 -0.068310514 0.12741487 0.15173437 -0.15320063 0.07204094 0.010662675 0.20869398
0.03953488 0.02785248 -0.10038005 -0.1493639 0.052311465 -0.007910598 0.012731537 0.045712195
-0.007940844 -0.19725934 0.05386181 -0.1110653 -0.15494524 0.11528291 -0.102613665 0.1937653
-0.11646104 0.19015266 -0.03486225 -0.115581535 -0.1436233 -0.024201838 0.11681001 0.17724247
-0.12341063 -0.052085 -0.09682718 0.043259047 -0.08941616 0.101206 0.14472432 0.07145185
-0.096613005 0.1570914 -0.053200215 -0.16208227 -0.12983558 -0.13055934 0.1425841 -0.051400397
0.15706705 -0.17858441 -0.009836912 -0.031355597 0.04495001 -0.08662449 0.008191824 -0.046110023
-0.057006814 0.14195661 -0.07903013 -0.16282798 0.06905687 -0.14388123 -0.13725844 -0.17781521
0.06242144 0.11011745 0.0035955757 -0.06962993 -0.12518074 -0.17611966 -0.12089181 -0.036255293
-0.0013739914 0.00042986876 -0.12137453 0.036268514 -0.13957888 -0.10842759 0.044325784 -0.1792919
0.0052577704 -0.15629639 0.13119633 0.016117321 -0.16615446 0.24465913 0.09472172 0.16671956
-0.07039738 -0.0499946 -0.056532115 -0.15005656 -0.1443095 -0.07918537 -0.16752885 -0.15375653
0.14473309 -0.043212328 -0.033796236 -0.096132115 -0.044170514 -0.040448714 0.0076182485 -0.17563502
-0.046037167 -0.13093187 0.0848002 0.18756936 -0.17327823 0.22270831 0.01230675 0.1196089
-0.11902725 0.048552673 -0.03395395 -0.00745139 0.019803777 -0.16228445 -0.1491189 0.07588821
-0.12764812 0.017487623 -0.071783245 0.1011469 0.032868788 0.262696 0.14395614 -0.11983516
0.08400042 0.0178584 0.016927734 0.008501973 0.11120142 -0.21066073 -0.06656201 0.16577832
-0.021668091 -0.012728644 0.089875415 -0.015436025 0.08600919 -0.23145461 0.01892054 -0.22989483
-0.07769472 -0.07206514 -0.031739503 -0.01439133 0.13619228 0.196932 -0.025937185 0.12129268
-0.08472878 0.01935047 0.0117813945 -0.2073226 -0.10072363 -0.24296197 0.13582112 -0.18935502
-0.07802384 0.0062780767 0.0985408 0.093449116 -0.0762844 -0.16746081 -0.08678592 0.13829653
-0.15564154 0.14409815 -0.0070717335 -0.11333203 0.06449996 -0.022416398 0.063139975 0.06603581
0.15981479 -0.108296886 -0.10940325 0.09696538 0.08427434 0.1631328 -0.05814343 0.17850143
0.063753456 0.09265981 0.121389136 0.14409006 0.17352109 -0.06652961 0.0056363046 0.09799436
0.0487265 0.10376555 0.120027736 -0.17027737 -0.06549901 -0.03386306 0.036537245 -0.241594
-0.1424481 -0.16971359 -0.10179568 0.12740998 -0.103780374 0.08346402 -0.1096053 -0.004513804
-0.030856192 0.09218188 -0.10465121 0.054383334 -0.030289948 -0.000704756 -0.1229296 -0.16025648
0.051851764 -0.19463035 0.11962934 0.11524599 -0.0017688423 0.03417824 -0.163885 -0.15068011
-0.062577024 0.16400252 -0.007435173 -0.19204196 0.14196579 -0.07968206 0.062128708 -0.23580715
0.0018467754 -0.12967886 -0.03142239 0.1679141 -0.027435496 0.10252794 -0.017519683 -0.109949306
-0.02686058 -0.11157998 -0.035373747 0.009987104 -0.15720122 -0.22349413 0.06733532 -0.16242838
0.15431948 -0.1986236 -0.15409634 0.0079090195 0.10978766 -0.06415235 0.1585355 -0.20576294
00000000: 3371 10be 62e6 8bbd 0b79 023e 4160 1b3e
00000010: a0e0 1cbe 338a 933d 80b2 2e3c e0b3 553e
00000020: 54ef 213d e22a e43c 0e94 cdbd daf2 18be
00000030: 8c44 563d 749b 01bc f097 503c b63c 3b3d
00000040: 501a 02bc 5afe 49be 349e 5c3d 3476 e3bd
00000050: f7a9 1ebe 7219 ec3d 1d27 d2bd 696a 463e
00000060: 2083 eebd 61b7 423e b8cb 0ebd 03b6 ecbd
00000070: fd11 13be ef42 c6bc 163a ef3d 0d7f 353e
00000080: b6be fcbd 1557 55bd 544d c6bd 6630 313d
00000090: d21f b7bd 1745 cf3d 9d32 143e 5955 923d
000000a0: 0add c5bd 91dc 203e 78e8 59bd e5f8 25be
000000b0: 9ef3 04be 59b1 05be 9101 123e 3989 52bd
000000c0: 2fd6 203e d5de 36be 002b 21bc ba6e 00bd
000000d0: 801d 383d 2e68 b1bd 0037 063c dddd 3cbd
000000e0: fa7f 69bd 135d 113e 8cda a1bd 61bc 26be
000000f0: b06d 8d3d 9a55 13be 7a8d 0cbe 3115 36be
00000100: a0ad 7f3d 4285 e13d c0a3 6b3b 239a 8ebd
00000110: 612f 00be b658 34be 2096 f7bd 6e80 14bd
00000120: 8017 b4ba 0260 e139 3693 f8bd 4b8e 143d
00000130: c4ed 0ebe 490f debd f48e 353d 4c98 37be
00000140: 6049 ac3b 290c 20be 5558 063e 7908 843c
00000150: 6524 2abe ec87 7a3e 76fd c13d 88b8 2a3e
00000160: 802c 90bd 23c7 4cbd 388e 67bd 6da8 19be
00000170: dfc5 13be f02b a2bd af8c 2bbe 5a72 1dbe
00000180: e934 143e 69ff 30bd ec6d 0abd eae0 c4bd
00000190: 24ec 34bd 8dad 25bd 80a2 f93b abd9 33be
000001a0: 7891 3cbd 0113 06be baab ad3d 2f12 403e
000001b0: d96f 31be a60d 643e 40a2 493c 83f5 f43d
000001c0: 8fc4 f3bd 2bdf 463d 4c13 0bbd ca2a f4bb
000001d0: 883b a23c e52d 26be a0b2 18be 476b 9b3d
000001e0: 30b6 02be 3442 8f3c 1803 93bd 1b26 cf3d
000001f0: 6ca1 063d 1780 863e 3d69 133e 236c f5bd
00000200: 6a08 ac3d c74b 923c 08ac 8a3c dc4b 0b3c
00000210: 92bd e33d 72b7 57be aa51 88bd cbc1 293e
00000220: 4881 b1bc cd8b 50bc 9a10 b83d 62e7 7cbc
00000230: 9625 b03d 7002 6dbe 40ff 9a3c 8d69 6bbe
00000240: 691e 9fbd e396 93bd 4801 02bd 9dc9 6bbc
00000250: fd75 0b3e 8ba8 493e 387a d4bc 4c68 f83d
00000260: 4886 adbd e084 9e3c c006 413c 604c 54be
00000270: 3148 cebd 06cb 78be b114 0b3e 48e6 41be
00000280: f7ca 9fbd 53b8 cd3b c2cf c93d 4062 bf3d
00000290: ff3a 9cbd d97a 2bbe d1bc b1bd 9b9d 0d3e
000002a0: 7f60 1fbe 778e 133e 00ba e7bb a01a e8bd
000002b0: 8e18 843d 98a2 b7bc 884f 813d c83d 873d
000002c0: 7da6 233e c2ca ddbd d00e e0bd c995 c63d
000002d0: 0698 ac3d 490c 273e ce27 6ebd 14c9 363e
000002e0: 2c91 823d 6dc4 bd3d de9a f83d 588c 133e
000002f0: 83af 313e ad40 88bd c0b0 b83b 44b1 c83d
00000300: 7095 473d 0883 d43d 1ad1 f53d 315d 2ebe
00000310: 5824 86bd feb3 0abd 14a8 153d 6b64 77be
00000320: eadd 11be 66c9 2dbe 417a d0bd c377 023e
00000330: ce8a d4bd 2fef aa3d be78 e0bd 88e8 93bb
00000340: 20c6 fcbc dac9 bc3d 6053 d6bd 0fc1 5e3d
00000350: a022 f8bc 60bf 38ba 84c2 fbbd 461a 24be
00000360: 8462 543d 2e4d 47be 3a00 f53d 1706 ec3d
00000370: 80d8 e7ba 7bfe 0b3d 78d1 27be e34b 1abe
00000380: 6228 80bd 47f0 273e c0a2 f3bb a6a6 44be
00000390: 7b5f 113e 5930 a3bd ac7a 7e3d 6e77 71be
000003a0: 800f f23a 89ca 04be c4b4 00bd adf1 2b3e
000003b0: 68c0 e0bc 2bfa d13d 7085 8fbc 1a2d e1bd
000003c0: b80a dcbc 0b84 e4bd 10e4 10bd f3a0 233c
000003d0: 5bf9 20be a5db 64be 1ae7 893d a053 26be
000003e0: ed05 1e3e fc63 4bbe 6ecb 1dbe d594 013c
000003f0: 5ad8 e03d 4f62 83bd 2157 223e 85b3 52be

network.3.conv.bias f4 [16]
-0.15186471 -0.09646739 -0.049448635 -0.1878852 -0.22233413 -0.013283597 -0.051091038 -0.0009413259
-0.27247933 -0.021781012 0.12895273 -0.028831178 0.09437225 0.0689917 -0.09658715 -0.10446201
00000000: 6c82 1bbe b290 c5bd a78a 4abd fa64 40be
00000010: 8fab 63be 72a3 59bc d644 51bd 50c3 76ba
00000020: 6982 8bbe 186e b2bc 2f0c 043e 5d2f ecbc
00000030: 3d46 c13d 854b 8d3d 7ccf c5bd 2ef0 d5bd

network.3.norm.weight f4 [16]
0.9710517 1.1641926 1.2576525 0.8291381 1.2514542 0.9139228 0.9797337 0.9042843
1.2391808 0.750784 1.2478737 0.83319575 0.8672208 0.91989094 1.2746034 0.8683506
00000000: d896 783f 4304 953f c2fa a03f 6542 543f
00000010: a72f a03f d8f6 693f d4cf 7a3f 2d7f 673f
00000020: 7a9d 9e3f 6133 403f 53ba 9f3f 514c 553f
00000030: 2f02 5e3f f97d 6b3f 3426 a33f 3a4c 5e3f

network.3.norm.bias f4 [16]
0.20031382 0.27410948 0.2561852 -0.1113827 0.30412665 -0.14202912 0.04879312 -0.1501421
0.34145522 -0.07694372 0.27185565 -0.1413283 -0.10652938 0.1397962 0.28961435 0.092646815
00000000: 111f 4d3e 1458 8c3e b52a 833e 9d1c e4bd
00000010: 7db6 9b3e 1570 11be 4bdb 473d dabe 19be
00000020: 38d3 ae3e ab94 9dbd aa30 8b3e 5eb8 10be
00000030: 132c dabd bc26 0f3e 5548 943e 9dbd bd3d

network.3.norm.running_mean f4 [16]
0.24554682 -0.27273622 -0.23771606 -0.25943962 -0.42264175 0.3766023 -0.44788396 -0.73244417
-0.35579726 -0.4177287 -0.010099815 -0.6652857 0.16449507 0.37538305 0.07625238 -0.3163258
00000000: a070 7b3e 15a4 8bbe d76b 73be 45d5 84be
00000010: 8064 d8be 04d2 c03e 0c51 e5be 7681 3bbf
00000020: 0f2b b6be 89e0 d5be b279 25bc 2a50 2abf
00000030: 6571 283e 3532 c03e 352a 9c3d 75f5 a1be

network.3.norm.running_var f4 [16]
0.34409353 0.32397485 0.34003794 0.44516248 0.6579472 0.16947158 0.3787933 0.22209734
0.47217056 0.38492796 0.45923826 0.2899647 0.12073581 0.23013136 0.4196943 0.54062694
00000000: 072d b03e 08e0 a53e 7419 ae3e 56ec e33e
00000010: 3a6f 283f f589 2d3e 32f1 c13e 7c6d 633e
00000020: 57c0 f13e 4715 c53e 4721 eb3e 4176 943e
00000030: 5644 f73d 8ea7 6b3e 2ce2 d63e 8766 0a3f

network.4.conv.weight f4 [16, 16, 2]
0.0888827 -0.09808901 -0.09479496 -0.22359006 -0.09028299 -0.2719578 0.018853128 0.10355305
0.051700786 -0.26057693 0.14864145 0.024850398 -0.063610844 0.06338913 -0.00033663213 0.09839916
0.09954919 -0.18992169 0.103345916 0.071448 0.0593981 -0.2743214 0.12143351 0.14685236
-0.14795104 0.04005104 0.16712244 -0.111370146 -0.14840993 -0.14536536 -0.109745674 -0.009724748
0.058093593 -0.10364753 -0.13914484 -0.27372774 -0.1519746 -0.31282672 0.1426826 0.10691391
-0.1715014 -0.12993746 -0.11321398 0.018207079 -0.07569633 -0.03304407 0.17541768 0.08402445
0.1579218 -0.28623584 -0.025656402 0.10711516 0.049777552 -0.3869919 0.11008985 0.07161269
-0.16275279 -0.065716326 -0.030139104 -0.11110872 -0.039028823 -0.1302895 0.112863645 0.018422334
-0.024540216 0.14948839 0.1192397 -0.049697425 -0.030196398 0.19416197 -0.08495568 -0.0851375
0.07899882 0.05367693 -0.12689318 -0.15217467 -0.106934644 -0.12615013 -0.15236086 -0.08216803
-0.08745361 0.03335986 -0.07153178 -0.16855516 -0.124825776 -0.010315012 0.16159739 -0.2123039
-0.011041716 -0.003903515 -0.095935054 0.026246183 -0.12813021 0.10570528 0.12109725 -0.14439163
-0.018713176 0.1190515 -0.0047674626 0.03899065 0.122436956 -0.15266149 -0.06422284 -0.06835629
0.10589863 0.1457041 0.14451967 0.19955672 -0.012728766 -0.1846041 -0.12509838 -0.09229828
-0.079434395 0.16151458 -0.17206708 -0.03883376 -0.15570079 -0.04414372 -0.040170074 -0.0017919543
0.035056457 0.13279453 -0.030650616 0.053794857 0.0076708496 0.13136086 -0.012254432 -0.14676486
-0.16184866 0.20957321 -0.14535773 0.21529002 -0.04345888 0.012092979 0.025186554 -0.059665438
-0.041843474 0.19458088 0.16822915 0.0036082682 0.07530047 0.067959286 0.060697064 -0.24600242
0.04534562 0.13765964 -0.0992176 0.016532384 0.010596976 0.10599694 0.12170364 -0.19671614
-0.08226818 -0.0065316944 -0.03176543 0.013378095 -0.17660713 0.05235765 0.12442641 0.02934279
0.034497827 -0.06149378 -0.10706452 -0.18507306 0.02663377 -0.2889409 0.109349445 -0.0012600508
-0.14906253 -0.22544739 -0.10193645 -0.05625654 0.1654794 0.03765275 -0.023891091 0.025498725
-0.16966662 -0.23497441 -0.049202904 0.13948748 0.12416114 -0.24416955 -0.0035260618 0.03240079
-0.049598396 -0.02824929 0.09282754 -0.050405495 -0.083104186 -0.30983108 0.15841804 0.07208647
0.14336886 0.07435661 -0.04399939 0.17049927 0.02204442 -0.051670205 -0.04756078 -0.06327229
-0.16248676 0.12674822 0.036452264 0.114719346 0.12372582 -0.21596833 0.042441815 0.034321178
0.14062612 0.02694796 -0.088053785 0.016824575 -0.005563885 0.038917616 0.05533053 -0.047622535
-0.17374575 0.17876491 -0.11335458 0.06453998 0.07531284 -0.06967753 0.05299151 -0.015516905
-0.1664937 -0.13061298 -0.06183952 -0.17449345 -0.05471523 0.022604642 -0.17397043 -0.054871023
-0.07177912 0.13992317 -0.09092331 0.040784944 -0.095045395 -0.0567299 -0.12561864 -0.26945752
-0.041473612 -0.15459391 0.12793274 0.057650343 -0.1532976 0.2295919 -0.055042602 -0.1725355
0.15116645 -0.07666373 -0.11598732 0.13558437 0.096151486 -0.124518245 -0.019561201 -0.06191864
00000000: 2208 b63d e4e2 c8bd dc23 c2bd cbf4 64be
00000010: 4ae6 b8bd 0e3e 8bbe e071 9a3c 9f13 d43d
00000020: 34c4 533d 576a 85be 7735 183e 1093 cb3c
00000030: 6746 82bd 29d2 813d 007e b0b9 8085 c93d
00000040: 72e0 cb3d d57a 42be 06a7 d33d 5453 923d
00000050: 6c4b 733d db73 8cbe 22b2 f83d 7760 163e
00000060: 7a80 17be 8f0c 243d 2522 2b3e 0816 e4bd
00000070: c6f8 17be a8da 14be 57c2 e0bd 8d54 1fbc
00000080: 8cf3 6d3d 2845 d4bd fc7b 0ebe 0b26 8cbe
00000090: 3b9f 1bbe d32a a0be 631b 123e aef5 da3d
000000a0: 109e 2fbe 530e 05be bbdc e7bd 0327 953c
000000b0: ad06 9bbd 3859 07bd b1a0 333e 0315 ac3d
000000c0: 41b6 213e 818d 92be 602d d2bc 315f db3d
000000d0: 8ce3 4b3d cd23 c6be ca76 e13d ada9 923d
000000e0: aba8 26be 4896 86bd 48e6 f6bc f88c e3bd
000000f0: b0dc 1fbd 9c6a 05be 0e25 e73d 6fea 963c
00000100: 9008 c9bc 7c13 193e f233 f43d 878f 4bbd
00000110: 705e f7bc 65d2 463e 3efd adbd 925c aebd
00000120: 22ca a13d 57dc 5b3d 49f0 01be add3 1bbe
00000130: 8d00 dbbd 802d 01be 7c04 1cbe b647 a8bd
00000140: e11a b3bd 59a4 083d 417f 92bd b999 2cbe
00000150: a8a4 ffbd 4c00 29bc c979 253e 3266 59be
00000160: 50e8 34bc 1dd2 7fbb 9979 c4bd 3c02 d73c
00000170: 9134 03be 037c d83d d601 f83d 66db 13be
00000180: 604c 99bc 46d1 f33d 6038 9cbb a9b4 1f3d
00000190: 3ac0 fa3d 4b53 1cbe 4487 83bd 62fe 8bbd
000001a0: 62e1 d83d 7533 153e f7fc 133e 9958 4c3e
000001b0: 508c 50bc db08 3dbe ca19 00be e106 bdbd
000001c0: 80ae a2bd 1464 253e 5a32 30be 2610 1fbd
000001d0: 0770 1fbe 0cd0 34bd 6089 24bd 02e0 eaba
000001e0: 5c97 0f3d 4afb 073e 0017 fbbc ff57 5c3d
000001f0: c05b fb3b 7683 063e d0c6 48bc 8749 16be
00000200: a8bb 25be 5c9a 563e a8d8 14be fd74 5c3e
00000210: f001 32bd a121 463c 0854 ce3c bf63 74bd
00000220: 1064 2bbd 3640 473e 4344 2c3e b278 6c3b
00000230: 2237 9a3d 3d2e 8b3d 7c9d 783d 0fe8 7bbe
00000240: 54bc 393d a6f6 0c3e 9932 cbbd ec6e 873c
00000250: f09e 2d3c ec14 d93d c23f f93d f56f 49be
00000260: 387c a8bd d307 d6bb 781c 02bd cc2f 5b3c
00000270: 80d8 34be fa74 563d 46d3 fe3d 4a60 f03c
00000280: 984d 0d3d e7e0 7bbd a544 dbbd cb83 3dbe
00000290: 102f da3c 10f0 93be 9af2 df3d 4a28 a5ba
000002a0: d9a3 18be aedb 66be 0fc4 d0bd 426d 66bd
000002b0: 6f73 293e c539 1a3d 40b7 c3bc b4e2 d03c
000002c0: 16bd 2dbe 229d 70be fc88 49bd ced5 0e3e
000002d0: 3248 fe3d 9507 7abe 8015 67bb b1b6 043d
000002e0: b027 4bbd 0e6b e7bc 5e1c be3d fe75 4ebd
000002f0: 8732 aabd 2ea2 9ebe 5738 223e 12a2 933d
00000300: 49cf 123e 4748 983d b438 34bd 5c97 2e3e
00000310: 8096 b43c 23a4 53bd 18cf 42bd e794 81bd
00000320: ee62 26be 49ca 013e f84e 153d faf1 ea3d
00000330: f663 fd3d cd26 5dbe 78d7 2d3d 5d94 0c3d
00000340: 4b00 103e f8c1 dc3c 8b55 b4bd b1d3 893c
00000350: 4051 b6bb 1468 1f3d 44a2 623d d90f 43bd
00000360: 68ea 31be 260e 373e 7226 e8bd 892d 843d
00000370: 9e3d 9a3d 18b3 8ebd a00d 593d 9e3a 7ebc
00000380: 537d 2abe 69bf 05be 704b 7dbd 69ae 32be
00000390: 141d 60bd 5f2d b93c 4e25 32be 70c0 60bd
000003a0: ee00 93bd 0548 0f3e 0036 babd 1d0e 273d
000003b0: 29a7 c2bd 9d5d 68bd 2ca2 00be 56f6 89be
000003c0: 3ce0 29bd de4d 1ebe cd00 033e c422 6c3d
000003d0: 0cfa 1cbe 241a 6b3e 5a74 61bd 25ad 30be
000003e0: 61cb 1a3e e001 9dbd c38a edbd a1d6 0a3e
000003f0: 12eb c43d 6c03 ffbd d03e a0bc 669e 7dbd

network.4.conv.bias f4 [16]
-0.3372555 -0.1615469 0.14490215 0.16739847 -0.05673874 -0.29471678 0.098043405 -0.026003676
0.036586873 0.10429008 -0.1298783 0.08149608 -0.19230382 0.085615955 -0.086799175 -0.017507533
00000000: c1ac acbe 8d6c 25be 3b61 143e 816a 2b3e
00000010: e266 68bd 1ee5 96be fbca c83d a905 d5bc
00000020: 1edc 153d 0a96 d53d d1fe 04be 6be7 a63d
00000030: 4beb 44be 6b57 af3d c4c3 b1bd f56b 8fbc

network.4.norm.weight f4 [16]
1.3825443 1.4473438 0.8657452 0.91771054 0.92073625 1.3664417 0.90399176 0.89032733
0.8693528 1.4047126 1.4943671 0.89151096 1.4264001 0.9211199 0.88482624 0.941924
00000000: 36f7 b03f 9042 b93f 7aa1 5d3f 14ef 6a3f
00000010: 5fb5 6b3f 90e7 ae3f 016c 673f 7eec 633f
00000020: e88d 5e3f 9fcd b33f 6c47 bf3f 103a 643f
00000030: 4794 b63f 84ce 6b3f f983 623f ee21 713f

network.4.norm.bias f4 [16]
0.39723223 0.4772826 -0.1332745 -0.11068163 -0.09019871 0.36030018 -0.110873215 -0.12515144
-0.13790275 0.41119695 0.5300708 -0.12979874 0.42691818 -0.10557143 -0.13159823 -0.0739925
00000000: 0662 cb3e 635e f43e 1c79 08be 0dad e2bd
00000010: 1aba b8bd 4479 b83e 7f11 e3bd b327 00be
00000020: 6136 0dbe 6888 d23e b8b2 073f f6e9 04be
00000030: 0595 da3e d535 d8bd b0c1 06be 6189 97bd

network.4.norm.running_mean f4 [16]
-1.2842878 -1.3029214 0.15760025 0.3685068 0.47166634 -1.3729942 0.309672 -0.26648182
-0.17621376 -0.8384054 -1.3353612 0.45633245 -1.1803087 0.29784647 0.037350193 0.45151183
00000000: 8b63 a4bf 21c6 a6bf f661 213e ecac bc3e
00000010: 407e f13e 46be afbf 548d 9e3e 4e70 88be
00000020: 6171 34be bca1 56bf 1eed aabf 68a4 e93e
00000030: 5b14 97bf 557f 983e 84fc 183d 8f2c e73e

network.4.norm.running_var f4 [16]
1.0293705 1.13285 0.37192175 0.39036694 0.39662907 1.1072593 0.18884166 0.10207089
0.36869198 1.1303525 1.4946907 0.44170088 1.1512216 0.20620854 0.26345074 0.2843857
00000000: 6ac2 833f 3b01 913f 876c be3e 2dde c73e
00000010: f712 cb3e acba 8d3f b55f 413e 8b0a d13d
00000020: 32c5 bc3e 64af 903f 0652 bf3f 9e26 e23e
00000030: 3b5b 933f 5528 533e 04e3 863e 019b 913e

output_layer.weight f4 [1, 16]
0.51877445 0.43403083 -0.07825057 -0.052304495 -0.009751489 0.5661557 -0.034344904 0.00929891
-0.07274472 0.51876384 0.4181143 -0.1241595 0.52176714 -0.15352969 -0.1056558 -0.011600074
00000000: 67ce 043f 4a39 de3e d641 a0bd 3d3d 56bd
00000010: b6c4 1fbc 94ef 103f 3ead 0cbd 755a 183c
00000020: 2ffb 94bd b5cd 043f 1413 d63e 5647 febd
00000030: 8892 053f e336 1dbe 1162 d8bd 3d0e 3ebc
