saved_tcn_models_cv/inference_tcn_period_66pct_pca_False.pth (torch, 20906 bytes, 13 tensors)

network.0.conv.weight f4 [16, 7, 5]
00000000: ece7 3481 a160 9ebd aa76 953e 8225 2abd
00000010: 24c2 82be d9a4 3701 808a e4bd 948b c03d
00000020: 151e 4a3c adf9 1fbd c59f 3301 e8bb de3d
00000030: 0d9d 66be 3512 62bc 6342 e73d 5368 3381
00000040: 6353 c2ba 5fec 86bb a73d 3abe 5851 bbbd
00000050: ad7b 3c01 f0cd a5bd 9a58 13be d9f6 55be
00000060: 43b8 c5bd 85fd 3301 540b c53e e493 013f
00000070: 7bbc 80be ce23 1d3e 351f 3481 de2d 90bd
00000080: 4656 c9bd 2d1b 0c3e be79 04bd a04e 3301
00000090: 7a0c edbc beac 8d3d 2ae0 52bd 3aec a83c
000000a0: 9c7e 3781 9d9d 21be 5ddb 1dbe 9c63 3a3e
000000b0: 5934 373d ae91 3201 478c 2ebd cc9e bfbd
000000c0: 3002 9cbe fb0d ff3d 66b1 3681 8a36 ae3d
000000d0: 05ff 1e3d 2bd8 e0bc 67d4 ffbd b8f2 3601
000000e0: 6906 2dbf e465 4f3d 4e98 903d 5b03 d5be
000000f0: 91b7 3381 70c4 4bbf 6b52 dd3e 7fde b7bd
00000100: 9adc 11be 04aa 3381 8da3 7ebd 0e72 7bbd
00000110: c2ed fa3d 9171 93be 4058 3301 5520 ab3e
00000120: fc02 4a3d 431e 97be 36ad 03be a63f 3481
00000130: e5bd b6be 4c5b a13e d9f0 cb3d 73b4 793e
00000140: ad8c 3781 d14a f23b 7414 b23d 20c1 51be
00000150: 991e bcbd 7b49 3601 cb94 09bd 2914 c4bd
00000160: b865 2a3e 8a11 d63d b5d2 3681 8cd7 823e
00000170: f8f1 6fbe a6b9 efbe 474f 2bbe 7eac 3381
00000180: 7b33 36bf 22c4 8dbd 37e9 ad3c 9c3e ef3d
00000190: 18d1 3781 4ff7 48be 9002 22bf 9316 1cbe
000001a0: f30d 2ebe 0840 3381 5114 45be d3cc 773e
000001b0: 2567 2bbe 5c4b 863d 46cd 3601 1603 36be
000001c0: 6e39 8a3e 9b6b 9ebd 1d0a e5bd 9120 3581
000001d0: e642 d33d c896 8ebe 382c 0d3d 8c5e 30bd
000001e0: 1f92 3781 57c9 c1be 40d3 a23e 2f51 4bbe
000001f0: 6fff 9cbb 31b3 3781 e39e 18be f357 0b3e
00000200: d04a 443e f2c5 5e3d 2ee6 3381 6b94 40bf
00000210: 6d88 e2be b003 48be aaf9 523e bcdf 3781
00000220: aa29 20bf f3ec febe 5adc c73d 9051 04be
00000230: 8d7d 3201 fd83 09ba f929 083e 4a40 d0be
00000240: 9cb0 683e 2796 3501 63c4 77be 0fc7 ecbc
00000250: 3dc4 a4bd fe84 a6bd 6179 3601 4be5 be3d
00000260: a0c2 b8be b89e 6abb 0178 073c 54ac 3801
00000270: 87d8 aebd 07fb 973e 538e 5abe 5287 51bd
00000280: 26bc 3281 d736 81be 846c 903b 50c0 d53e
00000290: 5138 d4bc 165a 3881 5b50 c2be d271 113f
000002a0: 22d4 adbe a6b5 e2be b3bc 3381 0cc7 a7be
000002b0: 6d5e 693d f18d a13d c975 a5be 81ad 3701
000002c0: 9b0c 933d 6547 fd3e b288 06bf 7ea5 61bd
000002d0: 8cad 3501 75f1 d9bd a013 8a3e 403f 9a3d
000002e0: 23d1 acbd bbda 3201 6547 c73d 22a2 493e
000002f0: e395 7e3d b643 b2be d637 3481 9e8c a13d
00000300: 613d cc3e d0d1 5bbd e5c6 02be e19a 3781
00000310: 6fa4 59bd c646 ce3e e03f 373d 502f 27b9
00000320: 9227 3601 f8dd 34be ba87 93be 5451 68bd
00000330: 29ad d03e d009 3301 4552 3bbe 771b c9be
00000340: 5851 393e 50e0 4abf 8052 3481 1a1c e43d
00000350: 26ee b8be 15db 153c 77a3 a23c 73a8 3401
00000360: 6ddd 77bd 976b febd eafd f0bd dff1 3b3d
00000370: dbf9 3781 6f4c 9f3e 6a58 cfbe 012e 76be
00000380: 3699 f0bc 4cba 3381 84d0 d4be 3f8d c13e
00000390: 94b5 6ebd 4264 a33d 079c 3281 b46f 16be
000003a0: 7963 393d 6da3 49bd 68b0 c03c a84a 3681
000003b0: d949 7dbf 9513 253c 7f37 e53e fe90 5a3d
000003c0: 7e80 3301 1f9b 83bc 9c5c 0dbe e4ec 01bf
000003d0: 3cd9 e03c 588b 3281 392e 00be ae3a 12bc
000003e0: 4694 7a3e e8a9 d83d 1e8a 3401 b840 babd
000003f0: 0e86 73bd ceed d63d 70ca 4dbd 9dc0 3281
-3.3227174e-38 -0.07733274 0.29192096 -0.041539676 -0.25538743 3.3730064e-38 -0.11159229 0.094016224
0.012336274 -0.03905647 3.2991737e-38 0.10875684 -0.22520848 -0.013798286 0.11291959 -3.2951957e-38
-0.0014825877 -0.004117533 -0.18187581 -0.091463745 3.461888e-38 -0.0809592 -0.14389268 -0.20894946
-0.09654286 3.3059e-38 0.38485205 0.5061629 -0.251438 0.1534569 -3.3083169e-38 -0.070399985
-0.098309085 0.13682242 -0.032342665 3.2933518e-38 -0.028936613 0.069177136 -0.05148331 0.020620454
-3.370263e-38 -0.15782781 -0.15415712 0.1820206 0.044727657 3.2797957e-38 -0.042614248 -0.0935646
-0.3047042 0.124538384 -3.3555398e-38 0.08506496 0.038817424 -0.027446827 -0.124916844 3.3602263e-38
-0.67587906 0.05063428 0.070603 -0.41604123 -3.300881e-38 -0.79596615 0.43226942 -0.08977985
-0.14244309 -3.2999088e-38 -0.062167693 -0.061388068 0.1225238 -0.28797582 3.2940424e-38 0.33423105
0.049319252 -0.29515275 -0.12859043 -3.3106444e-38 -0.35691753 0.31514966 0.099580474 0.24385242
-3.3712722e-38 0.0073941727 0.086953074 -0.20483828 -0.091855235 3.348084e-38 -0.033589166 -0.09574158
0.16640365 0.10452564 -3.3579295e-38 0.25555074 -0.23432148 -0.46821326 -0.1672946 -3.3000865e-38
-0.711723 -0.06922175 0.02122937 0.11681864 -3.376181e-38 -0.1962559 -0.6328516 -0.15242986
-0.16997509 -3.2923048e-38 -0.19246031 0.24199228 -0.16738565 0.065573424 3.3575397e-38 -0.17774615
0.2699694 -0.07735368 -0.111835696 -3.3267815e-38 0.10315494 -0.27849412 0.034466 -0.043058917
-3.3716628e-38 -0.37848923 0.31801796 -0.19855188 -0.0047911922 -3.3740355e-38 -0.1490436 0.13607769
0.19169164 0.054387994 -3.3042253e-38 -0.7522647 -0.4424471 -0.19532657 0.20603052 -3.3772313e-38
-0.62563574 -0.49790153 0.097588256 -0.12921739 3.2783515e-38 -0.0005245803 0.13297261 -0.4067405
0.22723621 3.335218e-38 -0.2419601 -0.028903512 -0.08045242 -0.08130835 3.3515206e-38 0.09321078
-0.36085987 -0.003580017 0.008268357 3.3919102e-38 -0.08537393 0.29683706 -0.21343355 -0.051154442
-3.2828427e-38 -0.25237152 0.0044074673 0.41748285 -0.02590576 -3.3860096e-38 -0.3795193 0.568143
-0.33950907 -0.44279212 -3.3012493e-38 -0.32769048 0.056974817 0.07888401 -0.32316425 3.3736275e-38
0.07180139 0.49468532 -0.5255233 -0.055089466 3.3368963e-38 -0.106417574 0.26968098 0.07531595
-0.08438327 3.2850368e-38 0.09730414 0.19690755 0.062154662 -0.34817284 -3.310084e-38 0.07888149
0.39890578 -0.05366689 -0.12771185 -3.3722912e-38 -0.05313533 0.4028837 0.04473865 -0.00015943986
3.345651e-38 -0.176628 -0.2881449 -0.056718186 0.4075711 3.2884148e-38 -0.18293102 -0.39278767
0.18097436 -0.79248524 -3.311997e-38 0.111381724 -0.36119193 0.0091464715 0.019853337 3.3181635e-38
-0.060513902 -0.12422865 -0.1176718 0.045884963 -3.3791054e-38 0.31113002 -0.40497142 -0.24040987
-0.029369932 -3.301077e-38 -0.41565335 0.37803075 -0.058278635 0.07978107 -3.280538e-38 -0.14691049
0.04526088 -0.04922812 0.023521617 -3.3481684e-38 -0.9894081 0.0100754695 0.44768903 0.05336093
3.2969296e-38 -0.016065178 -0.13804859 -0.5075209 0.027447335 -3.279341e-38 -0.12517633 -0.008925123
0.24470624 0.10579282 3.3159873e-38 -0.09094375 -0.059454016 0.104945764 -0.050241888 -3.283163e-38

network.0.conv.bias f4 [16]
00000000: cf28 913c 6c96 d43a 44a1 953c 5987 a43b
00000010: 5754 3f3c 0f9b e03b 4a01 0d3c 671b a2ba
00000020: b299 053b f48a 83bb 8fce 41bb dda9 2938
00000030: 7fc1 52bb 8ad5 99bb 5075 28bb 6d0c 533c
0.017719654 0.0016219146 0.018265374 0.0050210175 0.011677823 0.006854422 0.008606264 -0.0012367786
0.00203858 -0.0040143672 -0.0029572581 4.0450937e-05 -0.003215879 -0.0046946453 -0.002570469 0.0128813805

network.0.norm.weight f4 [16]
00000000: dbf7 b53f cda7 b03f 33d4 a93f fa6c 9e3f
00000010: 13e7 b33f c155 ca3f d9a7 9d3f 5222 823f
00000020: 03bc 613f d15c 983f 3026 293f 68ab 933f
00000030: 1099 553f af9c 3c3f 7460 7b3f 468d 5b3f
1.4216264 1.3801209 1.3267883 1.2377007 1.4054893 1.580742 1.2316848 1.0166724
0.8817751 1.1903325 0.66073895 1.1536684 0.8343668 0.7367658 0.9819405 0.8576244

network.0.norm.bias f4 [16]
00000000: 6174 90bd d258 873d b21a 153d a317 863e
00000010: aae2 d9bd e3cd ffbe 3178 983d 1f82 bf3d
00000020: 55aa 173f 25f8 25be 2a11 ed3e 87f3 d9bd
00000030: 1a68 1b3f 19c9 053f 12c0 e23e 2add d83e
-0.070534475 0.06608738 0.03640241 0.26189908 -0.10638936 -0.49961767 0.074448 0.093509905
0.5924428 -0.16207941 0.46302158 -0.10642152 0.6070572 0.52259976 0.44287163 0.42356235

network.0.norm.running_mean f4 [16]
00000000: 28aa f5ba 613f 7bbc 8fde 56bc f3e5 073b
00000010: 70f5 1b3c 9e7c 38bb 05a3 9abc 9fcf 9b3c
00000020: 56b4 06bb a169 023c 8760 c1bb 5733 6abc
00000030: 4fc5 073d 340f 103d 134a 12bc 3a4d ab3c
-0.0018742727 -0.015334935 -0.013114586 0.0020736426 0.009518966 -0.002815045 -0.018876562 0.0190199
-0.0020554266 0.007959754 -0.0059013995 -0.014294467 0.033147153 0.03517075 -0.0089287935 0.020910848

network.0.norm.running_var f4 [16]
00000000: 99cf f33e 3d84 343f 2d1c 773f 2c0f 953f
00000010: 92e3 7f3f 4749 9a3f 025c 483f e5b3 293f
00000020: 5cbd 203f d5ea 333f 3b56 1c3f 270c 8a3f
00000030: 0725 743f 52a7 5e3f b648 733f 34a3 653f
0.47619322 0.7051428 0.9652737 1.1645255 0.9995662 1.2053612 0.7826539 0.6629012
0.6278894 0.702802 0.6106908 1.0784959 0.95369 0.8697406 0.95032823 0.89702153

network.1.conv.weight f4 [16, 16, 5]
00000000: 954b 3581 8051 343e 138f 12bc efbc cb3e
00000010: 4202 1f3e c6ae 3201 9058 893d 241e dc3d
00000020: cdc4 693e 2b0c 40be 5f37 3381 44ba 313e
00000030: 7953 443e 27f4 63bd 0b10 74bd c4cb 3281
00000040: 9bc2 763e 4502 5b3d bc34 b13d de4c e2bd
00000050: 3253 3601 bb3c e83d 8617 fc3d e917 2b3e
00000060: cdc1 b7be 8bba 3381 79b7 ca3e de32 413e
00000070: b111 63bc b70d 9cbe c32c 3781 cdd4 7e3e
00000080: edf7 a33e c886 cd3d bd49 65be 8c19 3481
00000090: 4421 d0bd 70b6 883e eee9 8c3d 05b0 7a3e
000000a0: 2655 3581 f3de 7dbd a7cb 1a3e 1445 0e3e
000000b0: de02 1ebd 50be 3501 3e0c 673e c9ad 3ebc
000000c0: ce27 3c3d d6cc 5a3e 3a80 3481 a50e 2d3e
000000d0: 6a98 cb3d 8caa 023e 5e41 ae3c 2e82 3481
000000e0: c02c 5c3e 4f4b c43d b1d1 3cbd 2153 533e
000000f0: ce6c 3701 41e5 dabc f31a a93d 7e8a 5b3e
00000100: da89 2b3e 1ef5 3781 cc2f a73d 5dd7 263d
00000110: 92cd 923d 936b 093e 7b3f 3581 ee00 f33d
00000120: 34fe e03d 93b6 a2bd fdb4 50bd 74db 3381
00000130: f86f 633e 21c1 803e 5956 5e3c cee0 8dbd
00000140: 91ca 3601 7be3 5a3e b075 e33d feef d53e
00000150: 0b72 1bbc a132 3301 6c9f f63d 4628 363e
00000160: 6df8 773e 3158 23be b3fe 3381 a0d6 873d
00000170: 30ec 383e 2699 133d 2a27 08bd 95ab 3481
00000180: 46f7 453e c2a6 873d 7579 673c 081e 4bbb
00000190: 685a 3681 6555 d93d c185 af3d 976b 6c3d
000001a0: 607f 93be f950 3481 fb99 a53e d8e1 e73b
000001b0: 18ae 8fbc 7a57 afbe d848 3401 69bb 803e
000001c0: 5e75 8c3e fbdd 223d 2860 08be 62cf 3501
000001d0: bab3 37bd 5873 2a3e 8951 4a3d 8e4e e83d
000001e0: 2738 3301 672c 523e 7a62 133c 15f8 c23d
000001f0: 9907 c73c db4e 3681 af1b ae3e a835 193e
00000200: 6824 9d3d 9b00 c63d c72b 3581 9809 823d
00000210: 974b 253e 052c 5c3d 78f5 b03d 3ee6 3201
00000220: 2e44 9a3e 04c2 013e d9ef 9bbd 9a80 993d
00000230: 3fe5 3201 f0ce 8c3d 5500 383e 4b73 a73d
00000240: f6f8 a93d 7227 3681 3e02 3b3e 4678 ea3d
00000250: ba6f 6e3d fe82 103e c4dd 3301 b6d9 673e
00000260: 4993 d83d 0168 043d 399b 17be a653 3401
00000270: 3ead 043e a60e 263e 76f7 3e3d beb8 9abd
00000280: 53c7 3481 2fd4 d5be c3ca d9be e4f1 853e
00000290: 280e 71be 9b38 3501 8116 50be 6812 72be
000002a0: 57b5 4b3e 4325 60bf 1eed 3201 7af3 dfbd
000002b0: e294 67be 905a 853e 5b2e 52bf 30ca 3201
000002c0: e84a cd3d 2620 62bd f48e e8bd 4356 37bc
000002d0: d708 5f81 0cb0 f03d 5d34 9c3e 8bb5 ec3c
000002e0: fc9d bdbe 15bc 3381 1215 243e 7ad7 8cbe
000002f0: 04b4 013d cdc9 13bf efec 3501 278c 9a3e
00000300: 98c6 b23d f1de 39be d700 c3be 59a8 3681
00000310: df87 51be c0a0 27be 6e32 30bd dbd6 a23e
00000320: c471 3481 c649 a6bd 066c d6bd 8bd2 29be
00000330: 73b0 3e3c ad39 3801 c43f 153e 531b 893e
00000340: 719e 1f3e f6f9 9e3d 4cc4 3781 aa6d 39be
00000350: 5b8a 42be a6ff 123e 3012 cc3c 6b11 3301
00000360: 568e 6ebe 65e8 8dbd 6d05 62bd e8d4 9cbc
00000370: 54fe 3701 482a bdbe 2a8f 81be 6fbb 10be
00000380: 3396 743d 0d1a 3601 782a 68be 5f80 63be
00000390: 5ccd abbd 1f99 673e 741c 3301 0d61 50bd
000003a0: 76f8 b0bc 2e4a 073d ae0c 9fbe 0077 3581
000003b0: e468 843d 6ff2 0f3d f8bd a939 014e ccbd
000003c0: cc5d 3481 462f 30be 289d 2c3d 464a 773a
000003d0: 4a89 0fbe 9c8a 3581 8037 27bf c84c 80be
000003e0: 9c79 913d 2617 c8be 88ba 3381 d0a5 c1bd
000003f0: e66d 30be 07a4 43be 4df8 a93e 1da9 3381
-3.3298677e-38 0.17609215 -0.008945244 0.39792582 0.15528205 3.281883e-38 0.06706345 0.10747936
0.2282898 -0.18754642 -3.2916834e-38 0.17356211 0.19172467 -0.055652764 -0.059585612 -3.283963e-38
0.24097674 0.05346896 0.086526364 -0.110498175 3.348781e-38 0.113397084 0.12309174 0.1670834
-0.35890046 -3.3010946e-38 0.39593104 0.1886706 -0.013859198 -0.30479214 -3.3643907e-38 0.24885865
0.3202509 0.10035473 -0.2239141 -3.3079108e-38 -0.10162595 0.2670169 0.06880556 0.24481209
-3.330554e-38 -0.0619802 0.1511675 0.13893539 -0.038576953 3.3380992e-38 0.22563264 -0.011638113
0.0459364 0.21367201 -3.3152777e-38 0.16900118 0.0994118 0.12760371 0.021271404 -3.3154178e-38
0.21501446 0.095846765 -0.046098415 0.2063718 3.3689855e-38 -0.026720645 0.08257093 0.2143955
0.16751805 -3.3787655e-38 0.081634134 0.04073273 0.07168116 0.13419943 -3.3289995e-38 0.11865412
0.109859854 -0.079449795 -0.050953854 -3.3034558e-38 0.22210681 0.25147346 0.013570392 -0.06927644
3.3573455e-38 0.2137584 0.111064315 0.41784662 -0.009487639 3.2913432e-38 0.12042126 0.177888
0.2421586 -0.15951611 -3.3059845e-38 0.06632733 0.18058848 0.036034726 -0.033240475 -3.3183883e-38
0.19332609 0.066236034 0.014128079 -0.0030993242 -3.3492984e-38 0.10611991 0.085704334 0.057719793
-0.28808117 -3.3118874e-38 0.3234404 0.007076483 -0.017539069 -0.34246427 3.3113041e-38 0.25142983
0.27433294 0.03976248 -0.1331793 3.339324e-38 -0.044849135 0.16645563 0.049394164 0.11343108
3.2917395e-38 0.2052475 0.008995647 0.09519974 0.024295615 -3.3484697e-38 0.34005496 0.14961874
0.076729596 0.09668084 -3.3275858e-38 0.06349486 0.16142116 0.053752918 0.086405694 3.2858627e-38
0.30130142 0.12671667 -0.07614107 0.07495232 3.2857913e-38 0.06875408 0.17968877 0.08176287
0.08299439 -3.345642e-38 0.18262574 0.114487216 0.05821202 0.1411247 3.3036217e-38 0.22641644
0.105749674 0.03232575 -0.14805306 3.3120793e-38 0.12956712 0.16216525 0.046622716 -0.07554768
-3.3203787e-38 -0.41763446 -0.42537507 0.2616111 -0.23540556 3.3285062e-38 -0.20321085 -0.23639834
0.19893394 -0.87556857 3.286356e-38 -0.10935111 -0.22615388 0.26045656 -0.8210198 3.28385e-38
0.10024053 -0.05520644 -0.11355391 -0.01119 -4.0964974e-38 0.11752328 0.305087 0.02889516
-0.37034595 -3.301205e-38 0.16023663 -0.27508146 0.031665817 -0.577298 3.341444e-38 0.30185053
0.08729285 -0.18151452 -0.38086578 -3.3548904e-38 -0.20461987 -0.16369915 -0.043016843 0.31804547
-3.3142401e-38 -0.0811954 -0.104698226 -0.16584222 0.011638748 3.3836843e-38 0.14575106 0.2677866
0.15587784 0.0776252 -3.3752628e-38 -0.1810824 -0.18998091 0.14355335 0.024911016 3.2889604e-38
-0.23296484 -0.06929091 -0.055180956 -0.01914449 3.3794263e-38 -0.3694632 -0.25304538 -0.14134
0.059713554 3.344681e-38 -0.2267245 -0.22216938 -0.083887786 0.22617005 3.2897522e-38 -0.050873805
-0.02160285 0.033029728 -0.3106436 -3.3329828e-38 0.06465319 0.035143312 0.0003237573 -0.099758156
-3.3128075e-38 -0.17205533 0.042142063 0.000943337 -0.14017215 -3.3343897e-38 -0.6531906 -0.2505858
0.07103273 -0.3908016 -3.3010937e-38 -0.09455454 -0.17229423 -0.1910554 0.3319725 -3.299844e-38

network.1.conv.bias f4 [16]
00000000: d55a 97ba 84fc 20ba 0b4e da3b f006 8c3b
00000010: a7db 57ba 1898 dd3b 4e2c 213b cfa5 fab8
00000020: 5c31 22bb 8986 c1bb 707e 183b bae2 cb3a
00000030: 8d94 ce3a 2df5 abb9 ab9e 973b 9202 1ebb
-0.0011547456 -0.00061411434 0.0066621355 0.004273288 -0.000823433 0.0067625158 0.0024593058 -0.00011951813
-0.0024748659 -0.0059059304 0.0023268722 0.0015555241 0.0015760824 -0.00032798332 0.004627069 -0.0024110419

network.1.norm.weight f4 [16]
00000000: 4d14 243f a57c 363f 9039 843f 45af ac3e
00000010: dcab 163f 10dc fd3e 4c81 ab3e 130c 233f
00000020: b389 423f 94d9 2e3f 14c1 063f b44c de3e
00000030: aa3a da3e 60e5 d63e 97c5 b43f aa44 203f
0.64093477 0.7128394 1.0330067 0.3372747 0.58855987 0.49581957 0.33497083 0.636903
0.7599136 0.6830075 0.52638364 0.43417895 0.42622882 0.41971874 1.41228 0.62604773

network.1.norm.bias f4 [16]
00000000: 18d9 873f d25c 603f 8d6d 9c3f 4a11 cabe
00000010: 5bc5 983f 07f9 27bf 2855 83be 0a98 15bf
00000020: c6ad 5b3f ba1b 833f 3789 a33f f441 ffbe
00000030: 0c99 fabe c1eb c0be 8718 f73e 9105 953f
1.0613127 0.8764163 1.2220932 -0.39466316 1.1935228 -0.6561436 -0.25650907 -0.5843512
0.8581203 1.0242836 1.277625 -0.49855006 -0.4894489 -0.37679866 0.482609 1.1642324

network.1.norm.running_mean f4 [16]
00000000: 1679 303f 91ae 103f 9909 c8bf bdbf 9dbf
00000010: c617 1b3f 6d95 a6bf 26aa dcbf 6894 0ac0
00000020: 94ee 473f fcec 9d3e 87bf 303f edeb 1dc0
00000030: 4b6b dbbf 9725 f3bf eb3a 07c0 b2c2 603f
0.6893476 0.5651637 -1.5627929 -1.2324139 0.6058315 -1.3014351 -1.7239425 -2.165308
0.78098416 0.30844867 0.6904225 -2.4675248 -1.7142118 -1.8995847 -2.112971 0.8779708

network.1.norm.running_var f4 [16]
00000000: 2e61 ee3f 584b 9e3f 4170 8740 e58c e43f
00000010: 9a9a 1240 6193 7440 e69a 5140 ffdb 9740
00000020: c0dd 973f b804 da3f 5a60 2240 d99c a440
00000030: 103b 5d40 0b9a 4e40 681b 7e40 e5ac 0d40
1.8623407 1.2366743 4.232453 1.7855498 2.2906861 3.8214953 3.2750793 4.745605
1.1864548 1.703269 2.5371308 5.1441464 3.45673 3.228152 3.9704227 2.2136776

output_layer.weight f4 [1, 16]
00000000: 647e e23d f386 f63d 3956 6d3e 91fe b1bf
00000010: 8e2c f23d b736 f2bf 3ccd cdbf 1407 f3bf
00000020: 5d68 043e 292a 193e 6b10 fe3d 5a62 e0bf
00000030: c21d d4bf 00b8 b6bf 670c b33e 7e7b f33d
0.11059263 0.12037458 0.23177423 -1.3905813 0.118249044 -1.8922948 -1.6078258 -1.8986535
0.12930436 0.14957489 0.12405475 -1.7530015 -1.6571581 -1.4274902 0.349704 0.11888789
