saved_tcn_models_cv/inference_tcn_period_20pct_pca_True.pth (torch, 26565 bytes, 19 tensors)

network.0.conv.weight f4 [16, 6, 5]
000000 53 cf fe 2b d4 63 4a a9 f8 4d 16 ab 4e cf cc 2b
       1.810533e-12 -4.4939597e-14 -5.339891e-13 1.455261e-12
000010 20 d3 49 be b0 2e 90 2a 18 2a 66 2a e4 04 cc 2b
       -0.19709444 2.5611934e-13 2.0442708e-13 1.4496429e-12
000020 27 1d b4 ab 37 2f 55 3d d0 46 0c 2b f0 66 c8 aa
       -1.2797861e-12 0.05204698 4.9836264e-13 -3.5598564e-13
000030 e0 bf cf 2a b8 72 82 ab 55 fd 1f 3d f3 35 fc 2b
       3.6903727e-13 -9.268896e-13 0.039059956 1.7920651e-12
000040 e9 8d d0 ab a5 9b 7e 29 b7 55 ef 2b 6a ed ce bd
       -1.4818677e-12 5.653433e-14 1.7005762e-12 -0.10103877
000050 23 62 23 29 d8 c4 c9 aa b6 2b 4c 2b 8f 0f b8 ab
       3.627839e-14 -3.584136e-13 7.253602e-13 -1.3078305e-12
000060 1e 44 56 be e5 a1 0c ac 21 b5 08 aa b3 74 b1 a9
       -0.20924422 -1.9985066e-12 -1.2142068e-13 -7.880623e-14
000070 88 1b 0f ac 1c fa 7c be 8c bd 83 ab 83 d6 6f 2b
       -2.0336805e-12 -0.24704784 -9.36072e-13 8.520755e-13
000080 f6 0c 9d ab a0 77 94 aa 5d cc 41 be 8a a9 5b aa
       -1.1159118e-12 -2.6373088e-13 -0.18925615 -1.9509928e-13
000090 e3 22 41 2b 63 6f b0 2b d7 25 1c ab e3 cf de bd
       6.861579e-13 1.2536468e-12 -5.5474847e-13 -0.10879495
0000a0 11 b1 07 2c 93 ce 12 ab 8f dd b7 aa bd 24 c4 2b
       1.9282945e-12 -5.21563e-13 -3.2661067e-13 1.3936835e-12
0000b0 c5 c1 39 3e 9f 48 d7 28 09 c3 54 2b b6 43 31 ab
       0.18140323 2.390129e-14 7.5588196e-13 -6.2977e-13
0000c0 ae c8 37 2b b7 92 e4 3d bd ab f0 2b 74 29 5d aa
       6.529316e-13 0.11160796 1.7100693e-12 -1.9643125e-13
0000d0 0f d7 75 2a ee d6 00 2c 6c a5 46 be 4d 20 0b 2b
       2.1834985e-13 1.8309204e-12 -0.19399041 4.9427546e-13
0000e0 ea 4f 9d 2b 82 78 73 aa b6 51 2b a9 e4 a2 a1 be
       1.1177702e-12 -2.1624545e-13 -3.80405e-14 -0.31569588
0000f0 85 45 b9 ab 21 eb c4 ab db 36 bf 2b 32 50 6c 2a
       -1.3164336e-12 -1.3991899e-12 1.3586592e-12 2.0988834e-13
000100 0f e1 1c be 68 2e 88 aa 80 a7 1b 2b fb 13 36 aa
       -0.15320228 -2.4190654e-13 5.5299515e-13 -1.617178e-13
000110 47 1a 51 ab 68 ed 1d 3e cb 86 2c ac 40 cf ec aa
       -7.4288183e-13 0.15422595 -2.4517495e-12 -4.206583e-13
000120 ac 7c 86 29 6c 5b a7 ab 9e 05 6e be b0 27 07 2b
       5.9724225e-14 -1.1891438e-12 -0.2324433 4.801671e-13
000130 08 9d 53 a9 90 86 e1 2b a8 d4 d6 2a 47 9d 1c be
       -4.6987615e-14 1.602456e-12 3.8161596e-13 -0.15294372
000140 41 b5 13 2c 44 85 01 aa 29 7f 13 ac 05 f7 d8 a7
       2.0990573e-12 -1.1503737e-13 -2.0960544e-12 -6.0219862e-15
000150 49 2b d5 bd f9 5e 20 ac 76 68 21 2a 85 80 a7 2b
       -0.104086466 -2.2790088e-12 1.4335915e-13 1.1901735e-12
000160 c0 31 93 aa 9c f6 24 3e f7 11 16 2c 59 2b 1e 2c
       -2.6146967e-13 0.16109699 2.1326255e-12 2.2477213e-12
000170 b1 31 4a aa 3a fa 27 ab f9 e8 bc 3d 3c 63 3f 2b
       -1.7958444e-13 -5.967758e-13 0.092241235 6.7994547e-13
000180 d6 de 09 ac ad 62 e4 2b c3 f5 df a9 30 7e 1e 3c
       -1.959257e-12 1.6227762e-12 -9.945822e-14 0.00967364
000190 24 6c b4 a8 a3 f4 12 ab d5 49 44 a9 13 25 c3 a9
       -2.0030913e-14 -5.220912e-13 -4.358478e-14 -8.666171e-14
0001a0 8d 75 ad 3e 67 5d af 28 ad 71 8f 2b fb 0d ca ab
       0.33878747 1.946941e-14 1.0192312e-12 -1.4356844e-12
0001b0 e4 41 1f 2b ac 10 90 be 30 f1 aa ab cd de 17 ac
       5.657959e-13 -0.2813772 -1.214617e-12 -2.158207e-12
0001c0 63 f2 50 29 ed 8e 35 29 77 54 07 3e b5 09 21 2a
       4.6395515e-14 4.0314042e-14 0.13215815 1.430304e-13
0001d0 7f 1b be aa 6a 74 6a 2a d6 a0 65 2a 14 55 89 bd
       -3.376986e-13 2.0823764e-13 2.0395087e-13 -0.067056805
0001e0 e6 87 d4 ab f2 8c 7f 28 3c 1c 9d ab cb 05 b8 2a
       -1.5101225e-12 1.4185906e-14 -1.1163358e-12 3.2688986e-13
0001f0 f3 37 5b 3e 5a 41 4e a9 45 89 22 2b 29 a1 bf aa
       0.21408062 -4.5797872e-14 5.774446e-13 -3.4040243e-13
000200 46 c6 8b 2b ab e2 2a be 98 bf e9 2b 5c 1b d5 28
       9.931576e-13 -0.1668803 1.6608824e-12 2.3659616e-14
000210 9b b5 a0 2b a1 13 f9 28 45 c5 ab 3d 3f f8 c8 2b
       1.1419089e-12 2.7653066e-14 0.083872356 1.4279757e-12
000220 59 87 2c aa 29 ba 80 2b 5d fa 22 2b 9c 22 6b bd
       -1.5323627e-13 9.146617e-13 5.790141e-13 -0.057406053
000230 64 2c fa ab fd 48 1a 2c cf e3 27 ab 36 e8 aa 2b
       -1.7775889e-12 2.1925233e-12 -5.9646466e-13 1.2143678e-12
000240 f7 5b 81 3e 3f 1a 1c a9 ae 0e a1 ab e2 75 b3 aa
       0.25265476 -3.4661723e-14 -1.1443812e-12 -3.1878585e-13
000250 61 4a 7f ab 7b 80 64 bd 9a e6 0b 2c 22 ca 28 2b
       -9.069742e-13 -0.05578659 1.9881098e-12 5.9966105e-13
000260 f1 8d ae 2b f7 9a 01 ac 03 d0 c9 bd da 1a 92 aa
       1.240284e-12 -1.8418025e-12 -0.09854128 -2.5953442e-13
000270 43 19 fd 2a fc 41 1c ac 47 b1 da 29 0b f9 7d 3d
       4.4959357e-13 -2.2205562e-12 9.7118975e-14 0.062005084
000280 8f 89 39 aa af e8 4f 2b 61 71 26 2c dc 7e 42 aa
       -1.6479026e-13 7.3864087e-13 2.3652957e-12 -1.7274675e-13
000290 fb 39 8b 3d 23 79 68 ab 2d 86 89 2b 16 11 93 2b
       0.06798168 -8.259107e-13 9.771677e-13 1.044972e-12
0002a0 ab e8 03 2a 14 71 18 3e 78 d0 93 aa 13 ef 27 2a
       1.171586e-13 0.14886886 -2.62571e-13 1.4915525e-13
0002b0 d5 99 80 2b bb 57 f2 2a 08 46 71 3e aa e6 99 aa
       9.137644e-13 4.304871e-13 0.23561871 -2.7338315e-13
0002c0 88 bc 8c aa 56 ed 53 ab 06 1f 8b 2b a7 74 21 3e
       -2.4999816e-13 -7.529163e-13 9.885155e-13 0.15767156
0002d0 d3 ca e1 ab 67 1a c5 a9 b7 4b 81 2b 7e 6d 44 a7
       -1.6043507e-12 -8.7531375e-14 9.187016e-13 -2.725982e-15
0002e0 ce 30 d7 be 34 16 be ab ca b6 ba aa 2a 85 b3 ab
       -0.42029423 -1.3506475e-12 -3.3167073e-13 -1.2755675e-12
0002f0 f2 65 9c 2a 50 cc 21 3e c8 20 b2 2a 47 98 fb 2a
       2.7781905e-13 0.15800595 3.1641898e-13 4.469222e-13
000300 de 86 9d 2b 7e 9c 0c 2c 0e 63 db bd a1 fd 0a 2b
       1.1192954e-12 1.9982067e-12 -0.107122526 4.937943e-13
000310 52 62 2e aa b6 ff c2 2a 5b 24 35 2b 0f 70 b1 3d
       -1.5488416e-13 3.4638758e-13 6.435457e-13 0.086639516
000320 f9 38 e8 2a 3b b6 40 2b 4d e7 28 2c 48 52 e0 aa
       4.1251011e-13 6.8465e-13 2.4002634e-12 -3.9847487e-13
000330 1e af 83 3d 02 02 ab 2a 34 39 6c ab 59 d1 0b ab
       0.06429885 3.0377095e-13 -8.392343e-13 -4.967325e-13
000340 dc 8a b4 ab 5a 07 fd 3d dd f5 e6 aa b1 ba 9e ab
       -1.282831e-12 0.12354918 -4.102681e-13 -1.1278392e-12
000350 8b 6e cc ab eb 44 d6 29 1f 9f b7 3d 69 dd 7a aa
       -1.4525754e-12 9.5154645e-14 0.08965897 -2.2281278e-13
000360 92 86 25 ac 18 94 26 ac a7 09 1e 29 4d 41 81 3d
       -2.3522612e-12 -2.3672227e-12 3.509142e-14 0.06311283
000370 e2 c6 1f ab bd 68 8f ab 22 ee 73 a9 1d 8a 25 a9
       -5.6764153e-13 -1.0189832e-12 -5.4163386e-14 -3.6757154e-14
000380 f5 1f 29 3e a9 e6 4b 29 f9 c5 55 29 1a c7 ef 2b
       0.16516097 4.527512e-14 4.7467215e-14 1.7037233e-12
000390 1f 11 ba 2a ea 85 b3 3d 3e a6 78 2b 6f 70 d2 a9
       3.3052117e-13 0.087657765 8.8338007e-13 -9.3453775e-14
0003a0 d3 61 48 2a 1b 51 06 2a 60 01 b0 be c4 73 c3 a9
       1.7797508e-13 1.192973e-13 -0.3437605 -8.679822e-14
0003b0 97 2f 9e 29 95 f1 a1 a9 f1 25 37 aa 46 49 41 be
       7.024865e-14 -7.191744e-14 -1.6266829e-13 -0.18875608
0003c0 90 e6 d2 2a 29 eb cf 2b 54 5c ec aa 63 b3 35 2b
       3.7463478e-13 1.4773505e-12 -4.1986087e-13 6.4553067e-13
0003d0 d1 1f 31 be 09 60 68 ab b8 37 e5 ab 37 48 01 ab
       -0.17297293 -8.2556233e-13 -1.6286894e-12 -4.5930225e-13
0003e0 1a 7d 1e 2c b8 bc 70 be f6 13 9f 2a f1 b8 53 aa
       2.2522596e-12 -0.2350949 2.8257924e-13 -1.8804729e-13
0003f0 dc 4b 1b 29 fe cb 00 ac 61 d8 26 be d3 67 fe 29
       3.448271e-14 -1.8303132e-12 -0.1629348 1.12978766e-13

network.0.conv.bias f4 [16]
000000 b1 5b bd ba f1 58 f7 3a 4c 9f 25 b9 9e 72 28 b9
       -0.0014446882 0.0018871111 -0.00015794969 -0.00016064427
000010 1c 1d 00 ba d5 74 83 b9 5a 85 80 39 b4 fb 23 3b
       -0.000488715 -0.00025073314 0.00024513417 0.0025021853
000020 c7 f0 fc 3a 27 6c 8f b8 a6 29 32 39 9d 25 6e b5
       0.0019297831 -6.838916e-05 0.00016990918 -8.8716644e-07
000030 78 81 6f b9 21 83 87 39 dd dc c2 37 d0 32 19 3a
       -0.00022841047 0.00025846905 2.322945e-05 0.00058440585

network.0.norm.weight f4 [16]
000000 e9 b7 80 3f 96 d9 94 3f ac 18 8f 3f b1 ff 4e 3f
       1.0056125 1.1628902 1.1179404 0.80858904
000010 7a 44 8c 3f 69 19 4b 3f 66 c7 87 3f 33 ab 93 3f
       1.0958397 0.7933565 1.0607727 1.1536621
000020 01 94 91 3f bc c4 38 3f 02 19 71 3f aa df 5a 3f
       1.1373292 0.7217519 0.94178784 0.85497534
000030 e2 82 8a 3f 56 f6 63 3f 0a 3f 6b 3f 95 5f 89 3f
       1.0821192 0.89047754 0.91893065 1.0732294

network.0.norm.bias f4 [16]
000000 ee 81 29 be cf 8c 05 bd 6a 79 93 3d dd 87 04 3e
       -0.1655347 -0.03260499 0.07200892 0.12942453
000010 c9 d6 b0 3d eb 98 4e be c1 67 28 3d dd 26 44 3e
       0.08634717 -0.20175521 0.041114572 0.1915545
000020 52 2c 41 be 49 83 4f bd 57 62 68 be 9e 27 b6 3d
       -0.18864563 -0.050662313 -0.22693764 0.08894275
000030 e9 b8 62 3e f6 3b cd 3d 2c 82 0a 3c 98 89 2b 3e
       0.2214085 0.10021202 0.008453887 0.16751707

network.0.norm.running_mean f4 [16]
000000 e4 78 95 b9 25 93 77 3b c6 32 6d bb 6e 2d 69 3b
       -0.00028509565 0.0037776914 -0.0036193593 0.0035580057
000010 e7 14 be 39 db fd eb 3a 78 b6 55 b9 1d f1 20 3b
       0.00036255197 0.0018004732 -0.00020381238 0.0024557777
000020 cb ff b8 b8 06 0c 42 3b 95 11 8b 3a 4c 88 cc bb
       -8.821449e-05 0.0029609217 0.0010610098 -0.006241834
000030 57 5c 34 3b 02 75 82 3a e6 e7 07 3b ca 34 0f 3b
       0.002752086 0.0009953084 0.0020737587 0.0021851533

network.0.norm.running_var f4 [16]
000000 60 55 27 3e a9 e6 64 3e 31 c8 3a 3e 9c ad 5d 3e
       0.16341162 0.22353615 0.1824043 0.21648258
000010 29 17 4a 3e bd 13 cd 3d 20 ee 03 3f e2 8b 1a 3e
       0.19735397 0.100135304 0.51535225 0.15092424
000020 3e 02 92 3e 6f c3 14 3e 1a 5b 41 3e 84 fc 63 3e
       0.28517336 0.14527677 0.18882409 0.22264296
000030 b7 e6 12 3e 67 b9 a7 3d 83 ef e8 3d 66 2f 3e 3e
       0.14345823 0.081896596 0.11373808 0.18572769

network.1.conv.weight f4 [16, 16, 5]
000000 3a 55 18 2b e7 bc 94 ab a9 09 27 ab e8 79 98 2b
       5.4119524e-13 -1.0568463e-12 -5.9343725e-13 1.0834085e-12
000010 11 4a 27 3d ba f3 f8 aa 2f e8 ee aa e0 dc 62 2a
       0.04084212 -4.422277e-13 -4.2438403e-13 2.0149464e-13
000020 be 89 2a ab 1d 6c 1d 3e f2 7d 13 2b c9 b1 44 2a
       -6.058729e-13 0.15373273 5.2399675e-13 1.7469979e-13
000030 ae 26 16 2b ae 32 03 28 8b dc 23 bd e8 dd 87 2b
       5.3344384e-13 7.28295e-15 -0.040005248 9.653918e-13
000040 24 a7 6d aa b1 1d 88 29 1c 77 50 2b 24 53 0c be
       -2.1107817e-13 6.044764e-14 7.406174e-13 -0.1370359
000050 67 59 81 ab fc 1b a9 2a 84 aa 82 ab f8 c5 90 aa
       -9.190815e-13 3.003985e-13 -9.284383e-13 -2.5716907e-13
000060 b7 ed 87 3d 31 f6 bb 29 10 b3 87 ab b8 49 93 aa
       0.066371374 8.3471756e-14 -9.642027e-13 -2.6163598e-13
000070 a0 28 58 29 a8 d3 b8 3d a0 6a 1b aa ae 0c 64 ab
       4.799687e-14 0.09024745 -1.3803758e-13 -8.101947e-13
000080 aa a8 63 2a c5 2b 0f 2a ee 7d 15 3e ba 36 16 29
       2.0220167e-13 1.2716137e-13 0.1459882 3.335416e-14
000090 62 a5 80 aa 8d 3e a4 2b 35 93 27 a8 72 ce 79 be
       -2.2852125e-13 1.1670262e-12 -9.302283e-15 -0.24395159
0000a0 52 66 9c aa df 80 24 ab 25 16 ba 2a 2e 1d 46 aa
       -2.7782166e-13 -5.844335e-13 3.3055603e-13 -1.7596056e-13
0000b0 e4 fd 9c 3e 77 f9 50 a9 2f d4 1b 2b 29 fd 38 2b
       0.30662453 -4.6401654e-14 5.5361526e-13 6.572126e-13
0000c0 e3 f0 9a a8 02 d3 ea bd 4f a4 8d aa c8 12 9d 2a
       -1.7201903e-14 -0.11466028 -2.5160643e-13 2.7901834e-13
0000d0 87 87 0e aa 05 b0 1e 2a e0 52 87 3a cc bc 69 ab
       -1.2659154e-13 1.4094288e-13 0.0010324381 -8.3040237e-13
0000e0 fe 9f 87 2a 2c b6 b0 a9 35 a2 23 ab 05 0f 4a be
       2.4091834e-13 -7.847572e-14 -5.813434e-13 -0.19732292
0000f0 4e bd 4c 2b 8c 5c b2 2b e8 7e aa aa 40 a0 57 aa
       7.273807e-13 1.2673348e-12 -3.0286125e-13 -1.9151434e-13
000100 e8 5f a4 3d 37 af fb aa ac 3c 35 2b 6b fd de aa
       0.08026105 -4.4708136e-13 6.4388317e-13 -3.9610966e-13
000110 51 b9 93 2b 9f ad 11 be 09 ab 89 29 8f d8 41 aa
       1.0496414e-12 -0.14226387 6.113692e-14 -1.7216977e-13
000120 82 e7 0b aa 8c 38 26 2a 61 89 90 3d 9c 70 45 2b
       -1.2426e-13 1.476338e-13 0.07057453 7.0144736e-13
000130 1e 6d e4 a9 b6 37 4e 29 18 e0 9f aa 3d 54 f1 3d
       -1.0144163e-13 4.578951e-14 -2.839957e-13 0.11783645
000140 cc ac 04 ab 1c 3d 40 2b e9 ed 5d 2b dd ad 85 aa
       -4.7135624e-13 6.829691e-13 7.884514e-13 -2.3746188e-13
000150 81 0c d3 3d 1b a8 43 ab 8d cd 0a 2a 26 a3 27 2a
       0.10305119 -6.951121e-13 1.2328177e-13 1.4889183e-13
000160 4d 9a ca a9 9d a9 b1 bd 7a 9e 96 2a 62 08 d6 aa
       -8.997369e-14 -0.08674929 2.6755318e-13 -3.8019853e-13
000170 bc 2b e4 2a c7 25 8d 2b f5 9e da 3d 27 d8 66 aa
       4.0531283e-13 1.0029138e-12 0.1067485 -2.0503097e-13
000180 c5 d3 10 2a 8b ce 93 ab d3 a7 a0 aa dc 4b 1d 3c
       1.2863242e-13 -1.0502305e-12 -2.853816e-13 0.009600606
000190 66 37 2f ab 8b 8f 10 2b ae ad a6 2a 5c ec f9 a9
       -6.224937e-13 5.1358283e-13 2.9608038e-13 -1.1098823e-13
0001a0 b5 05 a6 bb 06 e5 43 ab 10 e8 94 2b 09 f6 46 2a
       -0.0050665983 -6.959575e-13 1.0580443e-12 1.7671293e-13
0001b0 7f 6e 61 ab e2 e3 45 be 14 f5 a4 28 5b 6f a5 ab
       -8.00894e-13 -0.19325212 1.8313943e-14 -1.1754862e-12
0001c0 be 1d 89 a9 22 5b 1a 2b 0b 88 2c be d7 00 1b 2b
       -6.0891816e-14 5.4838263e-13 -0.16848771 5.506823e-13
0001d0 36 dc 34 29 3c 30 d5 2a 72 89 bd 2a 8a 92 1b 3d
       4.015903e-14 3.786987e-13 3.3668516e-13 0.037981547
0001e0 5a d0 21 2b d1 5c 9c 2a c1 72 37 ab 3e ea 94 2a
       5.7487836e-13 2.777557e-13 -6.5173913e-13 2.645262e-13
0001f0 8b 31 94 be 7d 53 20 2a 10 57 7d aa 9e d2 45 29
       -0.28944048 1.423982e-13 -2.250112e-13 4.392547e-14
000200 da ed 11 ab e5 c5 5c 3c de df 0a 2b 2e d5 fd aa
       -5.1844434e-13 0.013474916 4.9338127e-13 -4.508975e-13
000210 82 58 11 ab c1 a0 98 a9 eb bf 33 be ed ec d1 2a
       -5.163718e-13 -6.7780423e-14 -0.1755368 3.7290258e-13
000220 b1 bb a1 a9 9f 7f 35 2a 31 36 36 2b 67 b4 3c 3b
       -7.1823955e-14 1.6120307e-13 6.4734595e-13 0.0028794052
000230 88 4e 3d 2b e2 10 a2 2b 9e ee 07 2a 7d 30 8d aa
       6.725527e-13 1.1515478e-12 1.2073196e-13 -2.5080277e-13
000240 ae bb bf 3d 7a 48 da aa 8c 90 83 aa 93 bd 61 ab
       0.09361969 -3.877487e-13 -2.3370574e-13 -8.0199145e-13
000250 93 0f a5 2b 88 3f 82 3d d1 55 d9 29 c7 a5 cc 28
       1.1728278e-12 0.06359774 9.6516226e-14 2.2720444e-14
000260 b7 33 ba 2a 20 7f 8a aa 8b 9f b2 be 28 60 41 ab
       3.3076122e-13 -2.4601935e-13 -0.34887347 -6.870082e-13
000270 d1 77 7e ab 49 0a aa aa 41 60 54 2b 4e fa 87 bd
       -9.0405206e-13 -3.0205203e-13 7.545111e-13 -0.06639539
000280 7f 32 8d 28 8d ba 18 2a 57 f1 e8 aa db c8 35 2b
       1.5676044e-14 1.3565035e-13 -4.1378942e-13 6.458286e-13
000290 87 26 e2 bd 10 d5 7c aa b1 f1 eb a9 29 6b 76 aa
       -0.11042505 -2.2456017e-13 -1.0478023e-13 -2.1886368e-13
0002a0 4c 00 14 2b 8e e7 bd bc 98 27 b5 aa 74 7c ed aa
       5.2580574e-13 -0.023181703 -3.2179532e-13 -4.2186014e-13
0002b0 70 77 60 29 0e af b6 aa 45 a5 6c bd f6 ea 3f 2a
       4.9841587e-14 -3.2451163e-13 -0.0577748 1.7045726e-13
0002c0 a2 71 57 aa 4d 7c b2 ab 0d 02 1b 2b 83 de 84 bc
       -1.913526e-13 -1.2682161e-12 5.506991e-13 -0.016219383
0002d0 e8 79 6b 29 10 35 63 ab bb f0 c5 a8 c3 ed 1b 28
       5.228622e-14 -8.072024e-13 -2.1975794e-14 8.655785e-15
0002e0 c4 df 85 3c 18 b5 de 29 8d b9 7d ab fc dc 25 2a
       0.016342051 9.890195e-14 -9.014116e-13 1.4731613e-13
0002f0 70 62 a8 aa 33 03 a1 bd 59 c1 2a 2b 31 5a 58 29
       -2.99111e-13 -0.07861938 6.0664456e-13 4.8039863e-14
000300 18 25 35 2b eb 07 00 2b ae c0 a7 be d8 cf 41 2b
       6.4355596e-13 4.5485723e-13 -0.3276419 6.8855815e-13
000310 cf 1f 5e a9 ed 73 e7 aa 44 10 bb 2a 3a 6b bf 3b
       -4.9321492e-14 -4.1114283e-13 3.322916e-13 0.00584164
000320 33 22 0a 2b c9 b3 31 2b fe 8a 8c a9 99 f9 d7 2a
       4.907491e-13 6.3132534e-13 -6.24136e-14 3.8364865e-13
000330 dd 37 51 be d0 57 91 2a 07 cb 47 aa 1d 37 7c 2b
       -0.20431466 2.5818106e-13 -1.774519e-13 8.960487e-13
000340 c5 de 21 ab cd 15 86 bd 84 27 8f 2b ae 9c 39 ab
       -5.7507845e-13 -0.06547127 1.0171729e-12 -6.594264e-13
000350 38 fe 85 2a 68 54 f9 2a 36 e3 cf bd 96 9f d7 a7
       2.3801946e-13 4.4289854e-13 -0.10150759 -5.984751e-15
000360 ab c3 17 ab 17 99 b1 a8 9f 8c e6 29 d9 d0 36 3d
       -5.391752e-13 -1.971734e-14 1.0238446e-13 0.044632766
000370 30 57 81 2a 32 73 78 ab b0 9f 95 28 c2 b4 af a8
       2.2975502e-13 -8.8267165e-13 1.6611576e-14 -1.9507294e-14
000380 c6 5c cb bd 0c 57 91 ab cf f0 23 2a 1a b0 d4 2a
       -0.099298045 -1.032703e-12 1.4560856e-13 3.778096e-13
000390 e5 ae 0d 2a ae 44 78 bd 19 60 06 aa 09 ea ce 2a
       1.2583994e-13 -0.060612373 -1.1934931e-13 3.6755345e-13
0003a0 16 c8 97 2b 34 fb a7 29 aa c9 36 be 1a d2 c2 a9
       1.078473e-12 7.4598666e-14 -0.17850366 -8.6517775e-14
0003b0 98 f6 7e 2b 96 ac 95 a9 c3 13 e6 29 04 a5 a0 be
       9.0581145e-13 -6.646868e-14 1.021748e-13 -0.31375897
0003c0 72 82 2c 2a 80 57 da 2a df d3 94 2b f7 8d 78 2a
       1.5321926e-13 3.8785294e-13 1.0574839e-12 2.2076079e-13
0003d0 b0 f6 50 3e 35 25 56 2b 53 01 00 2b f0 83 e9 28
       0.20406604 7.607971e-13 4.5476573e-13 2.5925415e-14
0003e0 22 0a 73 aa 47 6c 39 3e e5 d5 46 29 e1 15 26 2b
       -2.1586251e-13 0.18107711 4.4150356e-14 5.900541e-13
0003f0 a3 d3 39 2b 46 1b 5f ab 66 40 3b 3d 61 46 a2 2b
       6.601891e-13 -7.9263365e-13 0.045715712 1.1530326e-12

network.1.conv.bias f4 [16]
000000 23 54 78 b9 97 09 5b b8 ad 55 ba 39 0f f7 d0 39
       -0.00023682466 -5.22226e-05 0.00035540518 0.00039856925
000010 54 9d 53 3a 71 a0 12 3a e0 01 71 ba 2b 9b e0 b8
       0.0008072455 0.00055933656 -0.00091937 -0.000107100546
000020 2e 74 c5 39 1b 53 94 b9 fc 15 af b9 36 ab 7a 39
       0.0003766133 -0.00028290678 -0.0003339498 0.00023905639
000030 00 38 28 3a b5 66 b8 39 e1 20 25 39 96 63 4a 38
       0.0006417036 0.00035171738 0.00015747875 4.82533e-05

network.1.norm.weight f4 [16]
000000 b2 8f 71 3f c1 30 5f 3f e5 85 85 3f 43 04 45 3f
       0.94359887 0.8718377 1.0431486 0.7695963
000010 81 ad 9d 3f 22 51 82 3f 03 45 93 3f 65 53 96 3f
       1.2318574 1.018101 1.1505436 1.17442
000020 45 5d 89 3f 35 07 9c 3f aa 6b 5b 3f 70 eb 6d 3f
       1.0731589 1.21897 0.8571116 0.92937374
000030 3f c5 83 3f 91 71 6f 3f 3a e1 68 3f 5d b7 52 3f
       1.029457 0.93532664 0.9096867 0.8231104

network.1.norm.bias f4 [16]
000000 bf f0 2a be 58 bb 09 3e 66 f6 34 3e d6 3c 9c be
       -0.166934 0.13450372 0.17672119 -0.30515164
000010 58 38 22 bd aa 8f 3e bc 58 06 46 be 79 01 47 be
       -0.039604515 -0.011630932 -0.19338357 -0.19434156
000020 85 76 d0 bd 23 39 80 3e 10 ff 0d be 8b df 5f 3c
       -0.10178856 0.25043592 -0.1386683 0.013664137
000030 b3 8c d0 3e e7 9f 99 be df ae 03 be 06 7a 96 bd
       0.40732345 -0.30004808 -0.12859677 -0.07347493

network.1.norm.running_mean f4 [16]
000000 7a dd f8 3c 38 9d 91 be 95 49 23 bf a0 b3 b5 3e
       0.030379046 -0.2844026 -0.6378415 0.35488605
000010 67 8e 2d bf e3 fe 0f be d6 13 5f be 17 5e a0 be
       -0.67795414 -0.14062075 -0.2178491 -0.31321785
000020 4c 3a 25 be 1d ac 33 bf 05 d1 6a 3e dd d7 d5 be
       -0.1613552 -0.701845 0.22931297 -0.41766253
000030 ae c2 a4 be 3e b5 8a 3e 79 79 13 bf 21 18 f7 be
       -0.3217978 0.27091402 -0.5760723 -0.48260596

network.1.norm.running_var f4 [16]
000000 6f c5 3b 3e 98 51 fd 3d 60 fe ca 3d e0 ec 9a 3d
       0.18337034 0.123690784 0.099117994 0.075647116
000010 f1 0f 2d 3e ea 9c 02 3e 99 72 80 3e 5b d2 86 3e
       0.16900612 0.1275517 0.2508743 0.26332363
000020 07 dc 3a 3e d0 1f c6 3e 2d b4 08 3e 71 a6 87 3e
       0.18247996 0.38696146 0.13349982 0.26494172
000030 80 5a b5 3e 3d c1 00 3e 11 43 0b 3e 48 c3 96 3d
       0.3542061 0.12573715 0.13599803 0.07361466

network.2.conv.weight f4 [16, 16, 5]
000000 ad 77 7a a9 70 9e 3e 2b 0e 52 8c 2b ed 30 1c 29
       -5.5614953e-14 6.7721436e-13 9.970373e-13 3.4681395e-14
000010 b6 ce ec bc 80 22 ea 2a 5a 34 d6 2a c2 00 35 ab
       -0.028907161 4.159069e-13 3.8050363e-13 -6.430517e-13
000020 1e 6f 03 2b 22 03 cb bc a6 a2 9d 2b d4 94 bc 2b
       4.6694755e-13 -0.024781767 1.1200665e-12 1.3399512e-12
000030 b5 48 79 29 c2 34 be 2a 25 ea 59 3c e6 81 0e 2b
       5.535217e-14 3.3787388e-13 0.013300453 5.0628805e-13
000040 f0 01 4c 2b 1e 1d ab 28 35 1b 05 ab 3d 6a 0d be
       7.247805e-13 1.8997441e-14 -4.728885e-13 -0.13810058
000050 87 8a 21 27 17 63 f8 a9 51 91 c8 a7 2a 73 56 ab
       2.2418334e-15 -1.1030602e-13 -5.5668704e-15 -7.6187895e-13
000060 80 35 40 be 37 78 be 2b 5c c1 4d 2b 94 d3 b6 a9
       -0.18770409 1.3533678e-12 7.309897e-13 -8.1191266e-14
000070 f1 74 8f aa 50 2c e9 3d a0 5b 12 a9 35 21 a3 2a
       -2.5483047e-13 0.11385405 -3.2497984e-14 2.8977658e-13
000080 6d d3 07 2a fd 15 c8 2a a3 03 5d bd 52 4c 43 aa
       1.2063762e-13 3.5542394e-13 -0.053958546 -1.7345958e-13
000090 43 bc 8a ab 3c bb 44 ab 5c 33 56 2b 21 9f c6 be
       -9.857743e-13 -6.989303e-13 7.609935e-13 -0.3879328
0000a0 ae 7d 8e 2a 0d c4 3a ab 84 c7 a6 ab 5a c4 3f aa
       2.5311475e-13 -6.635255e-13 -1.1850386e-12 -1.7032331e-13
0000b0 c2 e8 5b be 65 e8 7d 29 db 5c 95 2b f7 f9 50 a9
       -0.21475509 5.6378855e-14 1.0612859e-12 -4.6402088e-14
0000c0 94 91 7a ab ec 6a 8f be f0 14 01 ab 4c 41 8d 2b
       -8.901987e-13 -0.28011262 -4.5859063e-13 1.0036776e-12
0000d0 6d 8b 63 2a ae 06 4f a9 38 ab 11 bd 64 16 9b aa
       2.0210023e-13 -4.5969027e-14 -0.035563678 -2.7549068e-13
0000e0 de a1 60 a8 a1 14 a1 ab 0e ef ca 2a 49 1c 22 be
       -1.2469597e-14 -1.1445464e-12 3.6048286e-13 -0.15831102
0000f0 8b a3 30 a8 72 0b 86 aa 0f 20 80 2b 76 34 9f 28
       -9.805425e-15 -2.3811123e-13 9.103845e-13 1.7675297e-14
000100 a8 03 6b 3e ae b5 b8 29 d1 9f 6f a8 bc 62 98 25
       0.22950613 8.202758e-14 -1.330182e-14 2.6434702e-16
000110 f1 8c bf aa 3c 34 cc bc 6e 25 a3 a9 aa e0 16 a9
       -3.4026213e-13 -0.024927251 -7.245147e-14 -3.3501556e-14
000120 00 94 41 2a ad 48 2e 2b 1b 72 fe bd a1 f7 af 2b
       1.7193191e-13 6.1918076e-13 -0.12424108 1.2503229e-12
000130 1f d5 8b 28 68 bd e2 29 dd 15 11 ab a2 58 88 bd
       1.5524527e-14 1.0069273e-13 -5.154469e-13 -0.0665753
000140 b3 20 a5 2a c9 89 09 2a 0d 51 5e 2b eb 32 02 28
       2.9332577e-13 1.2215848e-13 7.8982724e-13 7.227491e-15
000150 a6 c0 0f bd 60 8f bb 29 89 cc 6c 28 c2 62 a0 2a
       -0.035095833 8.32934e-14 1.3144983e-14 2.8490236e-13
000160 d9 37 f0 aa b7 bc 34 3e c6 84 af 2a 19 18 79 aa
       -4.2671316e-13 0.17650114 3.1178375e-13 -2.2124003e-13
000170 ae db 83 a8 2c 71 b1 ab 69 51 e6 3d 84 65 99 a9
       -1.4639193e-14 -1.2608018e-12 0.112459965 -6.812175e-14
000180 19 dc 52 aa 0c 6a 76 a9 2b ec da 2a f2 3b 76 b9
       -1.8728109e-13 -5.4714954e-14 3.8888454e-13 -0.0002348272
000190 43 0e 4e 2b d4 6c 26 2b 2f 78 2d ab 7d 1d f6 a8
       7.3205694e-13 5.9126076e-13 -6.1628735e-13 -2.7324275e-14
0001a0 b2 2f e2 bc 7d e8 45 ab cd 02 b0 aa 7c f5 8a 29
       -0.027610634 -7.03111e-13 -3.1265824e-13 6.171016e-14
0001b0 19 67 f6 29 18 f1 07 3c 1b 8b 89 aa 5d 28 48 24
       1.0942479e-13 0.008297227 -2.4432613e-13 4.3402276e-17
0001c0 99 89 b0 28 3f 32 dd 29 34 5f d9 be 01 c1 11 2b
       1.9599599e-14 9.823088e-14 -0.42455447 5.1782195e-13
0001d0 dd a0 0c ab e6 c3 b2 aa 0f 21 b1 2a 8a a6 d5 be
       -4.9961234e-13 -3.1755084e-13 3.1464455e-13 -0.41728622
0001e0 63 25 27 aa 82 4c e5 aa ae 68 d5 a8 66 41 5a a9
       -1.4845551e-13 -4.073166e-13 -2.3693148e-14 -4.8462448e-14
0001f0 5e 7d 1c 3e 3d 87 20 a9 c1 6b f6 a9 11 94 0a a8
       0.15282199 -3.5644437e-14 -1.0943287e-13 -7.692646e-15
000200 23 5d a2 ab b7 27 d2 bd a3 6a 99 2b 46 7a 22 2b
       -1.1536643e-12 -0.10261481 1.0900901e-12 5.772365e-13
000210 e7 35 72 ab 43 27 56 ab f5 2f 34 be 90 78 05 2a
       -8.6050476e-13 -7.608256e-13 -0.17596419 1.1854602e-13
000220 6b fe 8e 2a 60 4d 82 ab da f1 b9 a9 3e b8 98 bd
       2.5400805e-13 -9.258531e-13 -8.257605e-14 -0.074570164
000230 14 5a a3 2a 5f df 77 2a 2d 4d 28 ab e6 fe b3 2b
       2.901712e-13 2.2015504e-13 -5.9792693e-13 1.2789463e-12
000240 d2 62 c9 3d 07 ac 2e a7 79 42 28 aa 13 55 a9 ab
       0.098333016 -2.4240607e-15 -1.494446e-13 -1.2031785e-12
000250 fa 4c e7 a9 e4 93 6a 3d b9 a3 c5 2a 1b 15 4c a9
       -1.0271814e-13 0.057269946 3.5107835e-13 -4.5315405e-14
000260 94 8f a6 2a 32 75 4c 2a e9 97 a6 bd 6f b3 74 ab
       2.958715e-13 1.81595e-13 -0.08134443 -8.693523e-13
000270 7f 2f c0 29 b8 70 2c 2a 63 d6 87 ab fb 2a 1b be
       8.534752e-14 1.5315776e-13 -9.651831e-13 -0.15153114
000280 57 82 0e a9 74 6c 04 ab cd f3 e5 29 33 31 74 2a
       -3.1643386e-14 -4.704633e-13 1.02119356e-13 2.1688623e-13
000290 47 df 81 bd db df f9 aa c8 22 0d aa 24 15 28 2b
       -0.06341415 -4.4386616e-13 -1.2535383e-13 5.971493e-13
0002a0 ea 2c 8b ab e3 10 c0 bd ec 46 c4 a9 88 ce 2e ab
       -9.88901e-13 -0.09378221 -8.7164515e-14 -6.210384e-13
0002b0 c1 ef a2 29 0d 1f bb 29 b0 af 94 bd 79 66 85 2a
       7.235836e-14 8.309855e-14 -0.07260072 2.369665e-13
0002c0 2a 9a 4d ab d4 de 87 29 43 02 1e 2b b0 d7 d4 bd
       -7.3044576e-13 6.033859e-14 5.6136015e-13 -0.103927016
0002d0 1b 02 b9 2b 1c d6 9c 2a 8c 38 19 aa 25 32 1a 2b
       1.3145625e-12 2.7859735e-13 -1.3608748e-13 5.478138e-13
0002e0 24 52 16 be 5a 4a 42 2a 68 df fa 2a a2 09 c9 a9
       -0.14679772 1.7256457e-13 4.456394e-13 -8.927864e-14
0002f0 c0 37 90 2a 30 3e c1 3d 43 f7 8f 29 89 5c 38 ab
       2.5618223e-13 0.094356894 6.393369e-14 -6.549835e-13
000300 ea 61 85 a9 13 58 9d 2b a3 37 d5 bd 59 ed 31 aa
       -5.923372e-14 1.1179966e-12 -0.104110025 -1.5803105e-13
000310 61 b8 08 2b 2e 86 89 2b 07 3e 87 2b 9c 50 bf be
       4.8572783e-13 9.771678e-13 9.609543e-13 -0.37366188
000320 45 4d f5 aa 42 c3 7d aa d4 53 74 2b 05 f2 e2 aa
       -4.357436e-13 -2.2538658e-13 8.680255e-13 -4.03136e-13
000330 51 b2 6f bd 46 d3 a2 29 a9 36 f8 aa 2c 5c 58 ab
       -0.058519665 7.230895e-14 -4.4091578e-13 -7.686653e-13
000340 2e 21 a9 2a 67 c6 ad be a7 0b 18 2b f1 23 40 2b
       3.0043454e-13 -0.3394043 5.401742e-13 6.826198e-13
000350 07 28 45 ab cf f2 3a 2b 48 55 20 bd 3e d7 11 2a
       -7.004401e-13 6.641744e-13 -0.03914383 1.2953264e-13
000360 31 29 42 ab 68 2e 5c ab 3a fd 5c 2b d1 40 8c bd
       -6.897981e-13 -7.82241e-13 7.8511123e-13 -0.068483
000370 d7 09 33 aa d9 fc 4d 2a bd c0 6f ab 18 61 91 29
       -1.5901808e-13 1.8295382e-13 -8.5177335e-13 6.4561366e-14
000380 d1 a4 2d 3e d8 68 01 aa db b4 bd a9 12 77 12 26
       0.16957404 -1.1493877e-13 -8.4246595e-14 5.0815296e-16
000390 6a 79 9a 2b 80 0a 89 bb 6c 3a 72 aa 93 80 ba 2a
       1.0976057e-12 -0.00418216 -2.1514187e-13 3.3129453e-13
0003a0 55 29 0a ab 8c 6c 83 aa 2a f1 61 bd 35 ed b2 a9
       -4.908481e-13 -2.3345594e-13 -0.055161633 -7.945937e-14
0003b0 7d cc f2 a9 e1 6e b9 2b 61 4d e6 aa b3 47 10 3d
       -1.0782432e-13 1.3175816e-12 -4.09099e-13 0.035224628
0003c0 91 3a 55 ab 37 1b db aa bb d9 0f ab b8 22 ae 2a
       -7.575408e-13 -3.89211e-13 -5.110597e-13 3.09327e-13
0003d0 51 e2 ea 3c 4b 87 21 2a 0f ee d4 aa 87 7b 54 2a
       0.02867237 1.4346612e-13 -3.782395e-13 1.887224e-13
0003e0 b0 2a 5c aa 52 f1 b5 3d 2e 2a 43 ab c6 8c c5 aa
       -1.9554735e-13 0.08883919 -6.9336453e-13 -3.509191e-13
0003f0 56 5e 78 2a 22 bb f8 2a 7d 80 ab 3c 52 79 71 2a
       2.2059554e-13 4.41835e-13 0.020935291 2.1447191e-13

network.2.conv.bias f4 [16]
000000 c0 a2 cd 39 a2 b6 79 b7 36 23 d0 b9 ea b3 c0 b9
       0.00039221905 -1.4884079e-05 -0.00039699086 -0.0003675514
000010 fa 69 ab 39 1c 4b a3 b9 a1 e5 5a 39 9c a1 35 39
       0.0003269462 -0.00031145744 0.00020875644 0.0001732171
000020 ff a2 75 b8 09 2c 9d b9 d1 e3 6c ba 51 3f f8 39
       -5.8564354e-05 -0.00029978182 -0.0009036633 0.0004734942
000030 fa 66 94 36 47 a4 97 b8 80 20 7a 39 df 3c da b8
       4.4227318e-06 -7.23084e-05 0.00023853965 -0.00010406388

network.2.norm.weight f4 [16]
000000 3c 41 a5 3f 28 8a b0 3f 17 05 c4 3f a2 19 bc 3f
       1.2910533 1.3792162 1.5314053 1.4695323
000010 97 11 b9 3f 9a 58 c1 3f 92 ac 80 3f e2 b9 54 3f
       1.4458493 1.5105164 1.0052664 0.83096135
000020 09 32 59 3f b8 03 c2 3f 85 40 c2 3f 47 48 c7 3f
       0.8484197 1.5157385 1.517594 1.5568932
000030 f4 7c a5 3f ab 04 4e 3f 90 a5 b4 3f 08 aa c3 3f
       1.2928758 0.8047587 1.4113026 1.5286264

network.2.norm.bias f4 [16]
000000 a4 fb b5 3e 57 95 e6 3e d6 12 19 3f d6 c1 14 3f
       0.3554355 0.45035812 0.59794366 0.5810827
000010 74 e3 09 3f db 11 1e 3f 5a 3f ca 3c 99 af 27 be
       0.5386269 0.61745995 0.024688412 -0.16375579
000020 b0 21 cd bd 1a 4a 17 3f 46 06 13 3f 62 c5 33 3f
       -0.10016191 0.59097445 0.5743145 0.7022306
000030 3d 7e b1 3e 83 6a 42 be 35 5e f7 3e 7b df 15 3f
       0.34666625 -0.18985943 0.48314062 0.5854413

network.2.norm.running_mean f4 [16]
000000 d8 9e fc be 90 de a0 be b6 ce 02 bf 83 17 e2 3d
       -0.49339938 -0.31419802 -0.51096666 0.11039641
000010 9e a6 0e bf d1 e4 9a bd 21 98 1a bf 6a 28 1e 3e
       -0.5572299 -0.075631745 -0.6038838 0.15445104
000020 2b 4b c2 3d 24 1f 62 be 7d 65 da be 6c 7d 2a be
       0.094869934 -0.22082192 -0.42655554 -0.16649407
000030 8e 6b e4 be c7 2d d2 3c 75 5c ca 3d f3 1c ba 3d
       -0.44613308 0.025656594 0.09880916 0.09087553

network.2.norm.running_var f4 [16]
000000 f9 4b 17 3f 2d 41 f5 3e fc a0 ed 3e 20 07 c6 3e
       0.591003 0.47901288 0.46411884 0.3867731
000010 52 53 07 3e b7 15 54 3e d8 c4 81 3e fa 11 f9 3d
       0.13215378 0.20711409 0.25345492 0.12161632
000020 25 82 fd 3d 4f 36 94 3e d8 0d 67 3e 4a fc 86 3e
       0.12378339 0.28947684 0.22563875 0.26364356
000030 30 dc ce 3e e6 91 cb 3d c0 7f 26 3e 9e 47 66 3e
       0.40402365 0.09939937 0.1625967 0.22488257

output_layer.weight f4 [1, 16]
000000 bf 31 c5 3e f9 9a e2 3e f3 c6 18 3f b2 72 fb 3e
       0.38514516 0.4425886 0.5967857 0.49110943
000010 93 2d f2 3e e3 f7 2e 3f e4 f7 63 3e 7b c0 ec 3d
       0.47300395 0.68346995 0.22262532 0.1156015
000020 41 07 21 3e 1c 8f 25 3f 43 b6 31 3f 0a f8 05 3f
       0.15725423 0.6467149 0.69418734 0.523316
000030 d5 dd c1 3e c2 ec d8 3d a5 21 e2 3e 50 4b 41 3f
       0.37864557 0.10592033 0.44166294 0.7550554
