saved_tcn_models_cv/inference_tcn_period_20pct_pca_False.pth (torch, 20576 bytes, 19 tensors)

network.0.conv.weight f4 [16, 7, 3]
0	0x3e03193d	0.12802596
1	0x3e46637b	0.19373886
2	0xbc811aff	-0.015759943
3	0x3dab4136	0.083620474
4	0x3c9a4eb8	0.018836364
5	0xbd854ac0	-0.06508398
6	0xbda43688	-0.080182135
7	0x3e32874f	0.17434429
8	0xbc8b832f	-0.017030327
9	0x3e528977	0.20560251
10	0x3b23e600	0.0025008917
11	0x3d85d200	0.06534195
12	0x3db919aa	0.09038098
13	0x3d7f92c4	0.062395826
14	0xbe439346	-0.19099149
15	0xbe11207a	-0.14172545
16	0xbd97f4a4	-0.07419708
17	0x3cf6996e	0.030102458
18	0xbd1a7a18	-0.037714094
19	0x3d83928a	0.064244345
20	0xbea18be1	-0.31552032
21	0x3c8780c0	0.016540885
22	0x3e2e755f	0.17036961
23	0x3e41b922	0.18918279
24	0xbe142656	-0.14467749
25	0x3dec6cfe	0.11544226
26	0xbdd559bd	-0.10417507
27	0x3e1c3307	0.1525384
28	0x3e2752b5	0.16340144
29	0xbacda1e3	-0.0015688505
30	0xbd904056	-0.07043521
31	0x3dacab2e	0.084310874
32	0xbe1c6148	-0.15271485
33	0x3e2de5ab	0.16982143
34	0xbddf1a8d	-0.10893736
35	0xbe0e70f6	-0.13910279
36	0x3d006084	0.031342044
37	0x3d1b2b64	0.037883177
38	0x3c74fb87	0.014952547
39	0x3dbf05fe	0.09327315
40	0x3e5927c3	0.21206574
41	0xbd8f2d3f	-0.06991052
42	0x3d77806c	0.060425207
43	0x3e19f421	0.15034534
44	0x3e315e3d	0.17321105
45	0xbe28257a	-0.16420546
46	0x3e2d68e5	0.16934545
47	0xbde94018	-0.11389178
48	0xbdaaf40a	-0.08347328
49	0xbc9cbcc0	-0.019132972
50	0x3cfb02a0	0.0306409
51	0xbd7402dc	-0.05957304
52	0x3e4ae8db	0.1981539
53	0x3d320073	0.04345746
54	0xbb49ae40	-0.0030774027
55	0x3c927778	0.017879233
56	0x3e97692b	0.29572424
57	0xbda1f7de	-0.07908605
58	0xbbc99f80	-0.006153047
59	0x3e1f47ec	0.1555478
60	0x3cc47618	0.023982093
61	0xbc53cca0	-0.012927204
62	0xbd123b0f	-0.035700854
63	0xbe220cbe	-0.15825173
64	0xbd642068	-0.055694968
65	0x3d1b1e82	0.03787089
66	0x3c1e4100	0.009659052
67	0x3d06f224	0.032945767
68	0x3e128904	0.1431008
69	0x3dbbba36	0.09166376
70	0x3e1e1b91	0.15440203
71	0x3d96408b	0.07336529
72	0xbe27ed86	-0.16399202
73	0xbb37fb40	-0.002807334
74	0xbe5409c6	-0.20706853
75	0x3dae6702	0.08515741
76	0x3df0e796	0.117629215
77	0x3cef4a66	0.02921028
78	0x3dd3b55e	0.103373274
79	0x3e5d6947	0.21622191
80	0xbea1a825	-0.31573597
81	0x3e4623e5	0.1934963
82	0x3e04a549	0.12953676
83	0x3d463859	0.04839358
84	0x3e3ce615	0.18447144
85	0xbe048468	-0.12941134
86	0xbe7c9c12	-0.24668911
87	0xbe309ad5	-0.17246564
88	0xbde1cb20	-0.11025071
89	0xbe8cff52	-0.27538544
90	0xbe57b507	-0.2106515
91	0x3e06950f	0.13142799
92	0x3df6ef61	0.12057377
93	0xbc808ac8	-0.015691176
94	0xbe13ea62	-0.14444879
95	0xbdf894e2	-0.12137772
96	0x3db3daf2	0.08781995
97	0x3e15edb3	0.14641456
98	0x3e4ec3eb	0.20191924
99	0x3d8ade42	0.067806736
100	0xbd7c9fbc	-0.061675772
101	0xbd8a145c	-0.067421645
102	0x3d1f422c	0.038881466
103	0x3e2ae589	0.16689123
104	0x3c922e08	0.017844215
105	0x3e039611	0.12850215
106	0xbcad8788	-0.02118279
107	0x3e323292	0.17402104
108	0x3e4bcb59	0.1990179
109	0x3d51da1c	0.051233396
110	0xbdec7ad3	-0.11546864
111	0x3e103de5	0.14086111
112	0xbe38907c	-0.18023866
113	0xbe5b3af9	-0.21409215
114	0x3cac54d8	0.02103655
115	0xbceba578	-0.028765425
116	0xbb8011e9	-0.003908385
117	0x3dee90c2	0.11648704
118	0x3d40b864	0.04705085
119	0x3c3ae81f	0.011407881
120	0xbe58f368	-0.21186602
121	0x3bc862a0	0.0061152726
122	0xbe70dd2b	-0.23521869
123	0x3d97241e	0.07379936
124	0x3e0505b9	0.12990464
125	0xbe19eb37	-0.15031134
126	0xbe25c3e8	-0.16188014
127	0x3e5e2bb9	0.21696366
128	0xbd8eed14	-0.06978813
129	0xbe038b1b	-0.12846033
130	0x3c60a830	0.013711974
131	0x3e57f9a0	0.21091318
132	0x3c5b43c0	0.013382852
133	0x3d80602a	0.06268342
134	0x3e396c7f	0.18107794
135	0xbe2f6786	-0.17129335
136	0xbe4fc2bf	-0.20289133
137	0x3d5d1a8c	0.053980395
138	0xbd004ec0	-0.0313251
139	0xbe5822df	-0.21107052
140	0x3d5a5cb5	0.05331107
141	0x3d3a771c	0.045523748
142	0x3e2569e7	0.1615368
143	0x3de5180b	0.111862265
144	0xbd1b5b80	-0.037929058
145	0xbe06e504	-0.131733
146	0x3eacaf95	0.33727708
147	0xbe40fbf2	-0.1884611
148	0x3e4c8769	0.1997353
149	0xbe86892f	-0.26276538
150	0x3de38316	0.11108987
151	0x3e5d0c1d	0.21586652
152	0x3e006518	0.12538564
153	0xbd4b6e78	-0.049665898
154	0x3ddb8c56	0.10720126
155	0xbe61da93	-0.22056036
156	0x3d985d0a	0.07439621
157	0xbdb56c8a	-0.08858593
158	0x3da20ebc	0.079129666
159	0x3d9bc216	0.07605378
160	0x3d7f48c4	0.062325254
161	0xbc3fabf9	-0.011698716
162	0x3e45a745	0.1930209
163	0x3bf58ee0	0.0074938387
164	0xbc870139	-0.016480075
165	0x3df4dd1a	0.11956234
166	0xbd47cc6c	-0.048778936
167	0xbeb24b87	-0.34823248
168	0x3e272f35	0.16326602
169	0x3e0fa791	0.14028765
170	0x3db99da3	0.0906327
171	0x3e2a6fc1	0.16644193
172	0xbd39655c	-0.04526268
173	0xbe0552f5	-0.13019927
174	0xbe2fd344	-0.17170435
175	0xbcd062d8	-0.025437757
176	0xbdf063dd	-0.117377974
177	0x3e1bc2b5	0.15210994
178	0xbe18ffc6	-0.1494132
179	0x3da9b6a4	0.08286789
180	0x3e08fd97	0.13377987
181	0x3e437727	0.19088422
182	0xbe39a986	-0.18131074
183	0x3da50bea	0.08058913
184	0xbe1fc467	-0.15602265
185	0xbd37caf7	-0.044871297
186	0x3e1b7ea3	0.15185027
187	0x3dbd532e	0.09244381
188	0x3e834277	0.25636646
189	0xbe3953df	-0.180984
190	0x3e001e37	0.12511526
191	0x3d987b61	0.07445408
192	0xbe39a395	-0.18128808
193	0x3c569fe0	0.013099641
194	0x3de1bfa0	0.11022878
195	0x3e3afec5	0.1826125
196	0x3e100097	0.14062725
197	0x3c16eb02	0.009211304
198	0x3c305fb0	0.010765001
199	0xbcbff0b8	-0.023430213
200	0xbe012874	-0.12613088
201	0x3aeb1c00	0.0017937422
202	0xbe115bee	-0.14195225
203	0xbd492067	-0.049103167
204	0xbe1bfbe8	-0.15232813
205	0xbcbef940	-0.023312211
206	0xbc540883	-0.0129414825
207	0xbdfa8f22	-0.12234332
208	0xbe218a35	-0.15775378
209	0x3e6f959b	0.23396914
210	0xbdb4b0f4	-0.08822814
211	0xbdd0fa8f	-0.1020404
212	0xbd838320	-0.064214945
213	0xbd88a7d8	-0.06672639
214	0x3e458747	0.19289885
215	0x3d9ab6bb	0.07554384
216	0xbdc863a2	-0.097846285
217	0xba25f300	-0.00063304603
218	0xbee6f995	-0.4511229
219	0x3db25a5a	0.087086394
220	0xbce61878	-0.02808784
221	0x3db277c0	0.08714247
222	0xbe45f3b4	-0.19331247
223	0x3d42faec	0.04760258
224	0xbd9de3b3	-0.07709446
225	0x3e501433	0.20320205
226	0x3ca8be50	0.02059856
227	0x3c514366	0.012772417
228	0xbe5e3ea6	-0.21703586
229	0xbdc9529b	-0.09830209
230	0xbe090740	-0.13381672
231	0x3d622f34	0.055220798
232	0xbd9f525e	-0.07779382
233	0xbd9e97d7	-0.07743805
234	0xbdcca095	-0.09991566
235	0x3e1d0711	0.15334727
236	0x3df2b8b6	0.11851637
237	0x3d2c6a14	0.04209335
238	0xbcf6a0b8	-0.030105934
239	0x3e9e5021	0.30920509
240	0xbe2ab576	-0.16670784
241	0xbd8ef596	-0.069804356
242	0x3cd3a967	0.025837613
243	0xbced9ce8	-0.029005483
244	0x3d4898ac	0.048973724
245	0xbe3ae1c4	-0.18250185
246	0x3de06d8a	0.10958393
247	0x3e15f283	0.14643292
248	0x3d3d750b	0.0462542
249	0x3e074d67	0.1321312
250	0xbddd3365	-0.10800818
251	0x3dd895ff	0.105754845
252	0xbd10f8ec	-0.03539364
253	0xbd1d2fa8	-0.038375527
254	0xbcd5cdb8	-0.02609907
255	0x3bf480c0	0.0074616373

network.0.conv.bias f4 [16]
0	0x3e4f9fb3	0.20275764
1	0xbd89bbde	-0.06725286
2	0xbc8cf271	-0.017205449
3	0xbe12f971	-0.14352967
4	0x3c07b200	0.008282185
5	0x3e69f122	0.22845891
6	0x3e2b040e	0.16700765
7	0xbe97c33a	-0.29641134
8	0x3e29d89c	0.16586536
9	0xbdb8611b	-0.090028964
10	0x3c014971	0.007891045
11	0xbd548acc	-0.05189018
12	0x3e103cf1	0.14085747
13	0xbd551c92	-0.0520292
14	0xbd310983	-0.04322196
15	0x3df582c4	0.11987832

network.0.norm.weight f4 [16]
0	0x3f86989a	1.051532
1	0x3f8bafc9	1.091302
2	0x3f5a43d6	0.8525976
3	0x3f3b2275	0.7309945
4	0x3f5f0e12	0.87130845
5	0x3f66baf6	0.9012903
6	0x3f5d928f	0.86551756
7	0x3f67f25d	0.9060419
8	0x3f7f38c7	0.9969601
9	0x3f7bb56e	0.98323715
10	0x3f649448	0.8928876
11	0x3f88002d	1.0625054
12	0x3f76a14d	0.96339875
13	0x3f86ad95	1.0521723
14	0x3fcb944f	1.5904635
15	0x3fa97288	1.3238077

network.0.norm.bias f4 [16]
0	0x3cd25696	0.025676053
1	0xbe79998d	-0.24374981
2	0xbdf77cd0	-0.12084353
3	0xbe0eb326	-0.13935527
4	0xbe27b060	-0.16375875
5	0xbd3ad6c0	-0.045614958
6	0xbed6a21f	-0.41920564
7	0x3e1036de	0.1408343
8	0x3dd2d50c	0.10294542
9	0xbe92b8aa	-0.28656512
10	0xbdfc4016	-0.12316911
11	0xbe7109bb	-0.23538868
12	0x3e467052	0.19378784
13	0xbe4a9a2e	-0.19785377
14	0xbdd0f5ba	-0.102031186
15	0xbe93391a	-0.28754503

network.0.norm.running_mean f4 [16]
0	0x3e4b3c04	0.19847113
1	0xbd8ed97f	-0.06975078
2	0xbcadbaf9	-0.02120732
3	0xbe0c4b25	-0.1370054
4	0x3c17d72e	0.009267611
5	0x3e676fb1	0.226012
6	0x3e2b5520	0.16731691
7	0xbe96233e	-0.29323763
8	0x3e231b4a	0.15928379
9	0xbdc04db8	-0.09389824
10	0x3b5f1635	0.0034040336
11	0xbd44cc2f	-0.048046287
12	0x3e0ffa26	0.14060268
13	0xbd6ac0b4	-0.057312682
14	0xbd16dee0	-0.036833644
15	0x3e0965bf	0.1341772

network.0.norm.running_var f4 [16]
0	0x3e4f6b4f	0.20255779
1	0x3d9a51ad	0.0753511
2	0x3e0e3048	0.13885605
3	0x3e1d7350	0.1537602
4	0x3e43ea44	0.19132334
5	0x3e252759	0.16128291
6	0x3e9b5551	0.3033853
7	0x3e75e45b	0.24012892
8	0x3e0a0b97	0.13480984
9	0x3daf0b00	0.0854702
10	0x3e83530f	0.25649306
11	0x3de5eaaa	0.11226399
12	0x3dd90800	0.10597229
13	0x3dfc59b1	0.12321795
14	0x3e393b7e	0.180891
15	0x3eba7e99	0.3642471

network.1.conv.weight f4 [16, 16, 3]
0	0x3dc7b888	0.097519934
1	0x3e0ab7c4	0.13546664
2	0x3e06794b	0.13132207
3	0xbd1ab688	-0.03777173
4	0x3da4cbfc	0.080467194
5	0x3e1328b0	0.1437099
6	0x3d013b28	0.031550556
7	0xbe023a56	-0.12717566
8	0xbdcd1878	-0.10014433
9	0xbd89eb12	-0.06734289
10	0x3d333bac	0.04375808
11	0xbd84fab4	-0.0649313
12	0xbd077522	-0.03307069
13	0x3d742eb4	0.059614852
14	0xbda7051a	-0.0815527
15	0xbde47912	-0.11155905
16	0xbdd5c3d0	-0.10437739
17	0x3df0c9da	0.1175725
18	0xbe0c617c	-0.13709062
19	0x3dca2dc8	0.09872013
20	0x3dbc5caa	0.09197362
21	0xbd5af3ec	-0.05345528
22	0x3ccec0e8	0.02523847
23	0x3df5eb4f	0.12007772
24	0xbcb9f7cc	-0.022701167
25	0x3dae041c	0.084968776
26	0x3d2725ca	0.040807523
27	0x3a2f7d00	0.00066943467
28	0xbda0bd60	-0.078486204
29	0x3d95a35b	0.07306548
30	0x3c230b90	0.009951487
31	0xbdc90e6f	-0.09817206
32	0x3e466c0e	0.19377157
33	0x3dca36bc	0.09873721
34	0xbd7c0740	-0.06153035
35	0xbe6995d4	-0.22811061
36	0x3d77cd30	0.060498416
37	0xbd74b17a	-0.059739567
38	0x3ddc9135	0.107698835
39	0xbdd2b7c0	-0.10288954
40	0xbe090f84	-0.13384825
41	0x3d0f44c9	0.034977708
42	0xbd7e6e74	-0.062117055
43	0xbd887932	-0.06663741
44	0x3d803484	0.062600166
45	0xbd8e3bf0	-0.06945026
46	0x3df8e284	0.121525794
47	0x3d000c65	0.03126182
48	0xbdd216cb	-0.10258254
49	0x3e0abe76	0.13549218
50	0xbbd930ea	-0.0066281455
51	0x3d80a110	0.0628072
52	0xbd8e8a3e	-0.06959961
53	0xbd141ca5	-0.03616013
54	0xbe0a5acd	-0.135112
55	0xbd088c4e	-0.03333693
56	0xbdc55abd	-0.096364476
57	0xbe081e2e	-0.13292763
58	0x3d2c9370	0.042132795
59	0xbd8c5680	-0.06852436
60	0xbdf309a0	-0.1186707
61	0xbdcbacf8	-0.099451005
62	0x3e031dbb	0.1280431
63	0xbe101a2a	-0.14072481
64	0xba7b3d00	-0.000958398
65	0xbc8ea4fc	-0.017412655
66	0xbd599128	-0.053116947
67	0xbdbbffd6	-0.09179656
68	0xbd944455	-0.07239596
69	0xbc0374c0	-0.008023441
70	0xbdf4e147	-0.11957031
71	0xbdd25018	-0.10269183
72	0xbdea1524	-0.114298135
73	0x3e018db2	0.12651709
74	0xba510e48	-0.00079748454
75	0x3d6941e4	0.056947604
76	0x3df66a8c	0.12032041
77	0xbe2be127	-0.16785108
78	0xbdd31c5a	-0.10308142
79	0xbdff6da2	-0.12472083
80	0x3d885fc0	0.06658888
81	0x3cbd2050	0.023086697
82	0x3d65b5b4	0.05608149
83	0x3bd87227	0.006605405
84	0x3e0cbfd4	0.13745052
85	0x3d46663c	0.048437342
86	0xbe30012a	-0.17187944
87	0xbd40b5d8	-0.04704842
88	0xbe0b48ec	-0.13602036
89	0x3db1c2c7	0.08679729
90	0x3df08a40	0.11745119
91	0xbd56410c	-0.052308127
92	0x3edc736d	0.43056813
93	0xbd0c0d2e	-0.034192257
94	0x3db00e32	0.085964575
95	0xbe057dd4	-0.13036281
96	0x3bd053e0	0.006357655
97	0xbc4e02e0	-0.012573928
98	0x3d7cf5b7	0.06175777
99	0xbd8d0f74	-0.06887713
100	0xbd853fab	-0.06506284
101	0x3dcec2ca	0.10095747
102	0xbd2e4370	-0.042544782
103	0x3c33e150	0.010979012
104	0xbe2d18a1	-0.16903926
105	0x3dae2020	0.08502221
106	0xbc294af0	-0.010332808
107	0xbe249e0b	-0.16075914
108	0xbdcbef80	-0.099577904
109	0x3bc81d40	0.0061070025
110	0xbc2bdd4a	-0.010489771
111	0xbd8f3a91	-0.069935925
112	0xbd113296	-0.035448633
113	0xbcfd228b	-0.03090026
114	0x3d3bf154	0.045884445
115	0xbb5fd440	-0.003415361
116	0xbcf328fd	-0.02968263
117	0xbd42d254	-0.047563866
118	0x3d73fdb0	0.059568107
119	0x3de0e442	0.10981037
120	0xbd90cd2e	-0.07070385
121	0xbdc53693	-0.0962955
122	0xbb93ffa9	-0.004516561
123	0x3db6a8fc	0.0891895
124	0xbdf49331	-0.11942137
125	0x3d15dd5d	0.03658806
126	0x3d14068c	0.036139056
127	0xbe0fea16	-0.1405414
128	0x3e3ffc75	0.18748648
129	0x3def84f0	0.11695278
130	0x3c8e9fb0	0.01741013
131	0xbec426d4	-0.38310874
132	0x3da5310a	0.08065994
133	0x3dade9cc	0.08491859
134	0x3d1aa379	0.037753556
135	0x3d9d19a2	0.07670905
136	0x3c92ec18	0.017934844
137	0x3dcf40f0	0.10119808
138	0xbccddb20	-0.025128901
139	0x3d1822b0	0.037142456
140	0xbe3c3201	-0.1837845
141	0x3c679f70	0.014137134
142	0xbe0123e6	-0.1261135
143	0x3dc36184	0.09540084
144	0xbd8dffb0	-0.06933534
145	0xbce78f14	-0.028266467
146	0x3e4c58b1	0.19955708
147	0xbd6e53fe	-0.05818557
148	0xbdbb2fb6	-0.091399595
149	0xbd5aea69	-0.053446207
150	0xbd64c52e	-0.055852108
151	0x3df8989c	0.12138483
152	0x3cfb02a3	0.030640906
153	0xbd72e4ea	-0.05930034
154	0xbc80c4b0	-0.015718788
155	0xbceee770	-0.029163092
156	0x3d6c4014	0.057678297
157	0xbdd052aa	-0.10172017
158	0x3c648857	0.013948522
159	0x3d7a1b88	0.061061412
160	0x3dd973d0	0.106177926
161	0x3b879587	0.004137698
162	0x3b36b080	0.0027876198
163	0x3e0b3522	0.13594487
164	0xbe071ba1	-0.13194133
165	0xbd9c63bb	-0.076362096
166	0xbe00e924	-0.12588936
167	0x3c1e174c	0.009649109
168	0x3e0483ce	0.12940904
169	0x3c9fcf10	0.019507915
170	0xbe940012	-0.28906304
171	0x3d4c78f0	0.049920022
172	0xbc386850	-0.011255339
173	0xbe13fbd1	-0.14451529
174	0xbdc81942	-0.097704425
175	0xbcd31264	-0.025765605
176	0x3cb6d1f1	0.022316905
177	0xbc3364c0	-0.010949314
178	0xbd7121d2	-0.058870144
179	0xbca697ac	-0.020335995
180	0x3dd4bc3a	0.10387464
181	0xbc8cd488	-0.017191187
182	0x3dfcd6bc	0.12345645
183	0x3dca06e8	0.098645985
184	0xbdfc0450	-0.1230551
185	0xbd9a62d2	-0.0753838
186	0x3c921db8	0.017836437
187	0xbd8c46a7	-0.06849413
188	0x3de30be8	0.11086255
189	0xbdc929d7	-0.098224334
190	0xbb896ce0	-0.004193887
191	0x3e85b9b4	0.26118243
192	0x3ca1d0f8	0.019752964
193	0x3d76ca44	0.06025149
194	0x3bbb9d6c	0.0057255533
195	0xbd896357	-0.06708401
196	0x3c8ec3b8	0.01742731
197	0x3d31f735	0.043448646
198	0xbd34fe18	-0.044187635
199	0x3d63a990	0.05558163
200	0x3e11f682	0.14254192
201	0x3e000642	0.12502387
202	0xbe0368d1	-0.12832953
203	0x3e1b0af3	0.15140896
204	0xbd0a2ac0	-0.033732176
205	0x3d53d48c	0.051716372
206	0x3deb3f21	0.1148665
207	0x3dde50a4	0.10855225
208	0x3dc94106	0.09826855
209	0x3d98af49	0.07455308
210	0x3c49f840	0.012327254
211	0x3d4423f0	0.047885835
212	0x3e0a5237	0.13507925
213	0xbdd5029b	-0.104008876
214	0x3d8abe6c	0.06774601
215	0xbc8b07f8	-0.016971573
216	0xb749c000	-1.2025237e-05
217	0xbabd2c00	-0.0014432669
218	0x3e201573	0.15633182
219	0xbbf16080	-0.00736624
220	0x3d626198	0.055268854
221	0x3e2235af	0.15840791
222	0x3dd5532a	0.10416253
223	0x3d9a662a	0.075390175
224	0xbb9857f6	-0.0046491576
225	0x3e0cd9ae	0.13754913
226	0x3d119410	0.035541594
227	0xbd32c4ca	-0.043644704
228	0xbe01186c	-0.12606972
229	0xbdd319ce	-0.10307656
230	0x3db91eb1	0.09039057
231	0x3dd3f21e	0.103489146
232	0x3ce521d0	0.027970225
233	0xbda2be9a	-0.079465106
234	0x3de11d28	0.10991889
235	0xbbd6e1e0	-0.006557688
236	0xbe87ddfa	-0.26536542
237	0x3da05912	0.07829489
238	0xbd84e6af	-0.06489312
239	0x3c7ea665	0.015542601
240	0xbdb2d41d	-0.08731864
241	0xbb1fa440	-0.0024359375
242	0x3e3b4407	0.18287669
243	0x3de3f7ac	0.11131224
244	0x3dba99ba	0.09111352
245	0x3dc8e4c3	0.09809258
246	0x3d88d95e	0.066820845
247	0x3da6fbc6	0.08153491
248	0xbda81ec8	-0.08208996
249	0xbe109523	-0.14119391
250	0x3be30460	0.006928012
251	0xbd63b52a	-0.055592693
252	0xbdb1e668	-0.08686525
253	0xbde190ce	-0.110139474
254	0xbded0271	-0.11572731
255	0x3dddc638	0.10828823

network.1.conv.bias f4 [16]
0	0xbd854d94	-0.065089375
1	0xbe95da73	-0.29268226
2	0xbdf3d58a	-0.11905964
3	0x3e8ce29a	0.27516633
4	0xbe8a4ec3	-0.27013215
5	0xbe4011ca	-0.18756786
6	0x3e0341cb	0.12818067
7	0xbe3a14d4	-0.18172008
8	0xbdc598fe	-0.096483216
9	0xbe634fb5	-0.22198375
10	0xbe4c7d61	-0.19969703
11	0x3cd0c143	0.02548278
12	0x3d90aa23	0.07063701
13	0x3e0ea320	0.13929415
14	0xbd8b0627	-0.06788283
15	0xbcdbb02d	-0.026817406

network.1.norm.weight f4 [16]
0	0x3f5dacc3	0.8659174
1	0x3fb06499	1.37807
2	0x3f92918d	1.1450669
3	0x3f7d5b82	0.98967755
4	0x3f8aff2e	1.0859125
5	0x3f7c4790	0.98546696
6	0x3f8efc4e	1.1170747
7	0x3f84e642	1.0382769
8	0x3fb02463	1.3761104
9	0x3f853998	1.0408201
10	0x3f8d4485	1.1036536
11	0x3f9ec278	1.2403097
12	0x3f869d8a	1.0516827
13	0x3fac21e8	1.3447847
14	0x3f82cc52	1.0218604
15	0x3fa52b33	1.2903808

network.1.norm.bias f4 [16]
0	0xbdcc2575	-0.09968082
1	0xbd3b58da	-0.045739032
2	0xbd282dcc	-0.0410593
3	0xbace38de	-0.00157335
4	0x3d203b7e	0.039119236
5	0x3c3ac4a6	0.011399424
6	0xbd8d568a	-0.06901272
7	0xbe2328e3	-0.15933566
8	0xbe1235ba	-0.14278308
9	0x3dd7ce50	0.10537398
10	0xbdaaf99a	-0.08348389
11	0xbe267cc6	-0.16258535
12	0xbe281881	-0.16415597
13	0x3e4d9d7a	0.20079604
14	0x3e150913	0.14554243
15	0xbe809803	-0.25115976

network.1.norm.running_mean f4 [16]
0	0x3e02e17c	0.12781328
1	0xbe6a2d82	-0.22868922
2	0xbe3069eb	-0.17227904
3	0x3ebace0c	0.36485326
4	0xbe68e5fc	-0.22743982
5	0x3de9a374	0.11408129
6	0xbe04ca76	-0.12967858
7	0xbe98cbb6	-0.2984292
8	0xbeacb28c	-0.3372997
9	0xbe8a9f5f	-0.27074715
10	0xbcfc5734	-0.0308033
11	0xbd8c3d62	-0.06847645
12	0x3d51fa5b	0.05126415
13	0xbe43daf4	-0.19126493
14	0xbe95b930	-0.2924285
15	0xbd3394d6	-0.043843113

network.1.norm.running_var f4 [16]
0	0x3dfc4ccf	0.123193376
1	0x3e39cfe0	0.18145704
2	0x3e823746	0.25432795
3	0x3e4f9b7c	0.20274156
4	0x3e0ca9d4	0.1373666
5	0x3e25f5f8	0.16207111
6	0x3e3b9953	0.18320207
7	0x3e034cf6	0.12822327
8	0x3e6ee7d0	0.23330617
9	0x3e8f326d	0.2796816
10	0x3de704bf	0.11280202
11	0x3df5f678	0.12009901
12	0x3e12e62c	0.14345616
13	0x3e857da6	0.26072425
14	0x3e0a1c08	0.13487256
15	0x3e3d6280	0.18494606

network.2.conv.weight f4 [16, 16, 3]
0	0xbd9721f7	-0.07379525
1	0xbe114aca	-0.14188686
2	0xbbfe9f51	-0.007770457
3	0xbdf48412	-0.11939253
4	0xbde988da	-0.114030555
5	0x3cf7e7ea	0.030261952
6	0xbd2efc80	-0.04272127
7	0x3d9f7168	0.077853024
8	0xbe4ff7a5	-0.20309313
9	0x3d770e0c	0.06031613
10	0x3de14340	0.10999155
11	0xbd373155	-0.04472478
12	0xbe088ef0	-0.13335776
13	0xbdc57fa8	-0.09643489
14	0xbdec1ac2	-0.11528541
15	0xbd2455f2	-0.040121026
16	0x3d8126ac	0.06306204
17	0x3d4749ee	0.04865449
18	0xbdc6cd18	-0.09707087
19	0xbd98980b	-0.07450875
20	0xbea585bf	-0.32328603
21	0x3d534c78	0.0515866
22	0xbdf24b9e	-0.11830829
23	0xbe944b92	-0.28963906
24	0x3de3de98	0.11126441
25	0xbdcaed18	-0.09908503
26	0x3de84f95	0.11343304
27	0xbc8f94d0	-0.017527014
28	0x3e0bec72	0.13664415
29	0xbe9ae6e3	-0.30254278
30	0x3df4ef54	0.11959711
31	0x3ca5e540	0.020250916
32	0x3dab6ae3	0.083699964
33	0x3dc240e6	0.09485035
34	0xbdfa11ee	-0.12210451
35	0xbc61635c	-0.013756599
36	0xbd5719d0	-0.05251485
37	0x3cc003c8	0.023439303
38	0xbd151faa	-0.03640715
39	0x3cf645c8	0.030062571
40	0xbdefd25d	-0.117100455
41	0x3e0bb136	0.1364182
42	0x3b862420	0.004093662
43	0x3d4abfd0	0.049499333
44	0xbdbb0e9b	-0.09133645
45	0x3d2940bc	0.0413215
46	0xbdd34e9c	-0.10317728
47	0x3bd4963d	0.0064876364
48	0xbdfc9fa3	-0.12335136
49	0xbdf43613	-0.11924376
50	0xbe80cfd3	-0.25158557
51	0xbc8c8da0	-0.017157376
52	0x3d78ed64	0.06077327
53	0xbd33d5b8	-0.04390499
54	0x3cb08400	0.021547318
55	0x3d97924e	0.07400952
56	0xbe399435	-0.18122943
57	0xbdd5e051	-0.104431756
58	0x3cc5d5f8	0.02414988
59	0xbdebf8ec	-0.115220875
60	0x3e0f938a	0.14021125
61	0x3dffef6c	0.12496838
62	0xbca4a638	-0.02009879
63	0x3d98a7e4	0.074538976
64	0x3dcf028c	0.10107908
65	0xbe6ee587	-0.23329745
66	0x3e05107a	0.12994567
67	0xbe03db42	-0.12876609
68	0xbe29956e	-0.16560909
69	0x3e131050	0.14361691
70	0x3cb08668	0.021548465
71	0xbbcc4a3c	-0.0062344354
72	0xbdf07e24	-0.117428094
73	0xbd92479b	-0.07142564
74	0x3d1f632c	0.038912937
75	0x3b02f780	0.0019983947
76	0xbde399af	-0.11113297
77	0xbdeb2e2b	-0.11483415
78	0x3d78f3b4	0.06077929
79	0xbd790540	-0.060796022
80	0xbd796fcd	-0.060897637
81	0xbc03b060	-0.008037657
82	0x3dc893b2	0.09793796
83	0x3e121f33	0.14269714
84	0x3d18c534	0.037297443
85	0xbd6d4fe2	-0.05793751
86	0xbe647a69	-0.22312321
87	0x3de63e58	0.1124236
88	0x3d11a07c	0.03555344
89	0x3e28a8d2	0.1647065
90	0x3dbb0646	0.09132056
91	0xbe02a7e0	-0.12759352
92	0xbe1bfe88	-0.15233815
93	0xbcc6db50	-0.024274498
94	0xbd1d6ca2	-0.03843368
95	0x3d39c3ef	0.045352872
96	0x3dc869d6	0.097858116
97	0x3db688fa	0.08912845
98	0x3c526de2	0.012843581
99	0x3df493b4	0.11942235
100	0x3d8a27c2	0.067458645
101	0xbdf414ea	-0.119180515
102	0x3de5ddb0	0.11223924
103	0x3de3d5b0	0.11124742
104	0xbbd6ebd1	-0.006558873
105	0xbe0aa8d1	-0.13540961
106	0x3d4ff0b4	0.05076666
107	0x3cfba172	0.030716632
108	0xbd9b827e	-0.07593249
109	0xbd055b08	-0.032557517
110	0x3d38ddd4	0.045133427
111	0x3dfd604c	0.12371883
112	0x3ca216a0	0.019786179
113	0xbd002973	-0.03128953
114	0xbd952016	-0.072815105
115	0x3c9e3f68	0.019317344
116	0xbd5e12c3	-0.05421711
117	0xbde09184	-0.10965255
118	0x3d01bdfc	0.031675324
119	0xbcb40af0	-0.021977872
120	0xbba4dca0	-0.0050311834
121	0x3dcf4a80	0.101216316
122	0xbd9fe9b3	-0.078082465
123	0xbd445cd8	-0.047940105
124	0x3df10344	0.11768201
125	0xbb9d02ef	-0.0047916095
126	0xbdf12652	-0.11774887
127	0x3d9f9900	0.07792854
128	0xbca16874	-0.019703127
129	0x3da3b72a	0.0799392
130	0x3dc1d4f4	0.09464446
131	0xbf259e71	-0.6469489
132	0x3cf246b8	0.029574737
133	0x3d49c7c4	0.049262777
134	0x3c790bb9	0.015200549
135	0x3dd8d0f0	0.10586727
136	0x3d63f27c	0.055651173
137	0xbd98ff7b	-0.07470604
138	0x3e1272d2	0.14301613
139	0xbdbb65a6	-0.09150247
140	0x3cc91c33	0.02454958
141	0x3d964042	0.07336475
142	0xbcedee3c	-0.029044263
143	0x3b9f68ef	0.004864804
144	0x3dc6bf58	0.09704465
145	0xbd5e40dc	-0.054261073
146	0xbe368517	-0.17824207
147	0xbdbd6e62	-0.092495695
148	0x3df54320	0.11975694
149	0x3cb6aa27	0.022297932
150	0x3db374e8	0.087625325
151	0x3ded34c0	0.11582327
152	0xbe009aad	-0.12559004
153	0xbd66d29c	-0.056353197
154	0x3de67048	0.11251885
155	0xbe49469b	-0.1965584
156	0xbdea7e4f	-0.11449873
157	0x3dcb6036	0.0993046
158	0x3d9de6dd	0.07710049
159	0xbd7ad9c0	-0.06124282
160	0xbdce5dfa	-0.10076518
161	0xbeb35062	-0.35022265
162	0x3e06c73c	0.1316194
163	0x3dbfd748	0.093672335
164	0x3c53c430	0.012925193
165	0xbd3eb618	-0.046560377
166	0xbda8eb56	-0.08248012
167	0x3d3028cd	0.04300766
168	0x3dafe5f6	0.085887834
169	0xbb0fd880	-0.0021949112
170	0xbc2457d9	-0.01003071
171	0x3ccd19d8	0.025036737
172	0xbe084e93	-0.13311224
173	0xbcba5d80	-0.022749662
174	0xbd89ec1e	-0.06734489
175	0xbdfd8473	-0.12378778
176	0xbecbaadf	-0.39778802
177	0xbd838971	-0.06422699
178	0xbd972d26	-0.07381658
179	0x3dc9f468	0.0986107
180	0x3df695f8	0.12040323
181	0x3c17f700	0.009275198
182	0xbe537707	-0.20650874
183	0x3e11a87e	0.14224431
184	0xbdabe3ba	-0.08393045
185	0x3e50dc65	0.20396574
186	0x3d8f7d84	0.07006362
187	0xbdcf4a66	-0.10121612
188	0xbd9c0631	-0.076183684
189	0x3e08139c	0.1328873
190	0xbe091ab1	-0.13389088
191	0x3a10b0d2	0.00055195123
192	0xbdff91fe	-0.12479018
193	0xbc0517c0	-0.008123338
194	0xbdacbf7b	-0.084349595
195	0xbe106721	-0.1410184
196	0xbd13ee1e	-0.036115758
197	0xbcf9c288	-0.030488268
198	0xbc536960	-0.012903541
199	0xbd9b1077	-0.075715
200	0x3d77353a	0.060353495
201	0x3c7bc190	0.015365973
202	0xbe0f24bf	-0.13978861
203	0x3caac64c	0.020846508
204	0xbe029109	-0.12750639
205	0xbcf07b24	-0.029355593
206	0xbd9b0a17	-0.07570284
207	0xbdac048e	-0.08399306
208	0xbdb94816	-0.090469524
209	0x3d3c32b5	0.045946795
210	0x3dfa50f0	0.12222469
211	0xbe1034bb	-0.14082615
212	0xbccd53a7	-0.025064303
213	0x3e01beb2	0.126704
214	0xbcac0768	-0.020999625
215	0xbe787cfe	-0.2426643
216	0xbd6ddc3a	-0.058071353
217	0x3c6f8bd0	0.014620736
218	0x3d0c0192	0.034181185
219	0xbe07a33b	-0.13245861
220	0x3d08c850	0.033394158
221	0x3dc07761	0.0939777
222	0x3dbee7be	0.09321545
223	0xbe0ac894	-0.13553077
224	0xbd2b407b	-0.04180954
225	0xbcf84508	-0.030306354
226	0x3da94278	0.08264631
227	0xbd664bfe	-0.056224816
228	0xbd950c16	-0.07277696
229	0xbd1ec7b2	-0.038764663
230	0xbe08efb4	-0.1337269
231	0xbdcdb136	-0.10043566
232	0xbda5563c	-0.080730885
233	0x3e8c8484	0.2744485
234	0xbcecfc1c	-0.028928809
235	0x3ab2bd80	0.0013636798
236	0x3e159e4a	0.14611164
237	0xbbba77c0	-0.005690545
238	0xbc417f00	-0.011810064
239	0x3d7a4ad7	0.06110653
240	0x3c91a9d0	0.017781168
241	0x3d9abf40	0.07556009
242	0x3bc8f05a	0.0061321678
243	0xbc127140	-0.008938134
244	0x3da5ac82	0.08089544
245	0xbf1eca0d	-0.62027055
246	0xbc4712e0	-0.012150496
247	0xbde115bb	-0.10990473
248	0x3d4cd3f3	0.050006818
249	0xbdfffb0a	-0.12499054
250	0x3de19de4	0.11016443
251	0xbd942f09	-0.07235534
252	0xbde12b02	-0.10994531
253	0x3daa143e	0.08304642
254	0x3d863fc7	0.06555133
255	0xbdf91cb2	-0.12163676

network.2.conv.bias f4 [16]
0	0x3e073951	0.13205458
1	0x3d8b1a72	0.067921534
2	0xbd069a34	-0.032861903
3	0xbc00e9ae	-0.007868214
4	0x3dfbe7b0	0.1230005
5	0x3db29f93	0.087218426
6	0x3de3701f	0.1110537
7	0x3d3ee325	0.04660334
8	0x3e073023	0.13201956
9	0xbcbbd63b	-0.022929301
10	0x3d56a433	0.052402686
11	0xbcc98e11	-0.024603875
12	0xbdd01899	-0.10160942
13	0xbdb5bbee	-0.08873735
14	0xbcd3815a	-0.025818516
15	0xbe87a24e	-0.26491016

network.2.norm.weight f4 [16]
0	0x3fb388d0	1.4026127
1	0x3fb7990b	1.434358
2	0x3fbaa157	1.4580487
3	0x3fbccd2c	1.4750113
4	0x3f7d239d	0.98882467
5	0x3fb08b64	1.3792539
6	0x3fc3bd4a	1.5292141
7	0x3fb5177b	1.4147791
8	0x3fb9c4c2	1.4513171
9	0x3fbeaa31	1.4895688
10	0x3fb545c7	1.4161919
11	0x3fba43a3	1.4551891
12	0x3fb3c5d9	1.4044753
13	0x3f9fe24d	1.2490937
14	0x3fbc943b	1.4732736
15	0x3fb4bde2	1.4120448

network.2.norm.bias f4 [16]
0	0x3ef0c2ff	0.4702377
1	0x3f06eaa2	0.5270177
2	0x3f2efb51	0.6835223
3	0x3f27bae2	0.65519536
4	0xbd1d461f	-0.03839695
5	0x3f0af414	0.54278684
6	0x3f321da7	0.69576496
7	0x3efa0c16	0.48837346
8	0x3f2514ae	0.6448468
9	0x3f3e8c3e	0.7443274
10	0x3f153444	0.58282876
11	0x3f379f06	0.71727026
12	0x3f064adf	0.52457994
13	0x3ed290c6	0.41126078
14	0x3f212ec1	0.62961966
15	0x3f36b269	0.7136598

network.2.norm.running_mean f4 [16]
0	0xbdd74bdd	-0.10512517
1	0xbe3eb027	-0.18621884
2	0xbebbe905	-0.36701217
3	0xbe645916	-0.22299609
4	0x3e82acd2	0.25522476
5	0xbdf181c1	-0.11792327
6	0xbe8daff2	-0.27673298
7	0xbe3acbb3	-0.18241768
8	0xbd39963a	-0.045309283
9	0xbec3d10a	-0.38245422
10	0xbeb5b880	-0.35492325
11	0xbe270500	-0.16310501
12	0xbecafcbe	-0.39645952
13	0xbe472381	-0.19447137
14	0xbe43ce5d	-0.1912169
15	0xbf2b0b78	-0.66814375

network.2.norm.running_var f4 [16]
0	0x3eb04eea	0.34435207
1	0x3eff664c	0.49882734
2	0x3ec9c057	0.39404556
3	0x3f47decc	0.78074336
4	0x3dc86ffe	0.09786986
5	0x3f022237	0.5083346
6	0x3f25237a	0.6450726
7	0x3ecf6932	0.40509945
8	0x3eecd015	0.46252504
9	0x3f258dab	0.64669293
10	0x3ef2d7ed	0.47430363
11	0x3ec19574	0.37809336
12	0x3f1f82bb	0.62308854
13	0x3e84fae6	0.2597267
14	0x3f3a9578	0.7288432
15	0x3e9e1e70	0.30882597

output_layer.weight f4 [1, 16]
0	0x3f0446e8	0.51670694
1	0x3ef2b169	0.47400978
2	0x3ef1b2f3	0.4720684
3	0x3ed97f75	0.42480054
4	0x3e2b141c	0.1670689
5	0x3f13cb38	0.5773196
6	0x3ef26abc	0.47347057
7	0x3f056262	0.52103245
8	0x3ef6cfda	0.48205453
9	0x3efe3392	0.4964872
10	0x3f0c0d95	0.54708225
11	0x3edebb51	0.43502286
12	0x3f1300a4	0.5742285
13	0x3e9343ec	0.28762758
14	0x3ec8cf62	0.3922072
15	0x3ece3839	0.4027727
