saved_tcn_models_cv/inference_tcn_period_50pct_pca_False.pth (torch, 22880 bytes, 19 tensors)

network.0.conv.weight f4 [16, 7, 3]
00000000: 356e 0b3e e550 bcbe 6d1b b7bd 910f c3be
00000010: d8e6 9c3c 6530 b7bc 0ba3 39be a139 49bc
00000020: 719c a33e fe99 1a3d c8a7 92bd 5c82 2a3e
00000030: 2a66 863e d198 aebd 9a20 f93d 0074 35be
00000040: 2245 1dbc 8e52 c9bd c24b a2be 1b94 6a3d
00000050: fd1a 1ebf 27b7 013e 2928 4fbd af62 a9be
00000060: 4c02 eebd a978 ae3e c281 2abe 6ac2 3dbe
00000070: a8bc 1f3e 3493 4d3e 7ff4 39bd 71f8 7cbe
00000080: 1179 273e 843e febd 02ce 3f3e a58c 0a3e
00000090: 0de7 203b 17dd 03bf 9bb8 ee3c 1b14 e33d
000000a0: 0381 8ebe 4599 873e 20fc 90bd 7c05 a63d
000000b0: 8ce1 b33e d3eb 44be 18ea 80be ac08 d9bc
000000c0: 5aae 283e b587 603c 739e a43e a1be 953d
000000d0: 51fd 313e cf52 f33c 4f9a 18be ed9e a13e
000000e0: ed1a 9d3c 7432 2abd 79ff fb3d b1f4 763e
000000f0: 36dd 5c3d 2ff3 5ebe 69ab 9c3d 9f4d 143e
00000100: c3ab 8e3d 7768 163e d2d1 b6bd af31 74be
00000110: 35f8 4c3e ccbd 823e fe07 1ebd 5226 06bd
00000120: b8f2 20be 0949 8c3d fd53 81bd b295 ab3d
00000130: 0643 443e 6d21 0b3e 3917 7b3e f22c a4be
00000140: 244b 16be 25a5 11be d3fa 943c 6813 5c3f
00000150: 29ac 873e 98c5 e6bd ac32 c3be c8ac 16be
00000160: f418 1b3e 0e3f 053e 8ec8 96ba 781e 6bbe
00000170: ac52 8d3c 6b70 e7bd a39a 01bd f9dd 5bbe
00000180: fe71 68bd 6f2b 2ebe 1f99 b8bc cd66 26be
00000190: 6b7d bebd 3da4 10be fde3 083e e87b 933d
000001a0: 5e31 253f 93d8 743e e5bf cbbc 76d0 d6bd
000001b0: 05b9 cabd 8bb1 003e dffc 6dbd e993 4c3e
000001c0: d4df cf3e 4e7c 3abd 5815 17bd 49d2 a23d
000001d0: 7a42 933d ceff 163e 3078 8b3e 8b7b fd3d
000001e0: c865 f23d af50 8cbe d6f1 703c 45a9 e6bc
000001f0: 7786 fd3d 5036 a63e eb3d a23e b10d 46bd
00000200: a62d 0cbe 2fcd f2be 4656 12be f4e3 81bd
00000210: b604 d9bd 529f 3dbe 23bd 333e 87da 41bd
00000220: 2440 52be bd47 e0be 64e9 4cbe 54e7 a93e
00000230: 5d46 1b3d cc0b 7d3d 02b1 2bbd 017a 7c3e
00000240: b761 003e c43c 4f3e 3c06 41bf 2cc5 a63e
00000250: 52a5 36be b95f b43d fa2b 253e 16c4 a13b
00000260: ac19 34bf 3377 dc3d eeac ab3d 41cf 8bbe
00000270: a337 11be 9f0f 263d 6b4d dcbe 724d d83c
00000280: 5d46 333d b518 2cbe 0a1f ca3d 3c30 443e
00000290: e2ca 9a3d ad47 1b3e 4120 a73e 0f2c a83d
000002a0: 6fa6 93be cd6d 3ebe fbd6 f13e 341f d63d
000002b0: 10af c73e d7f3 94bc 5322 bcbe 572a d4bd
000002c0: c8c3 a43d 0a67 fd3d 16a9 2d3e 3341 923c
000002d0: c4ab 2b3e 89c2 82be 85d6 093e cce8 a73e
000002e0: 5a66 4e3d 82b5 94bc feb0 6b3d 4b1f a23d
000002f0: 9296 8ebe c28e 79be 038c 483d 9fcd cfbe
00000300: e04e 8a3e 8088 123c c9b6 58be 21c7 a6be
00000310: 60e1 153e 0d57 26bd 10ef 6fbe e856 843c
00000320: 3958 16be 6723 e4bd 5343 b1bd 884f 293d
00000330: 22e8 1ebe 57e4 b5be 7675 0e3e bf35 343e
00000340: 9ed0 93be e997 d2be 8f12 4e3d 1ca7 42bd
00000350: c32c 6cbe 16e5 c43b 5cdf 75be 1646 713d
00000360: 2dc5 e4ba 6885 2b3e de3a 25be fef3 7bbd
00000370: 95de afbd 0802 e73c 909f 4dbd 7835 073e
00000380: 01d9 84be 1ba1 4a3e b9e4 a0be bd16 7abe
00000390: e457 e53d db62 bcbe ce66 3dbf 3616 493e
000003a0: d115 433c 9e1b cd3d c3a2 1c3e d546 6bbe
000003b0: cc28 66bd fdee 26bf 25c2 f3bd 7a72 243d
000003c0: d040 bb3d 6b69 333d f78c 31be 39ca 96bd
000003d0: bcd4 febe 4a70 153d 3ea3 13bf 3a14 9f3c
000003e0: 1518 4b3e 85b9 5a3e 7e07 c73c c6a1 a9bc
000003f0: e708 8f3e e7fb e83d ec71 403e 1d99 e13e
0.1361626 -0.36780468 -0.08940778 -0.38097814 0.019153044 -0.022361943 -0.18128602 -0.012281806
0.31955293 0.037744515 -0.07160908 0.1665129 0.2624982 -0.08525241 0.121644214 -0.17720032
-0.009599002 -0.09830199 -0.31698424 0.05727015 -0.6175993 0.12667523 -0.05057541 -0.33083102
-0.11621532 0.3407643 -0.16651061 -0.18531194 0.1559931 0.20075685 -0.045399185 -0.24704148
0.16354777 -0.12414268 0.1873093 0.13530214 0.002455178 -0.5150923 0.029140761 0.11087819
-0.27832803 0.26484123 -0.07079339 0.08106515 0.35133016 -0.19230585 -0.251786 -0.026493393
0.1647276 0.01370423 0.32152137 0.0731175 0.17381789 0.029702572 -0.14902614 0.31566563
0.019177878 -0.041552022 0.12304587 0.2411678 0.0539219 -0.21772455 0.076498814 0.14482735
0.06966355 0.14688288 -0.08926739 -0.23847078 0.20016558 0.2553543 -0.03858184 -0.03275139
-0.1571759 0.06849868 -0.063148476 0.083781615 0.19166192 0.1358697 0.24520577 -0.3206554
-0.14677101 -0.14223154 0.018186009 0.8596711 0.26498535 -0.11268157 -0.38124597 -0.14714348
0.15146238 0.13012335 -0.0011503862 -0.22960842 0.017251335 -0.11300739 -0.031641614 -0.21471395
-0.056749336 -0.17008756 -0.022533951 -0.16250153 -0.09301265 -0.14125152 0.1336822 0.072013676
0.64528453 0.23910742 -0.024871776 -0.104889795 -0.09898571 0.12567727 -0.058102485 0.19978298
0.40600455 -0.045528702 -0.03688559 0.07950265 0.07190414 0.14746019 0.27240133 0.123770796
0.118358195 -0.27405307 0.014706096 -0.028156886 0.12379163 0.32463312 0.31687865 -0.0483529
-0.13689288 -0.47422168 -0.14290723 -0.06342307 -0.10596602 -0.18517807 0.17552619 -0.047327545
-0.2053228 -0.43804732 -0.20010906 0.33184302 0.0379089 0.06177883 -0.041916855 0.24655916
0.12537275 0.20238024 -0.7540014 0.32572305 -0.17836502 0.0880732 0.16130057 0.0049367053
-0.7035167 0.10764923 0.08382593 -0.2730656 -0.1418138 0.04054224 -0.43027815 0.026404116
0.043768276 -0.168063 0.098692015 0.19159025 0.07558228 0.15164061 0.32641795 0.082115285
-0.28837916 -0.18596573 0.4723433 0.1045517 0.3900075 -0.018182678 -0.36744937 -0.10359638
0.08045155 0.12373169 0.16959032 0.017853355 0.16764742 -0.25539044 0.13460739 0.32794797
0.05039058 -0.018152956 0.05754184 0.07916125 -0.2784925 -0.24370864 0.04896165 -0.40586564
0.27013302 0.008943677 -0.21163477 -0.32573798 0.14636755 -0.04061036 -0.23431039 0.016154721
-0.14682092 -0.11139565 -0.08655419 0.041335613 -0.15518239 -0.35525772 0.13911995 0.17598628
-0.288701 -0.41131523 0.050310668 -0.04752265 -0.2306395 0.0060087545 -0.24010986 0.05890473
-0.0017453782 0.16750109 -0.16135737 -0.061511986 -0.08587376 0.02819921 -0.050201 0.1320399
-0.2594681 0.1978802 -0.31424502 -0.24422736 0.111984044 -0.3679417 -0.7398499 0.19637379
0.011907057 0.10015033 0.15296464 -0.22976239 -0.05619125 -0.6520842 -0.119022645 0.040148236
0.091432214 0.043801706 -0.1733893 -0.0736279 -0.49771678 0.03648404 -0.5767096 0.019418824
0.19833405 0.21359833 0.024295565 -0.020707022 0.2793648 0.113761716 0.18793458 0.4406213

network.0.conv.bias f4 [16]
00000000: 0dc0 2dbc 5dfc 0f3b 3214 a13a f96f 0d3c
00000010: 3d6a e5bb b81e 733b 0afe c83b 0f40 663c
00000020: 92ee a43b 2737 b5bb 8987 c1bc 1cf1 683c
00000030: 76b3 833c fdce 2a3c f853 263b ec13 f9bc
-0.0106048705 0.0021970489 0.0012289344 0.008632653 -0.00700119 0.0037097167 0.0061337994 0.014053359
0.0050333226 -0.0055302563 -0.023624199 0.014217641 0.016076785 0.010425326 0.002537964 -0.030405007

network.0.norm.weight f4 [16]
00000000: 8006 9b3f 86da 2b3f df99 823f 2ec9 993f
00000010: 729f ae3f 1f81 1b3f 9929 a23f 8dc0 913f
00000020: 28d4 823f 2546 a03f be44 a03f 7014 713f
00000030: bcc1 843f 3096 6b3f 46a8 7d3f 5223 ab3f
1.2111359 0.67130315 1.0203208 1.201452 1.3642409 0.607439 1.2668945 1.1386887
1.0220995 1.2521406 1.2520978 0.9417181 1.0371623 0.9202604 0.9908489 1.3370154

network.0.norm.bias f4 [16]
00000000: 0690 c83e 4f1b 2b3f a94e e93e e72d 71be
00000010: 5c3c 2f3e f4cf 2d3f bc96 7f3e c2c9 563e
00000020: cf73 ce3e 4614 543e 6f04 0c3f c5ea 313f
00000030: 7113 803e 1609 c43e f0b3 c23e 8043 383e
0.3917238 0.66838545 0.45567825 -0.23552667 0.17112869 0.67895436 0.24959844 0.20975402
0.4032273 0.20710859 0.54694265 0.69498855 0.25014833 0.38288182 0.38027906 0.17994499

network.0.norm.running_mean f4 [16]
00000000: da37 ebbc c438 dcb9 58a6 5bbb dd5c 083d
00000010: a5f6 3e3c 2802 3e3c da09 5dbb 7fc7 d63c
00000020: 4e23 49bc 0679 3abc 6446 1cbd 7f47 f43c
00000030: be9e c93c 86b9 db3c 47af 6fbb 90da 82bd
-0.028713156 -0.00042003964 -0.0033515897 0.033291686 0.011655484 0.011597194 -0.0033727796 0.026218174
-0.012276484 -0.011381393 -0.038153067 0.029819248 0.024611827 0.026821863 -0.003657298 -0.06389344

network.0.norm.running_var f4 [16]
00000000: 1ac0 403f ea35 213f 4bd2 323f f6f1 c13f
00000010: d3b3 393f 7c10 4a3f 174c 7a3f c422 663f
00000020: 6ac9 433f fadf 8d3f 3528 983f a35f 603f
00000030: ec64 c23e 6c7e f53e 788f e83e 7954 7e3f
0.75293124 0.6297289 0.6985213 1.5151966 0.72540015 0.78931403 0.97772354 0.898968
0.7647921 1.1083977 1.188727 0.8764593 0.37967622 0.47948015 0.45421958 0.99347645

network.1.conv.weight f4 [16, 16, 3]
00000000: ab5a 3b14 0b6c bd3d 1917 653d d19b 4714
00000010: fcae 55be 7f1e d4bc 58bd e093 7ae5 d4be
00000020: 80fd 4cbe 2035 c314 467e 5b3e 88d2 2dbe
00000030: b9df 1f95 97d8 7a3e 1f90 65bf dd60 c394
00000040: 6c64 95be 3779 3ebe 878b 998f 65da 97bd
00000050: 08b2 113e 711c fc11 97b5 903c dd68 27be
00000060: 3a88 3013 98a7 10be cb27 57be d0e9 6715
00000070: 0acb e43c 329a 953e 4835 d413 e66a 46be
00000080: d71f 4e3e 3abf a994 a982 5bbe c8b6 153d
00000090: 1f95 6095 d4d3 7abe 430f 103e e9c1 d694
000000a0: edce 24be 6221 5ebe 41e0 9994 243d 97bd
000000b0: 2b21 9f3e a446 c593 3f60 c03d e8ae 413e
000000c0: f640 c514 1e9f 02bf bd74 ef3b ff00 cf92
000000d0: 2c15 bbbe be0c 0e3e 6ac7 a613 55e5 c6be
000000e0: 8c39 553d b390 1995 1e35 4bbe 0230 3bbe
000000f0: 42d6 b294 76ea a7be 7a6f ecbd dab3 1995
00000100: 1115 bcbe eafa e13c 27a4 c693 e1c0 dabe
00000110: b024 c53b b1ed 1f15 cada a4be f122 d9bd
00000120: ab7d 6315 bee3 98be 107d 36be c441 9693
00000130: ce62 bcbe 1fd0 bdbd 8781 6195 36f1 5abe
00000140: 656f 38bb 146a 2c14 e5a9 34bf 2aa9 97bd
00000150: 784c b114 c640 58be a8f6 ebbd 13a0 9194
00000160: 94a5 5dbe 1f26 1fbd df4f dd93 5531 76be
00000170: 54d3 e6bb 7b16 0095 194f 4bbe 17df 8dbb
00000180: 3944 b414 65dd d83d 0c45 4fbe 954c af94
00000190: d313 c13d d662 133d 7e1d 318a d3a1 1b3e
000001a0: 210e 033e 80ca 8914 f995 a23c b4dc 2d3e
000001b0: b0f0 1f95 d525 5dbe 88ab c73d d8f1 ad94
000001c0: a082 4abd 4304 cc3c 6883 6a94 aa00 e33d
000001d0: 1e45 86be c770 8f14 bfbd 99be ed8e 953d
000001e0: a017 a814 ccd2 303d 8717 b4bd 67f1 ac14
000001f0: 7636 10bd d643 1abe 842e aa94 667e 803d
00000200: 31e3 bfbe aac6 be93 4f96 033c 1633 f03d
00000210: 2fb9 1014 d82e 603e 0e28 eb3d 5e9d 8293
00000220: 5d5f 633e 7127 0e3d e7a4 e692 bc13 2d3e
00000230: 17e3 da3d e3ab 9513 4277 5b3d 4be2 90be
00000240: da63 cb13 4efd 6b3c 3bd4 a13d d73e 9014
00000250: 0fe8 a5be feeb 27be 45c8 9514 75a2 17be
00000260: 477f f1be 1468 b394 e84b 67be 69d9 bbbe
00000270: d64f 1a95 a462 0dbf a5a1 bfbe deac de12
00000280: 9b6a 82be a89c 9dbd 3052 7015 c11a e4bd
00000290: 336f af3e 5217 0895 083c ed3d ad08 0bbe
000002a0: b087 4a94 8fdf e0bd 8890 25be c7ad 4594
000002b0: edc7 b9bd b511 9ebd 5052 b294 25d5 9fbd
000002c0: 8897 173e c28a 2793 2ef4 8fbe 9028 d5bd
000002d0: 0afa de92 492f e2be aa67 4ebe 7bea f013
000002e0: f8de ad3c b68a b5be baff f493 3d92 76bd
000002f0: 7c2e f8bd a7fa 8894 eadd 62bc 2719 1e3d
00000300: 3a52 a694 53ea 6dbe 0ce8 ad3d 4f64 8914
00000310: 6243 5cbe 7bfb 043d f6e0 c114 5e25 36be
00000320: df26 1c3d 364c 4b92 51b0 e1bd 6467 a4be
00000330: ae12 ca93 b769 2ebe 391e 24bd 6d9f 6d95
00000340: 6cf1 d5bd ebc6 143e b227 9914 09c3 b6be
00000350: 3a7a aa3b 8439 7295 b9c7 1ebe 2aef 1d3d
00000360: d2b0 ba8b 73d8 06be 88c8 843c a0cf 8911
00000370: 65a9 96be baca 48be 97ec 2d94 c213 adbe
00000380: ce6e 80bd b654 ef93 c4bb e3be 13aa a5bd
00000390: b271 3115 d283 38be 8bc9 44be e100 aa14
000003a0: 27d5 3bbe a509 bcbd 673c 8914 65f0 93be
000003b0: ec8f 65bd 243d 0915 a012 e4be c4ac 81bd
000003c0: 6f9c 7a14 f9c2 c9be 6839 63be d9bf 7e13
000003d0: 337d c8bc 0f5e b0bd 076b b114 3b27 bebd
000003e0: f3a8 843d 1a37 a412 8806 5abe 4d72 6cbc
000003f0: 9714 be12 4b0d 1cbe 8d61 cb3d 5ad6 fa93
9.4589684e-27 0.09249123 0.05593023 1.0077662e-26 -0.20867532 -0.025893448 -5.6732257e-27 -0.41581327
-0.20018578 1.9710922e-26 0.21434888 -0.16974843 -3.228628e-26 0.24496685 -0.89673036 -1.9728174e-26
-0.29178178 -0.18600927 -1.5140709e-29 -0.07414702 0.1422807 3.9776118e-28 0.017664714 -0.16348596
2.2281488e-27 -0.14126432 -0.21011274 4.6834524e-26 0.027928848 0.29219204 5.3568863e-27 -0.19376716
0.20129333 -1.7140065e-26 -0.21436562 0.036551267 -4.5354076e-26 -0.24494869 0.14068322 -2.1684962e-26
-0.16094561 -0.21692422 -1.5537505e-26 -0.073847085 0.31079993 -4.979945e-27 0.093933575 0.18914378
1.9917539e-26 -0.51024044 0.0073076175 -1.3063782e-27 -0.3653959 0.13872048 4.210093e-27 -0.3884684
0.052056834 -3.101225e-26 -0.19844481 -0.18280032 -1.8057917e-26 -0.32796067 -0.115447 -3.1039982e-26
-0.36734822 0.027585465 -5.0144094e-27 -0.4272528 0.0060163364 3.22973e-26 -0.32198173 -0.10602368
4.594142e-26 -0.29861253 -0.17821145 -3.7930173e-27 -0.36794132 -0.092682116 -4.5540567e-26 -0.21381077
-0.0028142568 8.704701e-27 -0.7057174 -0.07405312 1.7902594e-26 -0.21118459 -0.11521655 -1.4704397e-26
-0.21645194 -0.038854714 -5.5867002e-27 -0.24042256 -0.0070442352 -2.5867128e-26 -0.19854392 -0.004329573
1.8202264e-26 0.10589103 -0.20241183 -1.770069e-26 0.09427609 0.03598293 -8.527787e-33 0.1519845
0.12798359 1.3913337e-26 0.019846903 0.16978723 -3.2299663e-26 -0.21596463 0.09749514 -1.7563926e-26
-0.04944098 0.024904376 -1.1839896e-26 0.11084111 -0.26224607 1.4483793e-26 -0.30027577 0.073026516
1.6972983e-26 0.04316978 -0.0879355 1.7462778e-26 -0.035208188 -0.1506494 -1.718396e-26 0.062741086
-0.3747802 -4.815864e-27 0.008031442 0.11728494 7.306663e-27 0.2189287 0.11482249 -3.297179e-27
0.22204347 0.034705583 -1.4555692e-27 0.1690206 0.10687845 3.778238e-27 0.05358053 -0.28297648
5.1342866e-27 0.014403654 0.07901808 1.456507e-26 -0.3240361 -0.16398618 1.5124148e-26 -0.14808066
-0.47167417 -1.8115433e-26 -0.2258755 -0.36689308 -3.1163032e-26 -0.5522864 -0.37428012 1.4052785e-27
-0.2547196 -0.076958954 4.853245e-26 -0.111379154 0.34264526 -2.7483378e-26 0.11583716 -0.13577528
-1.02251534e-26 -0.109801404 -0.16168416 -9.98023e-27 -0.09071336 -0.07718221 -1.8005873e-26 -0.07804326
0.14803898 -2.1146776e-27 -0.28115982 -0.10408127 -1.4071809e-27 -0.441767 -0.20156732 6.0815733e-27
0.021224484 -0.3545739 -6.1846425e-27 -0.060198057 -0.12118241 -1.3831356e-26 -0.013846854 0.038598206
-1.6794149e-26 -0.23233919 0.08491525 1.387303e-26 -0.2151008 0.032466393 1.9576751e-26 -0.17787692
0.038123008 -6.4149443e-28 -0.11019958 -0.3211013 -5.101039e-27 -0.17032515 -0.040067885 -4.7987534e-26
-0.10446438 0.14529006 1.5464709e-26 -0.35695675 0.005202559 -4.8916883e-26 -0.15505876 0.038558163
-7.1910644e-32 -0.13168506 0.016208902 2.1742748e-28 -0.29426113 -0.19608584 -8.780927e-27 -0.33804137
-0.06271134 -6.0415613e-27 -0.4447919 -0.0808908 3.5834555e-26 -0.18019035 -0.19217508 1.716596e-26
-0.1834303 -0.09181527 1.385729e-26 -0.28894344 -0.056045458 2.771516e-26 -0.4454546 -0.063317806
1.26526256e-26 -0.39406565 -0.22189867 3.2153895e-27 -0.024473762 -0.0861169 1.7914648e-26 -0.09284826
0.06477537 1.0363439e-27 -0.21291554 -0.014431548 1.1995762e-27 -0.15239446 0.09930716 -6.332024e-27

network.1.conv.bias f4 [16]
00000000: 6893 babb e37c 3f3d 487f efbb b926 0e3c
00000010: b523 913b 5759 39bc a79e 523b 648f babb
00000020: 3f83 5cbb 3cc0 66bb aa87 d6bb 8c43 df3c
00000030: 265c 9ebb e309 83bc 133f 503c cae9 833b
-0.0056938417 0.04674996 -0.0073088743 0.008676224 0.0044293054 -0.011312804 0.0032138021 -0.005693363
-0.0033647565 -0.0035209795 -0.006546934 0.027253889 -0.0048327623 -0.015995925 0.012710351 0.0040256726

network.1.norm.weight f4 [16]
00000000: 6d15 703f 8e4b 0b40 4370 323f 7fe2 473f
00000010: ba4a be3f 452f a43f 2ffe 553f 6f55 843f
00000020: 78d2 5a3f 53a2 333f c08b 403f 3eb4 e03f
00000030: 06fe b73f 4c00 cc3f b515 343f 8aa7 f93f
0.93782693 2.1764865 0.6970255 0.7807998 1.4866555 1.2826926 0.8359098 1.0338572
0.854774 0.7016956 0.7521324 1.7555006 1.4374397 1.5937591 0.7034562 1.9504254

network.1.norm.bias f4 [16]
00000000: 058d 0c3e 8dcf c1bc 9dea 2dbd 25df dc3e
00000010: 96c6 cb3d e477 663e 76e6 55be c0b9 b3be
00000020: 0108 33be d9c2 46be 05d3 1ebd 1ecc a1be
00000030: dfae 023e c83c 343e 44ee 90bd 3240 33be
0.1372567 -0.023658538 -0.042460073 0.43138996 0.09949987 0.22506672 -0.20888695 -0.35102654
-0.17483522 -0.19410266 -0.038775463 -0.31601042 0.1276202 0.17601311 -0.070766956 -0.17504957

network.1.norm.running_mean f4 [16]
00000000: 9680 fabe facc 8abf 4ea4 82be ce9f 9cbf
00000010: 733f 64bf 0704 a5bf 0573 2dbe f315 8fbf
00000020: acb1 17bf 51f8 52bf 9852 45be 688b 98bf
00000030: aeee a8bf 2cb5 aebf a8a4 aabe cec2 b0bf
-0.48926228 -1.0843804 -0.2551598 -1.2236269 -0.89159316 -1.2891854 -0.16938408 -1.1178573
-0.5925548 -0.8241015 -0.19269788 -1.1917543 -1.3197839 -1.3649039 -0.33328748 -1.380945

network.1.norm.running_var f4 [16]
00000000: 7336 1e40 5385 f33f b9cd 903f d4ea 0540
00000010: 0674 943f ae00 d73f 24cc 2140 9489 c33f
00000020: a3da e13f 2301 e93f db70 c53f 5b01 e03f
00000030: 3ee8 a23f bdcb 0340 5135 8b3f 9d91 0040
2.4720733 1.9025062 1.1312782 2.0924578 1.1597908 1.6797082 2.5280848 1.527636
1.7644848 1.8203472 1.5425066 1.7500414 1.2727125 2.0593102 1.0875646 2.0088875

network.2.conv.weight f4 [16, 16, 3]
00000000: 2db3 1193 7f76 a794 408a 20bd 1ebe a594
00000010: ae98 2614 fcd7 b6be 2d86 ed93 dcbb e893
00000020: 69b7 3e3d d237 7295 4474 a593 fda2 20be
00000030: a778 0313 27d8 c714 35bb 6abd b1e9 0895
00000040: a575 af14 ee9f 9fbe ccdb 2b13 5ef3 8793
00000050: eac1 0e3e aa6a 4414 31e0 5c92 4981 2b3e
00000060: 4bb3 a294 6963 7314 834f 353e 9db7 4714
00000070: 018f e814 13ad 503e c620 a813 67cd 8913
00000080: 0728 343e 781a e813 1c62 f713 e2f8 e4be
00000090: 108e 4a12 ebfd 1e15 67bd 2f3b dc9c eb94
000000a0: 8b1a 6295 51dd 9fbe 2227 1513 de65 3e94
000000b0: a7e1 b53d 7a93 9794 ccc7 a094 5eba dcbe
000000c0: 2ce8 1a14 1238 1d95 e5f5 b5bd d2cc 7115
000000d0: d85d 1c94 93ab fe3d d19b cf94 ccb5 6695
000000e0: cebe 27be d64b c894 4c09 1a15 657d 553c
000000f0: 3761 9a94 1363 0391 1a24 8c3e ec6c 5a93
00000100: 9c69 168f 851a e73d 79c7 b194 cf82 5e94
00000110: d579 05bd 203b df94 7d18 f413 663e 0fbe
00000120: e58e ce93 3374 2815 b2cb ddbd dd04 b314
00000130: d195 1d95 301a cbbd d8ab 2b15 7bd4 b014
00000140: 5616 47ba 9db2 6594 0b4e 9493 812f 65bd
00000150: 78dc 6413 25f8 8393 05a1 333e d9fe 5493
00000160: 35c1 5d15 d726 833e 0d9c 2914 d3db 8893
00000170: 6d93 1ebe aa41 1214 87cb b094 2667 c13d
00000180: b289 5995 7196 d713 6a1c cbbd 51d5 6995
00000190: 9026 2011 0cb6 b1be f064 4914 d03f 0a95
000001a0: 966d d33d 60e6 1093 eb7a c794 f80b c2be
000001b0: b226 5793 d302 ad14 714e 4bbe 0879 4414
000001c0: a6c7 5213 9e32 43ba 673f 9194 05f8 0995
000001d0: 6811 d63d fcd1 d613 f478 0494 da8b 0c3e
000001e0: a45f b014 a487 1515 2205 ee3d 81c1 0a95
000001f0: 403b 7215 cacd 603e 6fc7 ae94 9ab0 7313
00000200: ca33 c53d 9d4a 9b13 2d2c cb8f 0eed ab3c
00000210: 79df c794 e414 0715 8285 6bbe 63c5 b513
00000220: d96c 0d14 b1d1 05be 956b a813 bfd6 1f95
00000230: 9cc3 993d e2c1 1295 73fa f213 0897 afbe
00000240: 440b a394 77fb b193 15f3 65be 5cac 1f15
00000250: 9a62 6a95 6c25 45be 62ad aa94 9a33 4913
00000260: f342 5b3e e456 ac14 79f3 af94 0d57 7abe
00000270: b2ab bc12 51f0 1494 7acc 84be 6753 e314
00000280: 9229 b014 9a69 e3bd 531b 3a94 9d6a 2f14
00000290: 4bee 783e 64c2 a312 7e51 3394 635e 1f3e
000002a0: b2b5 f393 5a43 d013 fce2 863e c863 f193
000002b0: 13de b294 fe4e 853e 3520 7413 382a 1e95
000002c0: d9e6 873e 2936 7e14 ab99 8d14 5338 38be
000002d0: a866 c914 4e7b a313 084d 71be 068b 6b13
000002e0: caaa b194 8dac 62be 046d 9b93 01eb ec93
000002f0: 3d97 773e cca5 ad10 7310 6614 172b dfbe
00000300: 8d29 fc12 ea6a a594 5c56 d6bd f431 0810
00000310: 3c5c 0c15 3c7f a03e 12b2 fe93 29f6 0d95
00000320: e079 4ebd 0f3b ee91 81ec 1d94 ac59 d73d
00000330: 6f08 6713 b1eb b293 c408 423e d2e9 9c92
00000340: bf44 ad14 c0d4 1a3e ccc0 d913 92f5 e613
00000350: d5f6 07bd 7b6e e314 94aa 7494 74e1 85bd
00000360: c55d a713 e680 a614 52cf 32bd 33d6 6714
00000370: cf67 a794 d03d 8c3d 7445 1815 8b55 9d93
00000380: 31ad 2abe 9f7f 1715 8db0 9894 485a 85bd
00000390: 26cc 1215 3a35 9914 ddfa b53d e2f2 c594
000003a0: 7c24 4a12 2f1e 343e bdff 1615 869c be93
000003b0: dc7b ffbb 6e0a 1895 f50f 0995 ee34 673e
000003c0: b613 a694 eae1 0a15 4fd6 a9be a48d f493
000003d0: 316e 6f95 396a b8be 6b3b 1815 29ce e713
000003e0: 5af3 163e 1102 f393 38e2 1e15 dfa6 23be
000003f0: 6f5d db14 aca1 b713 f1a8 51be 0599 9012
-1.8389913e-27 -1.6909429e-26 -0.039194345 -1.673573e-26 8.410969e-27 -0.35711658 -5.995952e-27 -5.8750277e-27
0.046561632 -4.8915545e-26 -4.1766503e-27 -0.15687175 1.659401e-27 2.0179122e-26 -0.05730744 -2.764933e-26
1.7716887e-26 -0.31176704 2.1691603e-27 -3.431877e-27 0.1394116 9.916507e-27 -6.9696097e-28 0.16748537
-1.6428538e-26 1.228797e-26 0.17706113 1.0083144e-26 2.3482419e-26 0.20378523 4.244148e-27 3.4786204e-27
0.17593394 5.8591134e-27 6.244831e-27 -0.44721133 6.3915067e-28 3.2108152e-26 0.0026815773 -2.3790806e-26
-4.5661275e-26 -0.3122354 1.8825738e-27 -9.612638e-27 0.088809304 -1.5305273e-26 -1.6234677e-26 -0.43110937
7.820801e-27 -3.175013e-26 -0.08884791 4.8831137e-26 -7.894495e-27 0.12435069 -2.0963117e-26 -4.6591543e-26
-0.1638138 -2.0224751e-26 3.1107386e-26 0.013030385 -1.558837e-26 -1.0364607e-28 0.27371293 -2.7569171e-27
-7.4159106e-30 0.11284355 -1.795111e-26 -1.1233933e-26 -0.03258689 -2.2540566e-26 6.1618407e-27 -0.13988647
-5.2142616e-27 3.4018995e-26 -0.108298674 1.80763e-26 -3.1824082e-26 -0.09917104 3.4668736e-26 1.7855267e-26
-0.0007594576 -1.1596771e-26 -3.743741e-27 -0.055953506 2.8886345e-27 -3.331374e-27 0.17541893 -2.6883812e-27
4.4783008e-26 0.2561557 8.563095e-27 -3.454799e-27 -0.15485926 7.384066e-27 -1.7851736e-26 0.09443502
-4.3931423e-26 5.4421977e-27 -0.09917529 -4.7222252e-26 1.2633657e-28 -0.34709203 1.0167813e-26 -2.7919217e-26
0.10323636 -1.8288939e-27 -2.0142348e-26 -0.37899756 -2.7155893e-27 1.746965e-26 -0.19854142 9.9193404e-27
2.660416e-27 -0.0007446202 -1.4666266e-26 -2.7862583e-26 0.10452539 5.4228255e-27 -6.688151e-27 0.13725224
1.7809182e-26 3.0197312e-26 0.11622073 -2.8021526e-26 4.891825e-26 0.21953502 -1.7648173e-26 3.0757983e-27
0.096290186 3.9201075e-27 -2.0034361e-29 0.02098706 -2.018201e-26 2.7279513e-26 -0.23000148 4.5885462e-27
7.140147e-27 -0.13068272 4.2515246e-27 -3.22792e-26 0.07508013 -2.9637412e-26 6.133635e-27 -0.34294915
-1.6463237e-26 -4.4929045e-27 -0.2245601 3.2245762e-26 -4.7333707e-26 -0.19252557 -1.7234e-26 2.5395208e-27
0.21412258 1.7401834e-26 -1.7766517e-26 -0.2444727 1.1906794e-27 -7.5194845e-27 -0.25937253 2.2954039e-26
1.7787855e-26 -0.11104126 -9.395989e-27 8.856268e-27 0.24309652 1.0334667e-27 -9.053262e-27 0.1556335
-6.152099e-27 5.2572996e-27 0.2634505 -6.0935345e-27 -1.8061e-26 0.2603683 3.0813009e-27 -3.194115e-26
0.2654331 1.2834404e-26 1.4297973e-26 -0.17990236 2.0336304e-26 4.1268573e-27 -0.23564541 2.9729714e-27
-1.7939797e-26 -0.22136135 -3.9235e-27 -5.9806507e-27 0.24178787 6.849192e-29 1.16152766e-26 -0.43587562
1.5913679e-27 -1.6702912e-26 -0.104656905 2.6859753e-29 2.8345535e-26 0.31347072 -6.4294205e-27 -2.866891e-26
-0.050409198 -3.7586177e-28 -7.9731165e-27 0.105151504 2.9160457e-27 -4.5165927e-27 0.18948656 -9.902625e-28
1.7495651e-26 0.1512022 5.4968614e-27 5.8302314e-27 -0.03319438 2.296472e-26 -1.23524925e-26 -0.065371424
4.224919e-27 1.6812558e-26 -0.043654747 1.1704763e-26 -1.6903636e-26 0.06847727 3.0750944e-26 -3.9716724e-27
-0.1666763 3.0594882e-26 -1.5417715e-26 -0.065113604 2.964551e-26 1.5470046e-26 0.08885739 -1.9987717e-26
6.378493e-28 0.17589639 3.0494e-26 -4.8117087e-27 -0.0077967476 -3.0704383e-26 -2.7679518e-26 0.22578785
-1.6769491e-26 2.8047093e-26 -0.33171317 -6.1733928e-27 -4.835259e-26 -0.3601854 3.0743028e-26 5.8515888e-27
0.14741269 -6.134386e-27 3.20863e-26 -0.15981625 2.2150202e-26 4.6355115e-27 -0.20474602 9.1254e-28

network.2.conv.bias f4 [16]
00000000: d411 05bc f6ca dcbb 3621 a83c 31b6 2d3d
00000010: c930 f139 09f1 8abc a564 87bb 1c3e 293b
00000020: 8b9a ecb9 d082 ed3c 0cbf 64ba b0ad 88bc
00000030: 0c12 52bb f5d3 e2bb 94f2 bebc 71fd c93c
-0.008121926 -0.006738062 0.020523649 0.04241008 0.0004600345 -0.016960638 -0.004131871 0.0025824374
-0.0004512857 0.02899304 -0.0008725978 -0.016684383 -0.0032054214 -0.00692224 -0.02330903 0.024656983

network.2.norm.weight f4 [16]
00000000: e846 9a3f b1a9 193f c6ab 913f 5e13 a03f
00000010: 6041 213f f8b6 963f e9d1 1c3f 3cab 203f
00000020: cad2 213f 0a55 903f 2e5f 123f 83b9 9f3f
00000030: de8c 9a3f d8ba 913f b4b5 943f 89c0 983f
1.2052889 0.60024554 1.1380546 1.250591 0.6299038 1.1774588 0.612578 0.6276128
0.63212264 1.1275952 0.5717648 1.2478489 1.2074239 1.1385145 1.1617951 1.1933757

network.2.norm.bias f4 [16]
00000000: f650 aa3e 89a3 5ebd 6ae2 8a3e 6645 d83e
00000010: 591c d4b9 5d3d a33e 20d9 debb 5e63 13bc
00000020: 9ba7 41bd a013 c03e d97a 823b 2fcf cc3e
00000030: 0e29 e33e 9b29 ea3e 3164 a63e 0b96 aa3e
0.33264893 -0.054355178 0.27125865 0.42240447 -0.00040456912 0.31882754 -0.0068007857 -0.008995859
-0.04727898 0.37514973 0.0039819297 0.4000182 0.4436726 0.45734867 0.32498315 0.333176

network.2.norm.running_mean f4 [16]
00000000: 0654 9ebf 0976 0b3f 1dca 79bf 1be7 82bf
00000010: 10b1 3c3f ae30 92bf f4b8 e13e cc75 d93e
00000020: 1876 9c3e 19dc c2bf c8ae 0d3f 5c57 a9bf
00000030: c220 afbf 7af2 c2bf 7e6f aabf 0b65 bbbf
-1.2369392 0.5447698 -0.97574025 -1.0226778 0.73707676 -1.1421106 0.4408642 0.42472684
0.30558848 -1.5223418 0.5534482 -1.3229785 -1.3681872 -1.5230248 -1.3315275 -1.4640211

network.2.norm.running_var f4 [16]
00000000: 592b af3f df46 ca3e f23c 883f 5582 cd3f
00000010: aff0 003f f6a3 8e3f 4b43 783e 4a19 773e
00000020: 967d 783e 19a8 fe3f fe2e 943e f62b c43f
00000030: 4ea9 f03f 7531 fb3f 443f af3f 2474 ec3f
1.3685104 0.39507195 1.0643599 1.6055399 0.50367254 1.1143787 0.2424442 0.24130741
0.24266657 1.9895049 0.28942102 1.5325916 1.8801668 1.9624468 1.3691182 1.8472943

output_layer.weight f4 [1, 16]
00000000: 3971 a43e 878b 30bf 266d ad3e 8d1f 9e3e
00000010: ac30 f3be ecf0 9c3e 6311 dbbe 5abe 48bf
00000020: 925f cabe 52f3 973e da3d 35bf 4748 8d3e
00000030: 0fbb ad3e edbe a33e 00ae 943e 3f4d a33e
0.32117632 -0.689629 0.33872336 0.30883446 -0.4749807 0.3065256 -0.42786703 -0.78415453
-0.3952604 0.29677826 -0.70797503 0.27594206 0.33931777 0.31981602 0.29039 0.31894872
